actor.pth (torch_old, 159230 bytes, 6 tensors)

fc1.weight f4 [256, 24]
000000 24 a4 9b 3d e4 81 b0 3d 77 29 05 3c a2 b2 22 3d
       0.07599667 0.08618525 0.008127562 0.03972114
000010 78 12 28 be 25 d4 10 bd ac 9f 4f 3c 1f 10 ef 3d
       -0.16413295 -0.035358567 0.012672346 0.11672997
000020 e4 e1 af 3c f7 49 11 3e 23 aa 87 bd de fc ef bc
       0.021470018 0.14188372 -0.06624248 -0.029295381
000030 30 54 98 bd dd bd bf bd f8 31 89 bb 48 cd c3 3c
       -0.074379325 -0.093623854 -0.004186865 0.023901597
000040 09 3c 3e bb e6 0c 1e 3d 70 a4 e3 3a eb 30 a9 3c
       -0.0029027483 0.03858652 0.0017367732 0.020653209
000050 86 0f bf bd cd 7e c1 bd c7 80 89 3d c9 d3 c8 bc
       -0.09329133 -0.094480135 0.067140155 -0.02451505
000060 98 c4 15 bd 7b 6f 12 3d 18 a8 68 bd eb cf c6 3d
       -0.03656444 0.035750847 -0.05680093 0.09707626
000070 74 36 8b bc 23 d0 45 3b 5e c5 45 bd 44 9a 8d 3b
       -0.016993739 0.0030183874 -0.048283927 0.0043213684
000080 e7 2a 64 bd 1b c3 c6 3c 64 79 a9 3c 95 36 ab 3d
       -0.055704977 0.024262955 0.020687766 0.0836002
000090 18 0e 94 bc 61 68 02 3d a6 fd da bc 6f d1 bf 3d
       -0.018073127 0.031837825 -0.026732277 0.09366118
0000a0 ab ba 2c bd 4f 07 9f 3d fc 95 6c bd 7e c4 66 3e
       -0.042170208 0.07765066 -0.057760224 0.22535893
0000b0 d0 28 c1 3d 4a ce ea 3d bc 92 4d bc f8 87 3f 3e
       0.094316125 0.11465128 -0.012547191 0.18704212
0000c0 b6 fe 57 be 1e 20 01 3d 95 51 ec 3b df 84 7b 3d
       -0.21093258 0.03152477 0.007211874 0.061406013
0000d0 7f 61 91 bc 3a 37 8a 3a f8 ba 9a bd 24 10 f4 3b
       -0.017746685 0.0010545023 -0.07555193 0.007448213
0000e0 ec d2 98 bd 82 85 bd 3d 63 87 59 bd 51 6d a6 bd
       -0.07462105 0.0925398 -0.05310763 -0.08126319
0000f0 9e 36 9c 3d 4f 0a 39 be c7 f3 0a bd 6c 9a 7b bd
       0.07627605 -0.18070339 -0.03392389 -0.061426565
000100 a2 b8 77 bd e5 bf 1e 3d e8 6b 16 bd b9 b1 ea bd
       -0.060478814 0.038757224 -0.036724 -0.11459679
000110 1f 6c 3c 3d ca 78 6f be 99 38 1e 3c ce af 21 bd
       0.04600155 -0.23385921 0.009657049 -0.0394743
000120 af 6c 9d bd 92 d1 23 bd a5 79 62 3d b9 56 35 bd
       -0.076867454 -0.039994784 0.05529179 -0.04427216
000130 99 d6 87 3d 6f e8 30 bc 42 05 a2 3d 83 d9 51 bd
       0.06632728 -0.010797604 0.07911159 -0.051232826
000140 d2 54 f5 bd 7d 7b 80 bd 0c 24 46 bc ff 2a 07 bd
       -0.11979069 -0.062735535 -0.012093555 -0.03299999
000150 f6 0b 0a 3e 73 1e 1c bd 4e e6 d7 3c 72 1d 1f 3d
       0.13481125 -0.038114976 0.026354935 0.03884644
000160 a8 f1 1f bd 0f 8b 9b 3b af cd e7 bc a9 dc 12 bd
       -0.03904882 0.0047468017 -0.02829632 -0.03585497
000170 82 d7 b4 3d ac ef 81 bc 0a a5 8b 3d ac 57 ce bb
       0.08830167 -0.015861355 0.06818588 -0.0062970724
000180 bc 77 90 bd 15 42 2a be 2e 2f 2d 3d 44 b6 ee 3b
       -0.070540875 -0.16626771 0.042281322 0.0072849113
000190 07 fe 45 3e a3 09 81 3d 7d f8 81 bd 6a 04 85 bd
       0.19335185 0.06300666 -0.063462235 -0.064949825
0001a0 c3 c5 8c bd d3 2a b9 bd 07 63 9e bd f5 74 94 bd
       -0.068736576 -0.09041371 -0.07733732 -0.0724887
0001b0 f3 ba 4c 3e 4f ea d7 3d 5b bb 62 bd cb a7 a9 bb
       0.1999319 0.10542738 -0.055354457 -0.005177473
0001c0 a1 c6 d4 bb 03 fe 47 bc 3c 5e 92 3c f2 33 24 bd
       -0.006493405 -0.012206557 0.0178672 -0.0400886
0001d0 36 af 79 3d f6 b9 15 3e 58 78 67 3d 7b b9 e6 3c
       0.06095811 0.1462172 0.056511253 0.028164616
0001e0 05 c2 2a bd 6d ca 8d bd 24 d2 a2 bd ef 3d 12 bd
       -0.041688938 -0.06923375 -0.079502374 -0.035703596
0001f0 c8 0f a1 3d 90 c6 4a 3d 6a d9 a8 ba a4 26 8f bc
       0.07864338 0.04950577 -0.0012882177 -0.01747448
000200 e7 3b 6d bd 8f 88 6f bd f3 bc 14 3d c7 87 0e bc
       -0.057918455 -0.05847984 0.03631301 -0.008699364
000210 61 89 46 3c 63 3e bf 3d 6f cd d4 3d 35 85 8d 3c
       0.012117715 0.09338071 0.10390746 0.017275432
000220 96 0f 6c bc 5a d7 ed bd 4d e7 bc 3d b2 73 e0 3d
       -0.014408013 -0.11613341 0.092238046 0.10959567
000230 13 d1 84 3c 72 c7 fc 3d 5d c8 cd 3d 72 cd aa 3d
       0.016212976 0.12342729 0.10047982 0.08339967
000240 8f b5 e0 bd a3 2e f6 3d 93 b0 ec 39 fa 99 5f bc
       -0.109721296 0.12020614 0.00045144986 -0.013647551
000250 bd 82 84 bb 43 2f 5f bd 5a 88 e4 3c 31 6c 9b 3d
       -0.0040439055 -0.05448843 0.027897049 0.07588995
000260 a1 a5 a7 bc c4 62 2d 3d 8d 0c d1 3c 02 69 15 bd
       -0.02046472 0.04233052 0.02551868 -0.036477096
000270 90 ff 01 bd 5d d9 f2 3d 37 10 8c 3b 54 59 e7 bc
       -0.031737864 0.11857865 0.004274394 -0.028240837
000280 6f f3 a1 bd c7 91 cc bc 40 8b b0 3d d5 18 dc bd
       -0.079077594 -0.024971856 0.0862031 -0.10746924
000290 c8 05 91 3b c6 0a 9b 3d b2 56 ac 3d f1 16 9d bd
       0.004425738 0.07570414 0.08414973 -0.07670391
0002a0 d9 f4 9d bc 54 2e 92 bd 46 3f 86 bd a7 93 99 3c
       -0.019281792 -0.07137743 -0.06555037 0.018747164
0002b0 1a 6d 08 3d 8e 0d d2 3d 45 2b 1a bd 53 b8 dd bc
       0.033307172 0.102564916 -0.03763892 -0.027065432
0002c0 24 d6 ae bc 79 07 d0 bc a0 d8 ec bd 4a 08 fa bd
       -0.021342345 -0.025394188 -0.115647554 -0.12208612
0002d0 77 41 1e bc 64 b9 8a 3d de 60 d1 bd 1a a8 ea bd
       -0.009659163 0.06773642 -0.10223554 -0.11457844
0002e0 a0 d0 13 3c 07 cc ae bd 60 d5 53 bd a7 d2 b1 3d
       0.009021908 -0.08535009 -0.051717162 0.08682757
0002f0 d4 94 5d 3b fb 42 3f 3c 75 67 cb 3c 81 e9 89 3d
       0.0033810632 0.011673684 0.024829606 0.067339905
000300 30 67 bf bd 81 5f ec 3c dd db c5 3c 51 9d 18 3d
       -0.09345853 0.028854134 0.02415269 0.037259404
000310 aa 2f e5 3d 52 71 9d 3c a3 f6 d9 3c ee e6 42 3c
       0.11190732 0.019219074 0.026606863 0.011895878
000320 c1 6e e2 bc ba 86 39 3d c1 d7 5c bd 96 38 b3 bd
       -0.027640702 0.0452945 -0.053916696 -0.08751027
000330 56 f2 16 3e 58 f8 7b 3d 7f 0c 0a bd f3 8b 80 bd
       0.14740881 0.061516136 -0.033703323 -0.06276693
000340 ce ad 29 3c 8f 33 5c bd b7 23 5f 3c 74 d1 41 be
       0.01035638 -0.053760108 0.013619355 -0.18927556
000350 05 8e 1f 3d 23 55 38 3e 66 33 83 bd 5e d7 82 be
       0.0389538 0.18001227 -0.06406288 -0.25554937
000360 de 23 50 3d 62 ec 39 bd 5b 9a 2f bd 17 d8 89 3d
       0.050815456 -0.045391448 -0.042871814 0.06730669
000370 58 90 d1 bd 79 69 4d 3d 21 16 51 bd 57 de ad 3d
       -0.102326095 0.050149415 -0.051046494 0.084896736
000380 5e d4 03 bd fe c6 81 bd 3f d0 86 3d 5e f4 dc 3d
       -0.03218495 -0.06336783 0.065826885 0.10788797
000390 6a 82 d7 bd 1a dd 81 3d 4f 69 a8 3c 0d f8 19 3d
       -0.105229214 0.06341 0.020558028 0.037590075
0003a0 a7 5e 90 3d 45 49 84 bd 51 d2 25 3d 69 f2 e7 3d
       0.070493035 -0.064592876 0.040483776 0.11325533
0003b0 bf e3 05 be a3 14 9f bd ca bc 0c 3e 21 73 b2 3d
       -0.1307516 -0.07767608 0.13743892 0.08713365
0003c0 8c a7 13 3d 3b 56 98 3d 5b c7 62 bd 58 fd cd 3b
       0.036048457 0.07438322 -0.0553659 0.0062863044
0003d0 6d 22 18 bd 89 73 9e 3c c9 2d c8 bd 2a 2f 7e 3d
       -0.037142206 0.0193422 -0.09774358 0.062056698
0003e0 20 79 3d 3d 17 78 93 3d 49 04 c0 bc 7c 06 dd 3c
       0.046258092 0.0720064 -0.023439543 0.026980631
0003f0 d8 ac 1d 3d 52 77 12 3d cc b7 84 bd e5 81 46 3d
       0.038494915 0.035758324 -0.06480369 0.04846372

fc1.bias f4 [256]
000000 84 62 87 bd e8 4e 09 3e cd b6 24 3e 8d d5 da 3d
       -0.06610587 0.13409007 0.16085358 0.10685263
000010 12 07 23 bd 6a f2 0b be 54 9a 37 be 42 1a a6 bc
       -0.039801665 -0.13666692 -0.17929965 -0.020276193
000020 bb 4d 49 be 54 da f6 bd e0 f6 93 3d 56 b7 5e bd
       -0.19658558 -0.120533615 0.07224822 -0.05437406
000030 61 73 00 3e 79 16 1b be 48 23 00 3d a5 7b 10 3e
       0.12544014 -0.15145291 0.031283647 0.14109667
000040 0c 51 48 3e 4b 3f db 3c 7d 4a e1 bd 95 4d dc bd
       0.19562167 0.026763579 -0.11000536 -0.10756985
000050 66 8e 08 3e f1 d7 2d be 6c 50 4e bd 3a 56 07 be
       0.1333557 -0.16976906 -0.050369665 -0.13216487
000060 f3 5c 50 3d d1 b8 1e be a1 94 78 3d 57 7b 36 3d
       0.050869893 -0.1550019 0.06068862 0.04455122
000070 f5 ba 10 be a5 08 d1 bd 2f 0c 43 be 0a cc 24 bd
       -0.14133818 -0.10206727 -0.19047616 -0.04023365
000080 01 53 2a 3d 2f 45 c3 3c a8 9a af bd a5 a8 c3 3c
       0.041583065 0.0238367 -0.0857442 0.023884127
000090 85 e7 df bd d7 17 60 3e d5 a6 f9 bd 8e 0f e9 3d
       -0.10932831 0.21884094 -0.12190024 0.1137992
0000a0 c1 8a 95 bd 2c 15 ee bd 3c 89 a6 bc 6c 05 c5 bd
       -0.07301856 -0.11625132 -0.02032911 -0.09620175
0000b0 90 43 a3 bd 22 40 8a bd 07 e0 9b bc a5 4c 6a bd
       -0.07971871 -0.067505136 -0.019027723 -0.057202
0000c0 b5 d8 7b 3e 2f df 24 3e 4b ed aa bd b5 4d 07 3e
       0.24594386 0.16100763 -0.08346041 0.13213237
0000d0 ec 5e ee bd fe 8e 09 be 35 fd 0a 3e 90 98 88 bd
       -0.11639199 -0.13433453 0.13573153 -0.06669724
0000e0 4a 8c 39 3e a6 11 17 3d a3 c4 49 be 2e 76 37 3e
       0.18119922 0.036882065 -0.19703917 0.17916176
0000f0 76 f9 d1 3d f2 27 36 3e 60 1c ff 3b b2 3f 1f be
       0.10252659 0.17788675 0.007785365 -0.15551642
000100 af 87 2e 3e a4 02 ca 3c 43 29 23 be 15 57 2d 3e
       0.17043947 0.024659462 -0.15933709 0.1692775
000110 8d 74 50 be 90 40 54 bd f2 46 a3 bd 00 a0 33 be
       -0.2035696 -0.051819384 -0.07972516 -0.17541504
000120 8c 41 1e be b9 c9 73 bd 9f 3f 0f bb 16 ac 01 3e
       -0.15454692 -0.05951855 -0.002185799 0.12663302
000130 8a f8 8f 3d c8 88 6c 3e da b1 63 3d 5e fa 04 3d
       0.07029827 0.23099053 0.055589534 0.03246533
000140 40 48 3c bc 00 d8 f7 bc c9 63 9e be cc 51 25 be
       -0.011491835 -0.030254364 -0.30935505 -0.16144484
000150 6e ce bb 3d 1c cd 04 be 36 ac d3 bd b7 e6 f2 3d
       0.09170233 -0.12968868 -0.10335581 0.118604116
000160 55 ba af bd 77 70 82 3d 0b 95 91 3c 82 93 65 3d
       -0.08580462 0.06369107 0.017771265 0.056048878
000170 3c b2 d6 bd 09 b8 d2 3d b2 42 32 be f1 11 55 be
       -0.10483214 0.10289008 -0.17408255 -0.20807625
000180 75 95 ed 3d be 07 e0 bd a8 60 81 3e 95 99 9e 3d
       0.11600772 -0.10938977 0.25269055 0.07744137
000190 f3 79 38 3e d0 32 b8 bc a0 97 6b 3d 9a 8a 29 3d
       0.1801527 -0.022485167 0.057517648 0.041391946
0001a0 41 ba 47 bd 79 bf 25 3d b3 b9 fd 3d 37 10 0e 3d
       -0.04876161 0.040465806 0.12388935 0.034683432
0001b0 c8 24 e0 3d d4 e1 44 bd dd ce 09 be 88 b9 3b be
       0.109445155 -0.04806693 -0.13457818 -0.18332493
0001c0 01 f1 32 bd 37 fd 00 be 44 d0 97 bd 12 fa 5a 3e
       -0.04368687 -0.12596594 -0.074127704 0.21384457
0001d0 e4 af 2a 3e 5f 9b 2a be ae ae 21 be d5 35 dd 3d
       0.1666866 -0.16660832 -0.15789291 0.10801283
0001e0 62 d8 bf bd c2 ae 60 bb 50 5b 2f 3e 45 75 55 3e
       -0.093674436 -0.0034283851 0.17124677 0.20845516
0001f0 b6 dc fd 3d 62 32 4a 3d 31 97 02 3d 38 e5 6c bd
       0.12395613 0.049364455 0.03188247 -0.057835788
000200 d2 d6 1a 3e 26 82 22 be dd 97 21 be b9 fe 47 3e
       0.1512101 -0.1586996 -0.15780587 0.19530763
000210 70 c8 3e be 1c 4e 28 3e 22 4d 2c 3e d7 14 57 3e
       -0.18631148 0.16436046 0.16826299 0.21004044
000220 34 47 01 3e 47 92 49 3d 7b a2 b1 3d 08 d6 32 3e
       0.12624818 0.049211767 0.08673569 0.17464459
000230 87 b0 b4 bc e7 14 2b be 1e 4e c4 3d b9 b6 48 3d
       -0.022056831 -0.16707192 0.09585212 0.049002383
000240 0b 6d 1d 3e 33 88 f1 bd 6c f3 81 bd 9e 28 23 be
       0.15373628 -0.11793556 -0.06345257 -0.15933463
000250 f8 39 c5 3c 48 05 67 3e 26 e1 a6 3d f4 9e d0 3d
       0.024075493 0.22560608 0.081484124 0.10186568
000260 ce bb 1e 3e 2e a3 62 be 49 9e 66 3e 4f 97 0c bd
       0.1550133 -0.2213256 0.22521318 -0.034323987
000270 5a 29 80 3e 72 32 6f 3d f0 ef f3 bc 58 34 6c 3e
       0.2503155 0.058397718 -0.029777497 0.23066843
000280 3f f2 ec bd 86 8e 27 3c 94 0b 27 3d e6 c9 ce bb
       -0.11569642 0.010226851 0.040782526 -0.0063106893
000290 0d 04 20 bd 9c c5 5b 3e 51 f6 5b 3d 95 c1 aa 3d
       -0.039066363 0.214621 0.053701703 0.08337704
0002a0 57 24 30 3e 03 05 08 3e 7b 00 12 3e 8a d9 1d be
       0.17201363 0.13283162 0.14257996 -0.15415016
0002b0 d5 47 2e be 2d 16 44 be fd ea 35 be 33 03 08 be
       -0.17019589 -0.19149084 -0.17765422 -0.1328247
0002c0 eb 59 fd 3c ba 6a 0b 3e d3 76 1b be df fb 31 3d
       0.030926665 0.13614932 -0.15182047 0.043453094
0002d0 3d 67 92 bd b6 95 5c 3e 7b ae 28 3d 83 2b 22 3e
       -0.071485974 0.21541485 0.041182023 0.15836911
0002e0 bd 3e 47 3e 4d 10 2d be fa cd 1f be f9 aa 72 bc
       0.19457527 -0.1690075 -0.15605918 -0.014811271
0002f0 11 3f 0c 3e 81 19 2e 3e 20 8d f6 3d a9 17 9e 3b
       0.13695933 0.17001916 0.12038636 0.004824598
000300 40 15 17 bc 3c e0 df bd d2 61 37 3e 23 d2 26 be
       -0.009221375 -0.10931441 0.17908409 -0.16291098
000310 cc c2 fd bd ae 41 0b 3e bf 6b 31 3e 94 55 1a 3e
       -0.1239067 0.13599274 0.17326258 0.15071708
000320 f9 5e 05 3d 5b 74 81 bd 2f b5 30 3c 4c 48 56 bd
       0.032561276 -0.06321021 0.010785385 -0.05231504
000330 f6 0f 89 3e b6 e5 0a 3e 8b 09 1a bd 2c 31 05 3e
       0.2676999 0.1356419 -0.037606757 0.13007039
000340 f9 43 8a bd 0c 20 3f be ae 82 7a 3d 44 d0 92 bc
       -0.06751246 -0.18664569 0.061159782 -0.017921574
000350 8e 72 e2 3d 45 ee 80 3c b2 8e 85 bc 88 24 5b be
       0.11057006 0.015738616 -0.016303394 -0.21400654
000360 fa 55 4d 3e 78 76 20 3e 79 51 91 bd 9e 62 ce bc
       0.20052329 0.15670192 -0.07095618 -0.025193509
000370 c9 df 9e bd 07 79 f9 3d c6 86 68 3e 9d 85 89 3b
       -0.077575274 0.12181287 0.22707662 0.004196836
000380 f7 51 d5 bb e4 11 25 be 0f 91 a0 3d 12 fa b8 bd
       -0.006510015 -0.16120106 0.07840168 -0.09032072
000390 a5 9c b4 bb 8d 73 1a bd 7b 47 58 3e 14 ed 47 3e
       -0.0055118375 -0.037707854 0.21121018 0.19524032
0003a0 be eb 54 bd 66 55 17 bd 7e 0f aa 3d 13 04 21 3e
       -0.051982634 -0.036946677 0.08303736 0.1572421
0003b0 b3 63 35 be 5b 6d 44 3e d1 20 31 3d 1e ab 3c 3e
       -0.17713813 0.19182341 0.043244187 0.18424651
0003c0 68 be 33 be c7 ea 0c be 45 5d 40 3d 43 3b 4f 3d
       -0.17553103 -0.13761435 0.04696395 0.050593626
0003d0 8c 09 08 be 2f 38 70 3e 93 d2 d4 3c 75 36 53 be
       -0.13284892 0.23458932 0.025979316 -0.20626242
0003e0 9b 1b e0 bc 2d 9f 16 bd 57 0d 20 bd 8f c8 f9 bd
       -0.027356913 -0.036772896 -0.039075222 -0.12196457
0003f0 7f 22 f2 3d 7b 1f 7e 3e cd a6 1e be 2d 61 08 3e
       0.11822986 0.24816696 -0.15493317 0.1331832

fc2.weight f4 [128, 256]
000000 52 46 56 bc 41 32 7b be a1 d6 32 3d 1c 15 18 3c
       -0.013078289 -0.24530889 0.043661717 0.009282377
000010 8f 1a 46 bc 87 a1 16 3d ae f1 0f 3d 3f 9b ab 3d
       -0.012091293 0.03677514 0.035142593 0.0837922
000020 e7 11 81 bd 43 55 f1 3d 03 70 77 be 96 c0 a8 bc
       -0.06302243 0.117838405 -0.24163823 -0.020599645
000030 28 84 a9 bd ad 14 a3 3c 86 19 b7 3d c9 85 d2 3d
       -0.0827716 0.01990732 0.08940415 0.10279424
000040 4d ef d1 3d 92 1f 5f be b5 81 d2 bb 6a 2e cc bd
       0.10250721 -0.21789387 -0.0064241537 -0.0996979
000050 18 d2 1a bd 9f a7 b2 3d ce 95 b1 3d 4e c4 04 3d
       -0.037798017 0.087233774 0.08671151 0.032413773
000060 58 32 4a bc 09 a8 96 bc 09 e2 95 bc 8c cc 09 bd
       -0.012341104 -0.018390672 -0.018296259 -0.033642337
000070 bf 45 6b bc e7 d5 ac bc d2 dc 20 3e e2 59 0a be
       -0.0143598905 -0.02109809 0.15709236 -0.1351085
000080 1c 9f 17 3e 91 ea b7 3c 51 b8 b1 3d f4 11 cc 3c
       0.14806789 0.022450717 0.08677734 0.024910904
000090 3d 72 0f 3e 36 09 91 bc 73 cd 9a 3d d3 8c c6 3d
       0.14008422 -0.017704587 0.075587176 0.09694829
0000a0 14 77 81 bc 87 d4 77 3d 20 6f 47 bd c2 ec 80 bd
       -0.015803851 0.060505416 -0.04868996 -0.06295158
0000b0 c8 1c b4 3d 54 c2 dd 3d c9 04 92 3d c9 65 db 3c
       0.08794552 0.10828081 0.07129819 0.026781933
0000c0 a6 e2 d0 3d d6 7c c1 3c a5 e4 dd bb b3 cf 2e bd
       0.1019948 0.023619097 -0.0067716413 -0.042678546
0000d0 a1 f0 38 3d 8d 1e 29 bd ac e6 bd bd ca 07 0b be
       0.045151357 -0.0412889 -0.09272513 -0.1357719
0000e0 b4 3d 84 3d 4a cb 3e 3d 52 ab 97 bd 5b 2a 96 bc
       0.064570814 0.04658059 -0.07405724 -0.018330744
0000f0 68 09 3f bd 75 14 4a 3e 7c 6f d1 3c 62 08 54 bd
       -0.04663983 0.19734366 0.025565855 -0.051765807
000100 43 04 10 bd 8f aa af 3b b2 d3 e8 bd a1 d9 89 3d
       -0.035160314 0.0053609083 -0.11368503 0.067309625
000110 af de 3b be 1a 10 b7 3c 64 08 5b 3d c8 d4 18 bd
       -0.18346666 0.022346545 0.0534748 -0.0373123
000120 e4 88 aa bd 7f e4 a7 3d ff e8 1c bd 64 43 ba bb
       -0.08326891 0.08197879 -0.03830814 -0.005684303
000130 b3 97 2d bd a7 13 54 bd e1 22 35 bd eb 5f 81 bd
       -0.042381 -0.051776554 -0.044222716 -0.06317123
000140 f8 a1 4f be f3 57 1d 3d 4c 96 de bd 23 eb 3a bd
       -0.2027663 0.038413953 -0.108685106 -0.0456344
000150 76 31 6f 3d f4 dc 1e 3c f0 70 00 be b7 86 19 3d
       0.05839678 0.009696234 -0.12543082 0.03748199
000160 86 c4 59 bd f8 9d 06 3d c6 d4 91 3d cf 1b 3f be
       -0.053165935 0.032865494 0.071206614 -0.18662952
000170 29 9f be bd bc 7a 49 3d f3 34 96 bd 1b 82 0c be
       -0.09307701 0.049189314 -0.07334318 -0.13721506
000180 61 dd 5d 3d cf 50 12 be 22 55 f4 3d 4a 71 17 be
       0.0541662 -0.14288639 0.119303 -0.1478931
000190 64 14 cd 3c e7 af b3 3d 73 14 78 3d 13 30 4d bd
       0.025034137 0.08773785 0.060566377 -0.050094675
0001a0 40 4f b4 3d 20 07 ad bd f2 54 bd bd ed d6 18 3e
       0.08804178 -0.084486246 -0.09244718 0.14925738
0001b0 a0 16 a7 3c 2f 38 6b bd a4 4c 0f be 7b b1 60 3d
       0.02039653 -0.057426628 -0.1399408 0.05485676
0001c0 69 36 48 3c 08 f7 59 3d c2 37 1b 3a 1b d3 61 bc
       0.012220004 0.053214103 0.00059210893 -0.013783242
0001d0 24 b4 13 3d 83 bd 11 3e 32 60 1b bd 3c 96 21 3d
       0.036060467 0.14232449 -0.037933536 0.039449915
0001e0 c9 fb 94 bc c9 08 16 be e7 a3 59 bd 6d 8b 80 3d
       -0.018186467 -0.14651789 -0.053134825 0.06276593
0001f0 cd 1b b0 bb 42 88 fa 3d 0d 82 de 3c 63 c4 98 bc
       -0.005374408 0.1223302 0.027161622 -0.018648332
000200 57 d2 51 3d 80 65 02 3e 46 1d c8 bd c1 fa fa bc
       0.051225986 0.12734032 -0.097712085 -0.030637147
000210 a8 eb 45 bd b9 e9 b8 3d cb 28 20 3e ee b4 68 bc
       -0.048320442 0.09028954 0.15640561 -0.014203293
000220 18 5b 07 3e 98 e2 6c 3d 6a 22 47 bd c5 94 93 3c
       0.13218343 0.057833284 -0.048616804 0.018015275
000230 e2 42 9b bd 20 60 45 bc 1a 6d 13 3e 0a ac 89 bd
       -0.07581116 -0.012046844 0.14397088 -0.06722267
000240 4a 41 18 3d 18 e4 1e 3d e4 33 93 bd fa 2c c2 3a
       0.03717164 0.038791746 -0.07187632 0.001481443
000250 53 21 54 be c9 82 98 3d 4e b1 9f 3d f1 63 5d bd
       -0.20715837 0.0744682 0.0779749 -0.05405039
000260 ac d6 6d bd 77 06 00 bd 1a c1 d9 3d 18 d2 85 3c
       -0.058066055 -0.031256165 0.10632534 0.016335532
000270 5c de 5b 3d d7 da 29 bd 8a 93 9f 3d d5 03 ae 3d
       0.053678855 -0.041468468 0.07791813 0.08496825
000280 07 a8 32 3d 3a f7 bf b9 a6 e3 c6 3d c6 d3 ff bc
       0.043617275 -0.00036614557 0.09711389 -0.031228911
000290 6f 7a 58 3d a2 d1 6f bd d1 7f d7 bb 9e de 69 3c
       0.052851137 -0.05854953 -0.006576516 0.0142742675
0002a0 99 e7 55 3d 87 bc 94 bd a9 aa e8 bd 5e e1 c5 bd
       0.05222282 -0.07262521 -0.11360676 -0.09662126
0002b0 f8 2a e6 bd 6d cc d6 bc aa 3b 71 3c d0 04 af bd
       -0.112386644 -0.026220525 0.014723698 -0.0854584
0002c0 ea 45 dd 3c 72 4c de bd 64 d8 91 3d c0 06 2d 3e
       0.027010877 -0.108544245 0.07121351 0.16897106
0002d0 fd 12 b8 3d 68 63 81 3c 26 be 49 3d 42 ed 17 3b
       0.08987997 0.01579447 0.049253605 0.0023182188
0002e0 72 ea 5c 3d c7 11 89 3c c7 03 b2 3d fc 95 f3 bc
       0.053934522 0.01673211 0.08692127 -0.029734604
0002f0 dc 9e 3b 3d 79 54 ff 3d 0e e9 ff bd c5 f5 05 bd
       0.045805797 0.12467284 -0.124956235 -0.032705087
000300 ca d5 28 bd b7 80 2c bd a8 33 40 bd fc 8d 47 3d
       -0.04121951 -0.04211494 -0.046924263 0.04871939
000310 f7 73 60 be 67 76 2f be 02 10 e7 bd fe 52 56 3d
       -0.21919237 -0.1713501 -0.1128235 0.05232524
000320 78 6f 8b 3c e5 bf 45 3d f0 a3 0c bb db 18 02 be
       0.017020926 0.048278708 -0.002146002 -0.12704794
000330 29 84 7a bc 00 8a b5 3d 49 0f 54 be 6e aa 8e 3d
       -0.0152902985 0.08864212 -0.20708956 0.06966101
000340 f3 26 6f 3d 63 e8 c4 3d 9e b5 e1 3b 9e d0 05 bb
       0.058386754 0.09614637 0.0068881055 -0.0020418535
000350 e9 e5 29 3d b6 9e 37 3d 4f 0b a7 3d e2 db 9f bd
       0.041479025 0.044829093 0.08156454 -0.07805611
000360 dd 7b e5 bc 57 46 e3 3d ba ca 8e 3d 00 ab de bd
       -0.028013164 0.11097401 0.06972261 -0.108724594
000370 7a 3b 70 3d 9b 2c 72 3d b4 96 90 bd ad 9b b2 3c
       0.05865047 0.05912457 -0.07059994 0.021802748
000380 39 c1 11 bd e4 b0 c4 bc 6f 86 0a bd 7b f6 a8 3d
       -0.035584662 -0.02401013 -0.033819612 0.082501374
000390 cc 70 48 bd 89 f5 c9 bb 05 e6 09 3d 3a cd 5f 3d
       -0.048935696 -0.0061633033 0.03366663 0.05463908
0003a0 1b 5d 6d 3d 81 ed a0 bd a0 3c f1 bc 62 09 6a 3c
       0.05795012 -0.078578 -0.029447854 0.014284464
0003b0 a0 9a 07 be 0e c9 3b 3d 3f 54 af 3d a9 06 d2 bc
       -0.13242579 0.045846038 0.085609905 -0.025637941
0003c0 b3 1b 95 bd c1 19 a1 bd 0e 07 ae 3d 29 5b 1f bd
       -0.07280674 -0.0786624 0.08497439 -0.038905296
0003d0 3a 60 e9 bd 9e 15 d3 3d f2 9f 11 3e 6d aa fd bb
       -0.11395307 0.103068575 0.1422117 -0.0077412636
0003e0 35 26 47 3c 0c 1c 1b be 68 a8 c7 bd e7 0e 39 bd
       0.012155105 -0.15147418 -0.09748918 -0.045180228
0003f0 b1 aa a0 bc b5 aa 29 3d 24 a9 c2 bb 97 3c c5 3b
       -0.019612642 0.041422565 -0.0059405733 0.0060191858

fc2.bias f4 [128]
000000 10 ee c1 3d 76 b8 13 3d 3a a8 03 bd 97 11 94 3c
       0.09469235 0.036064588 -0.032142855 0.018074794
000010 96 81 88 3c b0 a3 de 3c 95 5d 08 3d c6 f5 40 bd
       0.016663354 0.027177662 0.03329237 -0.047109388
000020 5d 7c 2f 3d 8a a4 97 3d 20 b8 e6 3d bb 25 6e 3d
       0.04284321 0.0740443 0.11265588 0.05814145
000030 9a 19 a0 bc 77 5b cb bc 5b 68 6e bd ac 80 8c 3d
       -0.019543458 -0.024823887 -0.05820499 0.0686048
000040 e8 65 02 3a b2 ef c8 3c 7e 6f 86 bc 6b 57 02 bd
       0.00049742917 0.024528358 -0.016410585 -0.03182165
000050 0d 5b 13 bd 0d a4 03 3d 0a 9f 78 bc b4 f4 40 3d
       -0.035975505 0.032138873 -0.015174637 0.047108367
000060 65 10 8e 3d a3 8c 9e 3c e1 ee 00 bd a8 2a 8f 3c
       0.06936721 0.01935417 -0.031477813 0.017476395
000070 65 50 b5 3c 81 8e ab bc d4 ef 79 3d a9 4a b5 3c
       0.022133062 -0.020941975 0.061019734 0.022130327
000080 dc b7 32 bc d8 08 b8 bb b2 df 04 bd c2 d5 8a bd
       -0.010908093 -0.0056162886 -0.032439895 -0.06779052
000090 3d 07 86 3d 80 d4 00 3d 8e b2 b8 3c 1e 0c 25 bd
       0.06544349 0.031452656 0.022546079 -0.04029476
0000a0 f2 ac db 3c 5c f6 8d 3d 71 b5 96 3c 7e 2f 8d 3b
       0.026815865 0.06931755 0.018397065 0.00430864
0000b0 c1 a3 04 3e fb d3 d6 3a f6 20 2f bd 52 9f 84 3d
       0.12953092 0.0016390079 -0.042756043 0.064757004
0000c0 0b 94 d3 3b 94 27 e3 3c 73 16 ae bc 0d 65 91 bc
       0.006456857 0.027728833 -0.021250939 -0.01774838
0000d0 69 c6 83 3c 0e 94 5f 3d be 87 49 bc 6a 03 72 3d
       0.01608582 0.054584555 -0.01230043 0.059085287
0000e0 d6 1c 7d 3c 0d 41 b7 3d 92 82 82 bd d6 f7 44 3d
       0.01544877 0.08947954 -0.063725606 0.048087917
0000f0 bb ea bb bc d5 d7 db 3c 14 60 ce bc b0 e7 52 3d
       -0.022939077 0.026836315 -0.025192298 0.051490486
000100 fa a5 30 3c 54 95 88 3d 32 19 ba bc c2 71 d6 bc
       0.010781759 0.06669107 -0.022717092 -0.02617729
000110 29 5c 18 bd 1e 2f f4 3c c4 1b 35 3d c2 da 3e bd
       -0.037197266 0.029807623 0.044215932 -0.046595342
000120 fd 72 54 3d 67 5d 43 bc 05 56 5e 3c 6c 18 29 bc
       0.051867474 -0.011924124 0.013570313 -0.010320764
000130 2e c3 7b bd 5c bc 3f 3d 29 c7 f9 ba 39 2a 3c bd
       -0.061465435 0.046810493 -0.0019056547 -0.045938704
000140 42 d9 aa 3c b8 af 8b 3b b1 4d ef 3c bf d3 51 bd
       0.02085555 0.0042628907 0.02921185 -0.051227327
000150 96 31 28 3d 47 15 0e 3d 1c dc 1a bb 0d 0d 68 bd
       0.041062914 0.03468826 -0.002362973 -0.05665307
000160 42 d6 63 3d e9 0a cd 3b 01 5a 45 3d f6 cf c0 3d
       0.055624254 0.006257404 0.048181538 0.094146654
000170 80 a8 b6 3b 54 8a 3d 3c 12 0d 6a 3d c2 52 b1 3c
       0.005574286 0.0115686245 0.05714137 0.021645907
000180 b0 c6 9b 3d 8c bf a8 3c b9 ba 7c 3d f8 f7 b8 3d
       0.07606256 0.02059915 0.06170151 0.09031671
000190 b5 95 82 3d 38 e3 6c 3d 52 de 57 bd 74 dc 66 3d
       0.063762106 0.05783388 -0.052702256 0.056362584
0001a0 1b c2 10 bd e0 6c 3e bd 0f 6c c4 b7 c2 a3 9f 3c
       -0.035341363 -0.04649055 -2.341534e-05 0.019487265
0001b0 bf 3f 81 3c 54 48 a7 3d eb cb 0a bc b5 15 32 bd
       0.015777467 0.08168092 -0.008471469 -0.043477733
0001c0 19 dc f8 ba 6f 89 8b 3d 6d 04 96 3d 2b 1e 0d 3c
       -0.0018986493 0.06813323 0.07325063 0.00861315
0001d0 bb af 92 3d be 55 0b 3c 81 cf bc 3c fa ad e0 ba
       0.07162424 0.008504329 0.023048164 -0.0017141693
0001e0 3d 1e 42 3d c9 75 f9 3d b0 2b 3c 3d 9a 6c cc bb
       0.04739212 0.12180669 0.0459401 -0.0062385323
0001f0 21 ba 6b 3c 88 de 85 3d a7 30 85 3d 5f 16 b8 3b
       0.014387638 0.06536585 0.0650342 0.005617901

fc3.weight f4 [2, 128]
000000 dc bc 2e 3e cf d3 d3 bd f8 6d f1 bc 6e 20 b5 bd
       0.17064232 -0.10343134 -0.029471382 -0.08844076
000010 77 f5 01 be 20 5b 57 bd 12 91 16 be 3e b0 4b bd
       -0.12691294 -0.052577138 -0.14703777 -0.049728625
000020 ff c8 ee 3d 27 62 b6 3c 53 d5 9d 3d 1e 73 07 bd
       0.11659431 0.0222636 0.07706704 -0.03306877
000030 e7 49 dc bd 7c 68 ab bd 79 de 93 3d 1e 49 3f 3e
       -0.10756283 -0.08369538 0.07220168 0.18680236
000040 ac c7 df 3d 88 26 f9 bc f5 62 9f bd 26 23 00 3e
       0.10926756 -0.030413881 -0.077825464 0.12513408
000050 85 73 13 be 2c b6 3e 3c 96 82 b4 bd bb 40 34 3c
       -0.14399536 0.011640113 -0.0881397 0.011001761
000060 31 67 45 bd 3c ea 45 b9 47 ce b1 bd 12 37 ac bd
       -0.048194114 -0.00018874643 -0.086819224 -0.08408941
000070 2a 72 8f bc 14 73 ed bc 74 da 1e bd ae 29 ab 3c
       -0.017510492 -0.028985538 -0.038782552 0.020893898
000080 34 96 0b 3e 78 6a 8a 3d cd 7d c4 ba 7d 30 5a bd
       0.13631517 0.067585886 -0.0014991105 -0.0532689
000090 d0 f5 16 3d 83 c5 55 bd a4 a5 2d 3c bb 86 fc bd
       0.03685552 -0.052190315 0.010598574 -0.12330385
0000a0 29 11 c8 bc 6c 64 9f 3d 62 99 70 bd 0a af 75 3e
       -0.024422245 0.07782826 -0.058740027 0.23992553
0000b0 6a 4b 12 3e 45 8e 15 3d f6 74 06 bc ef 90 fd bd
       0.1428658 0.036512632 -0.008206597 -0.123811595
0000c0 a9 1f b1 bd f3 ce c0 3d 0d ae 6e 3b 5f 83 e0 3d
       -0.08648617 0.094144724 0.003641966 0.10962557
0000d0 62 f2 9a bd a3 6b 10 3e d3 56 ce bc 5a 14 c3 3d
       -0.07565762 0.1410356 -0.025187885 0.09525366
0000e0 bd 38 6b 3e 9b ef 33 bd 7b 1b 45 be 73 66 ab 3b
       0.22970863 -0.043929677 -0.19248764 0.0052307188
0000f0 37 c0 7a 3e 52 a4 cb 3d 24 da 02 3e e8 b5 f1 3c
       0.24487387 0.09943451 0.12778527 0.029505685
000100 ec 56 b5 bd ed e2 97 3d d4 1c ad bd a3 a4 02 be
       -0.0885447 0.074163295 -0.08452764 -0.12758116
000110 cb 25 34 be 62 03 09 3e 64 17 38 3d d1 a5 66 bc
       -0.17592542 0.13380197 0.044944182 -0.01407762
000120 44 31 7b 3e ad 12 33 bd d7 59 35 be a8 f7 86 be
       0.24530512 -0.043718982 -0.17710052 -0.26360822
000130 56 47 00 be 11 5b 5e be 4b 2c a2 bd 7a 08 e7 bd
       -0.12527213 -0.21714427 -0.079186045 -0.11280914
000140 32 01 0b 3d 9d ec 0b 3c 63 d8 09 3b e9 bf 3c 3e
       0.033936687 0.0085403 0.0021033518 0.18432583
000150 9c 4e 93 3d e5 2d d0 3c 19 09 74 3c 44 ce a3 bd
       0.07192728 0.02541251 0.014894747 -0.079983264
000160 b4 89 fc bd d2 e3 bf 3b 50 5d 1d 3d 0c 5b 0c 3d
       -0.12330952 0.0058560157 0.038419068 0.034266517
000170 a4 f1 a7 3a 04 c2 cf bc 68 cb e6 3d 98 14 5d 3e
       0.0012813103 -0.025361069 0.112692654 0.21589887
000180 ba 1a 3e 3d 96 9a 36 3e 8c 55 d2 3d 85 fd 98 3d
       0.046412207 0.17832407 0.10270223 0.0747023
000190 a1 af d7 3d d6 83 9f 3c 77 e9 2b be f9 6d ef 3d
       0.105315454 0.019472044 -0.16788279 0.116908975
0001a0 f9 87 06 3e 2f 2c b6 bd 12 04 cc bd 69 53 c7 3d
       0.13137807 -0.08895146 -0.09961714 0.09732706
0001b0 42 ef 3f 3d 89 67 ac 3d 17 ca 29 bc 1d 8b 09 bd
       0.046859033 0.08418185 -0.010363123 -0.033579934
0001c0 9f 73 2f bd 5a 75 70 bd e5 74 16 3e 48 0a b5 bd
       -0.042834874 -0.058705665 0.14693029 -0.088398516
0001d0 e4 05 ca 3d f8 d4 7c bd db 0c df bd a2 2d 69 bd
       0.09864405 -0.06172654 -0.10891124 -0.056928284
0001e0 11 04 90 bd 8b 15 c7 3d 1d 49 8c bd 8e ff 03 bd
       -0.070320256 0.09720906 -0.06849883 -0.032226138
0001f0 ae 5b 86 3c 34 c5 8f bd 49 c6 84 bd ce 3f 25 3e
       0.016401138 -0.070200354 -0.064831324 0.16137621
000200 61 06 24 3d 00 d0 61 3e 99 ab 37 bd 5f 5d 8e be
       0.040045146 0.22052002 -0.044841383 -0.27805611
000210 3e 7a 00 3d ba 40 70 bd f9 9a ea 3d ce 56 26 bd
       0.03136658 -0.058655478 0.1145534 -0.040610127
000220 08 96 6c 3d c8 3a 22 3c 8f 4c 37 3e ab 5c 83 bd
       0.05776027 0.00990171 0.17900299 -0.064141594
000230 9a 8f 96 3c 5c f0 32 be f9 8d 66 be 6c a1 af 3c
       0.018379021 -0.17474502 -0.22515096 0.021439277
000240 6d ec 84 3d 08 22 61 3e 01 c2 0c 3e ed f3 f6 bd
       0.06490407 0.21985638 0.13745882 -0.12058244
000250 b9 f0 73 3e ef 2a 8c 3d 3b e9 45 be 4a 7d df 3d
       0.23822297 0.068441264 -0.19327252 0.10912569
000260 52 43 a6 bd e6 f4 81 bd 9a 23 5f 3e f3 a7 cf 3d
       -0.08118309 -0.06345539 0.21790925 0.10139456
000270 a8 ad 71 3e 50 39 a9 bd 8a 58 2a be 84 ba e6 bd
       0.23601401 -0.082628846 -0.16635337 -0.11266044
000280 49 02 37 3c 62 5c cd 3d 0a ba d2 bd f2 b1 94 3e
       0.011169978 0.10027386 -0.102893904 0.29042011
000290 a2 df 5a 3e 8c 61 0e 3e 3f b1 e5 3d c6 4c db 3b
       0.21374372 0.13904399 0.11215448 0.0066925017
0002a0 f6 ca fc 3d ed ee f3 3d 95 3e 9d 3d f2 20 19 be
       0.12343399 0.11910806 0.07677952 -0.14953974
0002b0 c1 4c b2 3e d6 33 a2 3d d5 2c 44 be a7 6f 10 bb
       0.34824184 0.07920043 -0.19157727 -0.0022039206
0002c0 08 a0 19 3d 3a e8 a0 3d 95 3d 38 3e 13 52 ab bd
       0.037506133 0.07856794 0.17992242 -0.08365264
0002d0 8d 1a 06 3e c5 4a f0 bb de 25 1d bd 67 03 c4 bd
       0.13096066 -0.007333132 -0.03836619 -0.095709614
0002e0 30 5c a4 bd c5 dd 29 be dd 74 6d 3e 52 c4 10 3e
       -0.08025396 -0.16588505 0.23189111 0.1413739
0002f0 be bb 97 bc 4b 40 19 3e f1 5c ab 3d ce f0 47 3c
       -0.01852214 0.14965932 0.083673365 0.012203408
000300 91 32 4e 3e 26 ef 5d 3e 68 a1 19 be 20 9b a4 3d
       0.20136477 0.21673259 -0.15002978 0.080374
000310 c9 81 9e 3d 0d e5 83 bd 41 15 d9 3c 82 6a 3b bd
       0.07739598 -0.06440172 0.026499392 -0.04575587
000320 99 c5 93 3d c2 b2 8b bc 0d 26 f1 3b e5 ef 0f bb
       0.07215423 -0.017053012 0.0073592723 -0.0021963057
000330 7a 99 f1 bd cb ee 1e be 2c b2 7c 3e 72 d6 ed bc
       -0.117968515 -0.1552078 0.24677342 -0.02903292
000340 79 e1 9b bd f1 3e 33 be c8 c7 ac bd 6d ac 1d be
       -0.07611365 -0.17504479 -0.08436543 -0.15397806
000350 42 cf ba bc e9 61 b5 3c 2e ad 21 3e 3b da 26 3e
       -0.022803906 0.022141414 0.15788719 0.16294186
000360 dc de 20 3e 46 6a 42 be 2f ad 0a be da 16 d5 bd
       0.15710014 -0.18985853 -0.13542627 -0.10404749
000370 90 4e de 3a e6 96 4e 3e 74 d2 4c bb 33 60 90 be
       0.0016960669 0.2017475 -0.003125337 -0.28198394
000380 00 77 ef 39 19 21 e2 3c 40 a7 d1 3d eb 21 63 3c
       0.00045674294 0.027603673 0.102369785 0.013863067
000390 6b cb 81 3d 8f 5b 14 3e 8e 51 1b 3e ed d9 16 3c
       0.06337627 0.14488052 0.1516783 0.009207231
0003a0 e9 d3 d4 3c 36 23 d1 bd 14 75 32 3e 76 d4 24 be
       0.025979953 -0.10211794 0.17427474 -0.16096672
0003b0 4d 59 b1 3d 10 37 4d 3d 5d e1 10 be e7 e6 b7 bd
       0.08659611 0.05010134 -0.1414847 -0.08979588
0003c0 44 48 21 bd a1 fa 76 bd 00 8d ae 3d f2 e5 70 bd
       -0.03937556 -0.060297612 0.08522987 -0.058813043
0003d0 1f 23 05 3e 1b 1b 6a 3e 97 11 dc 3d 35 5d d5 3d
       0.13001679 0.22861902 0.107455425 0.104181685
0003e0 74 bd 34 3c b9 47 13 3c 14 49 29 bd 79 15 87 bd
       0.011031497 0.008989268 -0.04132946 -0.065958925
0003f0 ac 1c fb bd 99 2c fa 3d 19 95 01 be ac 78 f9 bd
       -0.12261328 0.122155376 -0.12654532 -0.121812195

fc3.bias f4 [2]
000000 d3 38 39 3b f6 d2 13 3c
       0.002826263 0.009022465
