checkpoint_critic.pth (torch_old, 559108 bytes, 5 tensors)

fcs1.weight f4 [256, 24]
000000 72 2f 62 3d 28 ee b1 3b 2b 81 06 3d b2 ba c8 ba
       0.05522103 0.0054300018 0.032838028 -0.0015314429
000010 6c d6 46 3d c1 24 1c 3d dd cb 19 3d 17 db 8f 3c
       0.048544332 0.03812099 0.037547935 0.017560525
000020 a3 76 21 3d 6d 8b 30 3c 6b 0d 29 bd 41 8c 79 bc
       0.03941978 0.010775429 -0.041272562 -0.015231193
000030 5f de 23 bd 4d af b4 3c 45 ca 4c 3d b3 3c 65 ba
       -0.04000699 0.022056246 0.049997587 -0.00087447016
000040 d0 f6 92 3d ba 49 74 3d ab 99 f6 3c 27 31 22 bd
       0.07175982 0.059640624 0.030102571 -0.039597657
000050 87 b4 ef bc 45 ed e5 bc e3 81 95 3b 13 8b 13 3d
       -0.029260887 -0.02806724 0.004562603 0.036021303
000060 ac 1e 2b 3d f6 cf c3 3c d3 db 58 3c 12 4c 88 bd
       0.041777298 0.023902874 0.013236004 -0.06655134
000070 eb 82 80 3d bd 88 86 3c 58 44 fd 3c 28 43 10 3d
       0.062749706 0.016422624 0.030916378 0.035220295
000080 03 b1 c3 bc 09 f6 0b 3d 7c b6 49 3b 5e 23 7f bd
       -0.023888117 0.034170184 0.0030778935 -0.06228959
000090 af da d3 bc 3d 70 0b bd 98 a6 48 bd b2 ef a0 bd
       -0.025861112 -0.034042586 -0.048987 -0.07858218
0000a0 fb d8 52 bc 78 31 50 bd 6f 9f 65 3d 54 f9 ce bc
       -0.012869115 -0.050828427 0.05606025 -0.025265373
0000b0 48 d2 2d bd c6 41 10 3d bd 74 70 3d 66 37 3a 3d
       -0.042436868 0.035218976 0.05870508 0.04546299
0000c0 fe 8e 27 3d 39 8d e4 bc c3 8b 31 3c 23 f2 f5 3c
       0.040907852 -0.027899371 0.010836544 0.030022686
0000d0 59 4b 84 bd 1c 10 63 bd 90 fd 9e bb 2f cf bf bc
       -0.06459684 -0.055435285 -0.0048520043 -0.023414223
0000e0 56 bf d2 bc db e3 89 bd fe c3 43 3d 78 58 bb bd
       -0.025726002 -0.06732913 0.047794335 -0.091477334
0000f0 55 81 9e bd 94 90 36 bd c6 5c 48 bd 5e 95 bb bd
       -0.07739512 -0.044571474 -0.0489166 -0.09159349
000100 58 18 ae bb 90 27 02 bd 59 f6 65 bd fe 2e 75 3d
       -0.0053129606 -0.03177601 -0.05614314 0.05985927
000110 ac fa 28 3d 90 cf bf bc 85 e1 01 3d 96 e0 53 3d
       0.041254684 -0.023414403 0.031709213 0.051727854
000120 17 96 df 3c ef 32 96 3c b9 5b 05 3c 91 d1 1d 3d
       0.027293248 0.018334834 0.008139544 0.038529936
000130 49 f0 48 3d 6b 92 e1 3b 86 79 d4 3c 35 00 8f 3c
       0.04905728 0.0068839095 0.025936853 0.017456153
000140 aa 30 f9 3c 06 c3 3a 3d 21 e8 5a 3c 8c 24 1b 3c
       0.030418713 0.045596145 0.013361008 0.009469163
000150 02 17 91 3d 48 6a ec bc fa eb 7c bd 40 13 a7 bc
       0.070844665 -0.028859273 -0.061748482 -0.020394921
000160 98 fb b0 3c af e6 76 bd 37 71 44 3d d9 2e 7e 3d
       0.021604344 -0.06027859 0.047959533 0.062056396
000170 a9 93 b1 3c fd 60 af bd 1f aa 31 3c f5 94 49 bc
       0.021676855 -0.08563421 0.010843783 -0.0123035805
000180 8b fe 29 3d 0b cc 40 bc 06 42 f7 bc bc de 2b bb
       0.041502517 -0.011767398 -0.03018285 -0.002622529
000190 c3 0d 99 3d 17 8d 62 3d a1 41 18 bd 25 2e b5 bc
       0.07473328 0.055310335 -0.037171964 -0.02211673
0001a0 3f 6c 1d 3d 46 95 14 3d b3 72 ef bc de 83 60 bb
       0.03843331 0.03627517 -0.029229498 -0.0034258286
0001b0 98 5d 4a bd a4 33 6a 3d 55 e4 19 bd 9f 82 1d 3d
       -0.049405664 0.057178155 -0.03757127 0.038454648
0001c0 38 38 3f bd 8d b9 74 3b 31 75 a1 bc eb 6e 3a bd
       -0.046684474 0.0037342042 -0.019709202 -0.045515936
0001d0 85 e6 17 bd af 6b 16 3d 3f 97 ab 3c 3d 6d 7f bd
       -0.037085075 0.03672379 0.020946143 -0.062360037
0001e0 0e 59 83 3d b9 4a 0c be 29 8b d4 3c db d2 02 3d
       0.0641347 -0.1370038 0.025945263 0.03193937
0001f0 36 4d 10 bd 02 60 6b 3c 88 b5 1d bd 91 02 2d 3d
       -0.035229884 0.014366152 -0.0385032 0.042238776
000200 67 8a 45 3d 49 3b a6 bd c4 87 4b bd 6c a2 e3 3c
       0.048227694 -0.081167765 -0.049690023 0.02778741
000210 91 7b 84 3c 36 76 6f bd 34 c6 26 bd f7 ed b6 bb
       0.016172202 -0.058462344 -0.040716365 -0.005582567
000220 7e 63 02 3d 74 71 fa bc d2 40 40 3d 9e c8 b2 3d
       0.031833164 -0.030571677 0.046936817 0.08729671
000230 60 0d 7a 3d da 89 fd bc a6 1c 78 bd 93 10 16 3d
       0.06104791 -0.030949522 -0.060574196 0.0366369
000240 ef e9 ce 3c c2 64 8d bc 46 2e 77 bd 6a f2 a7 3d
       0.025258033 -0.01725996 -0.060346864 0.08200534
000250 44 34 10 3d d5 48 8f 3d b6 f3 d8 3c 41 8a d6 3c
       0.035206094 0.069963135 0.026483398 0.026188971
000260 29 d2 85 3b 93 1b 29 bd 67 7a b5 3c 57 b3 94 3d
       0.004083891 -0.041286062 0.022153093 0.07260769
000270 c0 be 1b 3d 45 3f 8c bc bd 82 cb bc 6d b6 27 3d
       0.03802371 -0.017120013 -0.024842614 0.04094546
000280 5e 89 e6 3c 71 94 8d 3a e7 c2 9a bc 8f ba 35 3b
       0.028141674 0.0010801685 -0.018891765 0.0027729606
000290 6d 53 04 bd 0f ff 86 3c 8f 9c 3a 3c f7 9a 68 3d
       -0.032306124 0.016479043 0.011389866 0.05678841
0002a0 20 7a 4d bc 50 52 e3 bd c6 d7 72 3b 9f 97 cd 3c
       -0.012541324 -0.11099684 0.003705488 0.025096713
0002b0 20 19 87 bc 8e 0e 48 3b cd 72 4f bd 1f c4 6a bd
       -0.016491473 0.0030526253 -0.050646592 -0.057315942
0002c0 57 2b 80 3d d1 71 bc bd 98 24 4e 3c 8f 8d e6 3c
       0.062582664 -0.09201396 0.012581967 0.028143672
0002d0 19 b3 b9 bc 2c 54 00 3d b4 fe 69 3c 17 ed 34 3d
       -0.022668408 0.031330273 0.014281917 0.04417142
0002e0 e7 bf cc bb 5a 15 9a bd fd ce 63 3c 4b 31 98 bb
       -0.0062484625 -0.07523604 0.01390433 -0.004644548
0002f0 65 dc 6e bd 4e bc a4 3d 0e ee 18 3d d1 4d 86 3d
       -0.058315653 0.08043729 0.0373364 0.06557811
000300 c6 f2 86 bd 89 6a cd bc 4d 1d 66 3d 92 f4 37 bb
       -0.06589274 -0.025075214 0.056180287 -0.002806936
000310 c1 d1 7d 3d d6 5e f3 3c 3f 1f e6 bc 71 1d ee bc
       0.061967615 0.029708307 -0.028091071 -0.029066773
000320 cd ab 17 bd 7a 1a e1 3c 13 66 87 3c 5f 0c ad bd
       -0.037029076 0.027478445 0.016528165 -0.08449625
000330 a2 1a 2f bd b3 36 72 3d 39 69 bf bc 15 72 75 bd
       -0.04275001 0.059134196 -0.023365604 -0.05992325
000340 d0 0d 7e bd 91 da 06 3b af 74 a6 bb 5e 73 9c 3c
       -0.06202489 0.0020577053 -0.0050798277 0.01909798
000350 55 35 4b bc 2e 1a 0c bd 03 86 f3 b9 f4 9f d0 bc
       -0.012402852 -0.034204654 -0.00046448418 -0.025466897
000360 fb 81 53 bc a9 69 98 bc cf 3e 9b bc e2 7f eb bc
       -0.012909408 -0.01860507 -0.018950848 -0.028747503
000370 45 8d da 3c 27 b2 06 3d 78 d5 1b 3d 84 5c 97 bc
       0.02667869 0.032884743 0.038045377 -0.018476732
000380 92 65 17 3d 34 cd e7 bc be 72 0b 3d 11 a2 5d bd
       0.0369621 -0.02829609 0.034044974 -0.054109637
000390 42 28 2d bd 8f b8 4d 3c 1c 14 ec 3c 07 71 ba 3c
       -0.04227472 0.012556209 0.028818183 0.022758974
0003a0 30 04 25 bd 52 59 cc 3a 5b 52 59 bd 1c d2 83 3d
       -0.040287197 0.0015590584 -0.053057056 0.064365596
0003b0 12 de b6 bd df 5e e6 bb 38 03 3b 3c 99 1a cf 3b
       -0.08929075 -0.0070303525 0.011414342 0.0063203094
0003c0 91 1b a4 bc 46 4b 65 3c 9b cf 49 bd 66 9b 32 bd
       -0.020032676 0.013994997 -0.049270254 -0.04360523
0003d0 76 9d 0a bc 74 11 2f 3c 95 c8 03 3d d4 a5 88 bc
       -0.008460393 0.0106853135 0.03217371 -0.016680636
0003e0 35 52 09 bd 1a ba 5c bd c4 6a 1b 3d 60 7e 70 3c
       -0.033525664 -0.053888418 0.037943617 0.014678568
0003f0 91 d9 8d 3d ee 2d 9f bd 88 a7 9d ba 80 50 02 bc
       0.06926263 -0.07772432 -0.0012028078 -0.007953763

fcs1.bias f4 [256]
000000 62 16 ab bd 84 82 e1 3d fb 7c d1 3d ac e7 f0 3d
       -0.083538786 0.11011222 0.10228916 0.11762938
000010 94 0d 47 bd bd 14 3c be 9e 25 4f be a5 3b 8a 3b
       -0.048596933 -0.18367286 -0.20229194 0.004218536
000020 97 5b 4d be 86 44 0d be dd 27 11 3e d9 c2 23 bd
       -0.2005447 -0.13795671 0.14175363 -0.039980743
000030 03 8c 8d 3d a8 bb 28 be ff da fd 3c d6 39 3a 3e
       0.06911471 -0.16477835 0.030988215 0.18186125
000040 71 2e 21 3d f5 70 11 3d 4a b5 0e be 03 c6 12 be
       0.03935093 0.035508115 -0.13936344 -0.14333348
000050 a6 d6 e8 3d 3f 91 41 be 4d d3 5a bc 65 a8 24 be
       0.11369066 -0.18903063 -0.013356042 -0.16079862
000060 7e 81 38 3c b5 85 51 be 46 95 88 3d 0b cf 25 bc
       0.011261342 -0.20461161 0.06669097 -0.010120164
000070 aa 91 05 be a7 96 ad bd 4d a5 9e bd 2f f4 b8 bd
       -0.13043848 -0.08476 -0.07746372 -0.09030949
000080 f1 49 4e bd 2d 2f 21 3d 8f 11 f3 bd f8 cc 51 3d
       -0.050363485 0.03935163 -0.118685834 0.051220864
000090 83 b9 2e be ae 54 3f 3e 65 0b fc bd 72 c7 bb 3d
       -0.17062955 0.18684646 -0.12306861 0.091689005
0000a0 7a b2 10 be 9d 6f 0f be 86 0f 04 bd 46 4e fc bd
       -0.14130583 -0.14007421 -0.032241367 -0.12319617
0000b0 4f 55 54 bd 7d 9e b5 bd e6 6c 5f bd 4c 4c 28 be
       -0.05183917 -0.0886812 -0.054547213 -0.16435355
0000c0 0f 37 47 3e 02 06 e2 3d c7 d7 94 bd fd ef 11 3e
       0.19454597 0.11036302 -0.07267719 0.14251705
0000d0 a1 f2 c6 bd 8e 86 2d be d7 4a 75 3d bf 8f 89 bd
       -0.097142465 -0.1694586 0.059885826 -0.067168705
0000e0 5e 36 15 3e e3 c7 69 bd 61 8f 31 be 0b 69 29 3e
       0.1457152 -0.057075392 -0.17339851 0.16543977
0000f0 99 8a 35 3d 6e a0 72 3d 73 3b a1 bc 96 50 23 be
       0.04432163 0.05923503 -0.019681668 -0.1594871
000100 1c b7 85 3d 0c 7f 26 3b 50 d5 18 be d6 53 e2 3d
       0.06529066 0.0025405316 -0.14925122 0.11051147
000110 df 1f 42 be 04 3f 16 be c3 dd 4b bd a0 90 43 be
       -0.1895747 -0.14672476 -0.049772035 -0.19098139
000120 4d a0 3b be b8 9f 91 bd 70 6c 24 bd ba e6 19 3e
       -0.18322869 -0.07110542 -0.040142477 0.15029421
000130 b6 2b d5 3d ce 19 3b 3e 29 84 85 3d 23 ed d3 3c
       0.10408728 0.18271562 0.06519348 0.025869912
000140 91 f8 1e bd d8 a3 b1 bd 1e 57 3c be a8 bf 3f be
       -0.03881127 -0.08673829 -0.18392608 -0.18725455
000150 c5 e4 aa 3d f0 0e 0d be 15 4b ae bd 24 ac ad 3d
       0.083444156 -0.1377523 -0.085104145 0.08480099
000160 60 2a 02 be 0e 53 9d 3d 3c 12 10 bc 9f e0 37 3d
       -0.12711477 0.07681857 -0.00879341 0.04489195
000170 0a 00 a9 bd b2 02 10 3e 3d 8b 35 be ba 99 4b be
       -0.082519606 0.14063528 -0.17728896 -0.19882861
000180 c2 74 24 3e 03 a5 14 be b5 75 42 3e 3f db aa 3d
       0.16060165 -0.14516072 0.18990214 0.08342599
000190 38 e1 a9 3d 77 aa fb bc 60 12 25 3d 17 ec 3b 3d
       0.0829491 -0.030720932 0.040300727 0.04587945
0001a0 0e 6a c9 bd 27 bb 07 3e a2 f5 fe 3d 80 7c 4e 3c
       -0.098346815 0.13254987 0.124491945 0.012602925
0001b0 28 5e 81 3d d3 40 1a bd 67 32 9a bd 1f 4b 27 be
       0.06316787 -0.037659477 -0.07529145 -0.1633725
0001c0 b2 9b b1 bd 57 45 4c be 42 d8 93 bd 7c fe 00 3e
       -0.08672275 -0.19948326 -0.07218982 0.12597078
0001d0 a3 03 50 3e 47 97 3f be f4 18 2e be eb 6c 2d 3e
       0.20313887 -0.18710051 -0.17001706 0.1693608
0001e0 ff 2a a6 bd 8e ef df ba 2e e4 ff 3d fa 9a 37 3e
       -0.081136696 -0.0017084943 0.12494694 0.17930213
0001f0 73 9b 82 3d 37 0d 63 3d 75 8c ad bb 16 54 ec 3b
       0.06377306 0.055432525 -0.005296285 0.0072121723
000200 34 2f 94 3d f3 a7 3c be 6a 0d 4d be db 72 0c 3e
       0.07235566 -0.18423443 -0.20024648 0.13715689
000210 25 38 4a be 5e d1 cb 3d 95 9b 17 3e 7a 18 f9 3d
       -0.1974798 0.09952043 0.14805444 0.12162872
000220 6c 76 85 3d c9 03 d6 3c b4 c2 a6 3d 64 71 ea 3d
       0.06516728 0.026124852 0.081426054 0.11447409
000230 d0 35 40 3c 5b 70 0b be 1e 2e 02 3e e3 0d fc 3c
       0.01173158 -0.13617079 0.12712905 0.03076834
000240 09 3e 05 3e 4b c1 16 be c0 05 7a bd ee fa 02 be
       0.13011946 -0.14722173 -0.06104064 -0.12791035
000250 02 22 05 3c 82 f6 2c 3e 16 58 1c 3d 9c 0f 2a 3e
       0.008125784 0.1689091 0.038169943 0.16607517
000260 1c 59 28 3e 00 8a 1f be ea 02 3e 3e 41 11 81 3c
       0.16440243 -0.15579987 0.18555799 0.015755298
000270 87 63 35 3e b2 81 3a 3d e5 5c f0 bc da 45 2b 3e
       0.17713748 0.045533843 -0.02934117 0.16725865
000280 8e 3e 13 be 08 b4 85 3b 3c 3a 00 bd ca 40 4a ba
       -0.14379331 0.0040802993 -0.031305537 -0.0007715343
000290 07 5e 84 bd c2 e9 22 3e c3 ae f6 bc 1d 98 b0 3d
       -0.06463247 0.15909484 -0.03011263 0.08622763
0002a0 68 98 ae 3d e1 ea 3c 3e 9f ba 96 3d 76 b8 53 be
       0.08525163 0.18448974 0.07359814 -0.20675835
0002b0 f3 90 2e be 53 75 47 be 5f fc 4e be 38 51 2f be
       -0.17047481 -0.1947835 -0.2021346 -0.17120826
0002c0 d0 73 a0 bb d0 f5 42 3e 89 78 fe bd e6 05 af 3d
       -0.0048966184 0.19039083 -0.12425334 0.08546047
0002d0 2d 2a c0 bd ed 3c 23 3e c5 31 00 3e 82 72 be 3d
       -0.093830444 0.1594121 0.12518986 0.092991844
0002e0 5b 58 35 3e dd de 27 be dc 13 3a be 0c 2c d4 bd
       0.17709486 -0.1639361 -0.18171638 -0.10359964
0002f0 52 59 21 3d 11 55 39 3e 65 5d 06 3e 50 06 57 3d
       0.039391823 0.18098857 0.13121565 0.052496254
000300 b1 b7 12 bd 73 73 f5 bd c2 13 48 3e 46 99 3b be
       -0.035819713 -0.11984911 0.19538787 -0.18320188
000310 33 94 07 be ab 5f ee 3d 9b 32 23 3e b4 7c 5f 3d
       -0.13240127 0.11639341 0.15937273 0.054562286
000320 fc e1 d1 bb fb 21 da bc 4d 63 fe 3c d3 48 d0 bd
       -0.0064051133 -0.026627531 0.03105321 -0.1017014
000330 eb e2 51 3e 71 93 51 3e e1 43 ab bd ce 9c 0e 3e
       0.20496719 0.204664 -0.08362556 0.13927004
000340 d0 16 2a bd c4 42 25 be b5 d1 dd 3c d7 cb 29 bd
       -0.041525662 -0.1613875 0.027077535 -0.041454162
000350 42 b8 32 3e 74 eb b8 3c 51 5f 3f bd a2 21 1d be
       0.17453101 0.02257321 -0.04672176 -0.15344861
000360 6e 95 05 3e 48 aa 03 3e 35 8d eb 3c ce 3e 10 bd
       0.13045284 0.12857926 0.028753856 -0.035216145
000370 cb 9f 88 bd 72 98 42 3d 77 10 47 3e d8 34 12 bd
       -0.06671103 0.047508664 0.19439875 -0.035694927
000380 8f cd cc 3c b4 81 44 be f4 93 62 3d 89 cc c4 bd
       0.025000362 -0.19190103 0.05531688 -0.096093245
000390 83 f0 55 bd c9 51 dd bd 29 59 42 3e cc 01 0b 3e
       -0.052231323 -0.10806615 0.18979324 0.13574904
0003a0 29 5e 9f bd 03 08 5a bd 8d 7c 70 3d a0 87 99 3d
       -0.077816315 -0.053230297 0.05871253 0.074965715
0003b0 bf 98 ca bd 37 5a ac 3d 0f 72 f1 3c 05 26 f4 3d
       -0.09892415 0.084156446 0.029473333 0.11921314
0003c0 92 56 ea bd b8 dd 07 be 85 fa c9 3d a3 ef a3 bb
       -0.11442293 -0.13268173 0.09862236 -0.005002932
0003d0 07 cc bf bd 35 4b 24 3e fc 41 b9 bc 33 78 0a be
       -0.09365087 0.16044314 -0.022614472 -0.13522415
0003e0 44 67 f6 bc b8 ef d0 bd f7 ee 8c bd 28 d7 2d be
       -0.030078538 -0.10201973 -0.068815164 -0.16976607
0003f0 1e bf 1f 3e 72 d6 32 3e 45 4c 3b be 31 71 01 3e
       0.15600249 0.17464617 -0.18290813 0.12640835

fc2.weight f4 [512, 258]
000000 a9 90 ef 3c 06 33 16 bd 6e 86 e8 3c e1 c3 35 bd
       0.029243784 -0.036669753 0.028384414 -0.044376258
000010 98 a3 74 3b d6 4f 57 bc aa d3 a9 bb 32 32 42 3c
       0.0037328955 -0.013141593 -0.005182703 0.011852788
000020 df f8 fc bc 26 f5 b7 3c d5 61 cc 3c 78 43 1e 3c
       -0.03088039 0.022455763 0.024948994 0.0096596405
000030 f0 0b ef bb 66 36 2e 3d 24 18 5b bd 49 89 7d bc
       -0.007295124 0.042532347 -0.05348982 -0.015474626
000040 05 df 2d bc 29 21 a6 bc 11 39 06 bd 4e 72 77 bc
       -0.010612254 -0.020279484 -0.032769267 -0.015102936
000050 e7 1e 1b bc 5a 6e b1 bc 42 06 9b 3c b3 8a 94 bb
       -0.009467817 -0.021659065 0.018923882 -0.004533136
000060 7e 16 4d bc a9 81 02 3d e0 0e 39 bd e3 04 ad 3b
       -0.01251757 0.031861935 -0.0451802 0.0052801236
000070 8a 66 09 bd 89 f9 0c 3d ba 59 9b bc a5 ac a7 3b
       -0.033545054 0.034417663 -0.018963683 0.0051170164
000080 bf d4 2f bd 5f 4e 0f bd 99 92 b0 3c 31 4b 99 bd
       -0.0429275 -0.03498685 0.021554278 -0.07485045
000090 e9 d2 bd 3b 0e 8f ad 3b f6 94 d9 bb 54 b9 b8 37
       0.0057929647 0.0052965945 -0.006640072 2.202081e-05
0000a0 a2 f1 8f bc c8 09 9f 3b 4d 46 9e 3c 5c 90 b2 3c
       -0.017571274 0.004853461 0.019320631 0.021797352
0000b0 de b4 03 3d 64 6e 70 3c af 99 fc bb bd 3d fb bc
       0.03215491 0.014674757 -0.00770875 -0.030669088
0000c0 c5 db 17 bd 68 7e 29 3c 7d 02 f6 bc 94 1d e3 3c
       -0.037074823 0.010345079 -0.030030483 0.027724065
0000d0 4e 11 1a bd 3f 1a 41 3a d1 8c 56 3b b9 6b db bc
       -0.03761416 0.00073662767 0.0032737742 -0.026784765
0000e0 4a 2e a9 bb 3a d9 f4 bc d6 ad 8c 3c da 31 71 3c
       -0.005162989 -0.029888738 0.017172735 0.014721358
0000f0 68 6c a3 3c 29 fc 03 3d 65 c8 e5 3c 11 db aa 3c
       0.019949153 0.0322229 0.028049657 0.020856412
000100 60 fb 22 3d 61 3e 2c bc 92 47 78 bc e1 a6 c0 ba
       0.03979051 -0.010512919 -0.015153782 -0.0014698171
000110 ad 54 d3 bc 53 21 90 bc c3 89 2d 3c f3 02 99 bb
       -0.025797212 -0.017594015 0.010591927 -0.004669541
000120 e6 21 81 3b f0 79 19 bd c8 d2 e0 3c 4c 76 b4 bc
       0.0039408086 -0.037469804 0.027444258 -0.022029065
000130 1b dd 05 bb 9a f6 1e bd f5 4f df bc 76 73 07 bd
       -0.0020425979 -0.038809396 -0.027259806 -0.033069097
000140 71 48 a0 ba a1 a6 d7 3c e8 3e 55 bd ce 8d 47 bd
       -0.001222862 0.026324572 -0.052061945 -0.04871922
000150 e6 d4 57 bc 3f 73 d8 bb ac 31 0f bd 8e e2 4b 3c
       -0.013173318 -0.0066055353 -0.03495948 0.012444152
000160 5f 05 7b bc 3f 22 e1 bb 19 49 d1 bc 6d 08 d2 3c
       -0.015321105 -0.0068705375 -0.025547551 0.025638783
000170 bc e6 f7 3c 24 6c 2a 3d e0 86 bf bc bf d3 3c bb
       0.03026139 0.041607037 -0.023379743 -0.0028812734
000180 8c 21 8f bc f8 82 16 3d 78 16 86 bc 23 09 44 3d
       -0.017472051 0.036745995 -0.016368136 0.047860276
000190 23 cc d1 3c 1c 07 c3 3c e9 a7 3e 3a b3 27 fd bc
       0.025610035 0.023807101 0.00072729454 -0.03090272
0001a0 d6 79 1e 3d 59 48 2b b9 0a 77 6c bd 76 fb 60 bc
       0.03869041 -0.00016334782 -0.057730712 -0.013731828
0001b0 6a e5 a4 bc d3 87 59 3d 09 85 0b 3d 70 c1 9e 3b
       -0.020128924 0.053108048 0.03406242 0.004844837
0001c0 6e a6 82 bd 0c 1e 22 3d 31 7f 5b bc 7d ad 41 3d
       -0.063794 0.039579436 -0.013397024 0.047284592
0001d0 e8 c8 9b bc 66 74 ab 3c a6 f3 de 3b b2 1f 1d bd
       -0.019016698 0.020929527 0.0068039475 -0.038360305
0001e0 f8 a3 98 bb b0 69 41 bc 90 75 4a 3c b7 56 9d 3c
       -0.0046582185 -0.011804983 0.012357131 0.019206388
0001f0 6c 4d 24 bd a5 14 bd bc cd c0 3a bd a6 b6 0d 3d
       -0.040112898 -0.023081133 -0.045594025 0.034598015
000200 c9 9f 02 bd d9 3b a7 ba 3b 60 1e bd a0 cc 32 3d
       -0.031890664 -0.0012758925 -0.03866599 0.043652177
000210 11 7c 05 bd c5 87 2e 3c 89 9c 23 3c 53 68 9e bc
       -0.032589022 0.010652487 0.009986051 -0.019336855
000220 f4 af 12 3d b7 57 d0 bc 0b 2a 8d 3c 2d 6f 1c bd
       0.035812333 -0.02543245 0.017231962 -0.038191963
000230 2e 0d 2d bd f8 ce 1b bd c8 54 09 bd 95 c1 ab 3c
       -0.042248897 -0.038039178 -0.03352812 0.02096633
000240 10 f9 ee 3c 3c e6 a7 3c 95 9c 40 3c ab 32 85 bd
       0.029171497 0.020495526 0.011756082 -0.06503805
000250 0e 1b ef bc fe 41 15 bd 77 43 bc 3b 8d ad f2 bc
       -0.029187705 -0.03643989 0.005745347 -0.029623771
000260 89 eb 0a 3d e8 04 69 3b 22 39 53 3d 68 1f 47 3c
       0.03391603 0.0035555903 0.051568158 0.012153484
000270 60 cb f1 bc a7 11 28 bd fb 52 c5 bc 4f 23 1f bc
       -0.029515922 -0.04103246 -0.02408742 -0.009713008
000280 01 c0 d6 bb 65 5b a7 3c 89 39 d5 3a 57 00 85 3c
       -0.0065536504 0.020429322 0.0016267757 0.016235514
000290 06 c4 40 3c f3 5b d3 3c 2f 9b 0e 3d a7 c6 2c bd
       0.011765486 0.02580068 0.034815963 -0.042181637
0002a0 4b a3 4a 3d 5a 86 c8 bc a1 99 3b 3d 73 8c 11 3d
       0.049472135 -0.024478126 0.04580081 0.035534333
0002b0 61 92 00 3d 00 00 4b 3c f5 c8 95 bd 11 43 75 3c
       0.031389598 0.012390137 -0.0731372 0.014969603
0002c0 fa 2d c9 3c 3a 1f 22 3d ce 59 99 bd 3c 7f 29 3d
       0.024558056 0.03958056 -0.07487832 0.041381106
0002d0 eb ee 5f bc 54 d8 aa bd 79 a3 a4 3c c2 9e 0e 3d
       -0.013667802 -0.083420426 0.020097481 0.034819372
0002e0 77 d5 da 3c 33 cd d9 bc 98 04 70 3c 62 54 51 bc
       0.026713116 -0.026587104 0.014649533 -0.012776466
0002f0 3f 4d 32 3d d4 55 e0 bc 5c 10 07 bb 3e 72 8b bc
       0.0435307 -0.027384676 -0.0020609116 -0.017022248
000300 35 7e 84 3c fc 06 ed bc 98 b7 95 3c 86 ed a2 bb
       0.016173461 -0.028933994 0.01827602 -0.0049721627
000310 12 52 09 bd 73 02 20 3c 55 7a 02 bc 6c 89 1c bd
       -0.033525534 0.009766209 -0.007963737 -0.038216993
000320 97 11 9f bd 60 fa 67 3c a9 9c fc 3c d9 64 50 bd
       -0.07767027 0.014158815 0.03083642 -0.050877426
000330 67 30 48 bd d1 64 f2 bc 88 e1 1a 3b db f1 7c bd
       -0.048874285 -0.029589089 0.0023632962 -0.06175409
000340 c8 1c b2 bc a5 f2 19 3c e5 cf 85 bc 9a 59 0f bd
       -0.02174224 0.00939623 -0.016334483 -0.03499756
000350 55 7d b9 bc f5 67 2f 3c b3 c9 8a 3c 7c 98 57 3d
       -0.02264277 0.010705938 0.01694188 0.052635655
000360 a3 22 1c bd 5a d7 33 bd 8f fc 9c bc 1b 91 12 3d
       -0.03811897 -0.043906547 -0.019163398 0.035782915
000370 44 de 24 bd 87 32 1b 3c 2f 76 33 bd af 6b c6 3c
       -0.04025103 0.009472496 -0.04381388 0.02422127
000380 75 26 12 3d e1 84 b9 3b af 5c 6b 3b 7e 31 13 bd
       0.035681207 0.0056615924 0.0035913398 -0.03593587
000390 d4 bd 07 bd 6e 21 dc 3c 25 25 83 3b d5 3a d6 bc
       -0.03314002 0.02687141 0.0040022307 -0.0261511
0003a0 b5 e0 a4 3c a4 ec 07 bd c2 ea ca bb 14 b5 e4 3c
       0.02012668 -0.033184662 -0.006192536 0.027918376
0003b0 9d c0 29 3c 00 b2 19 3c 90 9a e9 bc 09 78 64 3c
       0.010360864 0.009380817 -0.028516084 0.013944634
0003c0 ad 0b 82 bd a6 84 30 3d b1 6b 9a 3c ba df 71 bd
       -0.06349883 0.043095253 0.01885018 -0.059051253
0003d0 75 03 f4 3c 6a 22 d0 3b e8 d6 5d bc d9 88 c0 bc
       0.029786805 0.0063517587 -0.013540007 -0.023502754
0003e0 ff c7 1a bc 9a 72 bc bc 59 2d af bc 4e 16 38 3a
       -0.009447097 -0.023003865 -0.021383928 0.00070223666
0003f0 bb 4b 52 bd 68 43 3a 3d 4e c6 60 bd bb 24 44 bc
       -0.051341753 0.04547444 -0.054876618 -0.011971648

fc2.bias f4 [512]
000000 96 7a 7b 3d 7e 46 44 bd 4b 6d 32 bd aa 37 17 3d
       0.061396204 -0.04791879 -0.04356126 0.03691832
000010 e3 1c d9 bb e0 09 5e 3d f1 81 69 bc 9e 0f 17 3d
       -0.006625758 0.054208636 -0.014252172 0.036880128
000020 e0 6c d5 bc 55 55 cf bc 5b 56 1e 3d 2f 34 ee 3c
       -0.026052892 -0.025309244 0.038656574 0.029077617
000030 ae f5 04 bd 02 76 52 3d e0 c9 63 3d 1d 93 0d 3d
       -0.03246086 0.051382072 0.055612445 0.034564126
000040 f0 8e dd 3c 2d 08 66 3d b0 69 37 ba 9c 60 63 bd
       0.027045697 0.05616014 -0.00069966447 -0.055512056
000050 ab be 34 3d e7 74 cb 3c b8 a6 7d bd bd 80 96 bc
       0.044127148 0.024836017 -0.061926574 -0.018371934
000060 24 31 68 bd b8 19 07 bd c2 e1 ed 3c 3c ba 47 bd
       -0.05668749 -0.03298351 0.029038314 -0.04876159
000070 4a 50 1c bd d6 5b 62 bd ea 42 5a b9 6c 5d 9e bc
       -0.038162507 -0.055263363 -0.00020815028 -0.019331656
000080 fd 3a b4 bc d4 9e 34 3d ed 46 42 bc 34 4e 6c 3d
       -0.022000784 0.044096783 -0.01185773 0.057691768
000090 4c 67 a5 bc 11 38 c5 bb f8 1c dd 3c 81 71 6e 3b
       -0.020190857 -0.0060186465 0.026991352 0.0036383572
0000a0 ea 5b 58 bd f3 59 1c bd f7 4a 59 3d d8 37 39 bd
       -0.05282203 -0.03817172 0.053050008 -0.045219272
0000b0 13 ea 0e 3b d9 46 16 3c c1 bb 17 bc e6 76 3a 3d
       0.0021807 0.009172165 -0.009261073 0.045523547
0000c0 f4 2f bc 3b d3 94 63 3d 03 e6 27 bd 12 f0 17 3d
       0.005743021 0.05556185 -0.04099084 0.037094183
0000d0 78 00 3e bd 63 f6 41 3c 3e a0 6d bc 77 53 c6 3c
       -0.046387166 0.011838528 -0.014503537 0.024209721
0000e0 ea ea f5 bb ea d4 80 bd 92 3e 7e 3c 2d a9 6a bc
       -0.0075048106 -0.0629061 0.015517848 -0.014322561
0000f0 1e 20 2d 3c d1 dc 1d bd 2b 53 60 bd ca ea 3c bd
       0.010566739 -0.038540665 -0.054766815 -0.04612235
000100 19 73 6d 3d 23 4e d3 3b e7 dd 68 3b 4e 28 79 3d
       0.057971094 0.0064485236 0.0035532655 0.060829453
000110 3f 7e 29 bd 8d 27 41 bc c9 23 5b bd 63 f7 24 bb
       -0.041380163 -0.011789215 -0.053500924 -0.0025171868
000120 4d f0 9e ba 38 3c 6d bd 82 8d ab bc 9d 7f 3d bd
       -0.0012126059 -0.057918757 -0.0209415 -0.04626428
000130 23 1c 03 bd 58 1e 57 3d 7c a4 c6 bc 65 47 cc bc
       -0.032009255 0.052519172 -0.024248354 -0.024936387
000140 0b 9e 53 3d 76 57 16 bd fc b5 12 bd ed 4c 36 3c
       0.051664393 -0.036704503 -0.035818085 0.011126739
000150 cc 8a 25 bd 19 26 26 bd 92 4d 67 bd 8a b0 4b 3d
       -0.04041557 -0.040563677 -0.05647046 0.049728908
000160 18 bc 84 bc bd a0 84 bc 8c 7a 9f bc b4 08 64 bd
       -0.016202971 -0.016189927 -0.019467615 -0.055672362
000170 74 12 68 3d d7 9c b5 bb 7e 11 1c bc 44 fd 27 bd
       0.056658223 -0.0055423784 -0.009525655 -0.041013017
000180 50 ee 68 bd a7 a5 44 3d 7b db 03 3d db 9c 2d 3c
       -0.056867898 0.04800954 0.032191735 0.010596479
000190 0e af 3a bd b4 cb 12 bc c1 c5 37 bc 21 3d 3b 3d
       -0.0455771 -0.008959699 -0.011216582 0.045712594
0001a0 41 a4 2f bd bb 37 20 3c db 93 76 3d 9f 77 2c 3d
       -0.042881254 0.009778912 0.0601996 0.042106267
0001b0 03 c4 4e bb ac 15 e4 3b be 86 4f 3d 71 e1 24 3c
       -0.0031549938 0.0069605913 0.05066561 0.010063515
0001c0 72 9c 6a 3d d2 b7 46 3d 87 49 76 3d d4 ef 72 3d
       0.057278104 0.04851515 0.060128715 0.05931075
0001d0 0d e1 50 ba 5d 13 41 3d c4 72 ff bb d9 4a 64 3d
       -0.00079681055 0.047137607 -0.0077956636 0.055735443
0001e0 55 ed 84 3c 14 1c b3 3c 3a 42 56 3c 56 f3 4f 3d
       0.01622645 0.021863975 0.013077313 0.050769173
0001f0 47 cd d0 3c c6 df 2b bd 70 a7 66 bd 09 3b c0 bc
       0.025488509 -0.041961454 -0.056312025 -0.02346565
000200 16 60 34 3d 79 b4 76 bd 55 fb 0b 3d a2 ec f6 3c
       0.044036947 -0.060230706 0.034175236 0.030142132
000210 88 7f a9 bc ff 41 31 3c c5 d1 2c bd d8 25 26 bd
       -0.020690694 0.010818957 -0.04219224 -0.040563434
000220 75 95 d4 bc 77 fb ce 3a 0c 7a 2e 3b 10 73 46 bd
       -0.025950173 0.0015791495 0.0026623039 -0.048449576
000230 45 ad 4c 3d 5f 3a 43 3d 11 60 32 3d fc e7 02 3d
       0.04996993 0.04766309 0.043548647 0.03195952
000240 3c 69 99 bc 09 4f f7 bc 0e 1c c4 3c 61 9f 6a bd
       -0.018726937 -0.030189054 0.023939159 -0.0572809
000250 30 7c f8 3b 6f 99 a9 3b ef 46 61 bd cf 34 45 3d
       0.0075831637 0.0051757614 -0.05499929 0.048146065
000260 51 16 82 bd 29 27 c9 bc 0b 76 a4 bc ac 41 e5 3c
       -0.06351913 -0.024554806 -0.020075819 0.027985416
000270 36 77 ba 3c ca c7 88 bd 74 94 f7 3a 5e 0c e3 3b
       0.022761922 -0.06678732 0.0018888847 0.0069289645
000280 c4 9b 3f bd 17 1b c3 bb c3 a7 b9 bb 86 74 db bc
       -0.04677941 -0.005954157 -0.0056657507 -0.026788961
000290 ff b5 fb bc c8 23 65 3d 73 5d e1 bc 91 eb 4c 3d
       -0.030726431 0.055942327 -0.02751038 0.05002934
0002a0 43 60 7b bc 6e be 2a bc 55 cd 03 bd 12 16 02 bd
       -0.015342775 -0.010421379 -0.03217824 -0.03175933
0002b0 c6 a4 4d bc e4 40 35 3c 74 94 85 3c c0 ff 1f bc
       -0.012551492 0.011062834 0.01630614 -0.009765565
0002c0 14 7c 3f bd 1b ff d9 3c 5c a7 bd bb 8c 95 1f bd
       -0.04674919 0.026610902 -0.005787773 -0.03896098
0002d0 62 fa 42 bd e4 db 71 3d b7 c0 44 3d eb f7 22 bc
       -0.047602065 0.059047595 0.04803535 -0.009946804
0002e0 91 a4 50 3c 5d a6 f2 bc a2 be 3e 3c a1 1e ee bb
       0.012734548 -0.029620344 0.01164213 -0.007266835
0002f0 67 87 62 bd 8c c3 32 3d 62 a3 b4 3c 1d 40 95 3c
       -0.05530491 0.04364352 0.022050563 0.018219048
000300 de 3b d9 bc 5a b1 e4 3a 43 1c 89 bc c2 f6 32 3c
       -0.026517805 0.0017447874 -0.016737109 0.010923089
000310 36 7b 90 3c 8f 93 cc 3c 37 25 f4 bb f9 bf 29 3d
       0.017636877 0.024972705 -0.0074507254 0.041442845
000320 04 35 38 3d 93 b9 35 3d 92 30 07 bd 52 d2 fa bc
       0.044972435 0.04436643 -0.033005305 -0.030617867
000330 49 1d 15 3d 3a 44 cd bc 84 a6 0f bd 39 b9 13 3d
       0.03640488 -0.025056947 -0.03507091 0.036065314
000340 66 45 6d 3d c3 57 16 bd 7c 87 63 bd 00 3d 3c 3d
       0.05792751 -0.03670479 -0.05554913 0.04595661
000350 3c 0d 7e 3c f2 a8 13 bd eb 2f 31 3b 5a c1 88 3c
       0.015506085 -0.03604979 0.0027036618 0.01669376
000360 01 3f 07 3d 7c c3 01 bd fa c8 b9 3c 5b 37 d0 3c
       0.03301907 -0.03168057 0.02267884 0.02541702
000370 d0 1c 26 3c 3d 73 ee bc 9d 65 d4 bc 5e 45 6f 3d
       0.010138705 -0.029107684 -0.02592736 0.058415763
000380 7c 59 cc bc 9b 81 1d 3d bd 62 2b bc c0 f1 0e 3d
       -0.024945013 0.03845368 -0.010460553 0.03489852
000390 23 9f 4c 3c 81 dd 7d bb f9 78 f4 3b 19 88 3c bd
       0.012489113 -0.0038736763 0.00746071 -0.04602823
0003a0 eb f5 63 39 b7 34 1e bd 5a b7 2f 3d c6 4e 77 3c
       0.00021740019 -0.03862449 0.042899467 0.015094465
0003b0 fd 19 5d bd a7 1f 38 bd d4 48 2b 3b 80 cc bb bc
       -0.053979862 -0.04495206 0.0026135938 -0.022924662
0003c0 ba db 3d 3d e6 c6 47 3d bf 05 87 3c 37 f7 73 3b
       0.046352126 0.04877367 0.016482232 0.003722621
0003d0 cc ae 22 3c 83 1b e7 3b 7b cd 97 bc bd 34 33 3a
       0.00992937 0.00705284 -0.018530598 0.0006836167
0003e0 34 a9 e5 3c 08 4f 04 3d cc 07 1a 3d ce 78 1e 3d
       0.028034784 0.032301933 0.037605092 0.038689427
0003f0 b6 7c 6f bd fe 7b 3e 3d b2 40 6b 3d 9c 17 30 3c
       -0.058468543 0.046504967 0.057434745 0.010747816

fc3.weight f4 [1, 512]
000000 eb 80 2d 3c 42 9e b4 3b 68 68 27 bb 1f 5f 30 3b
       0.0105898185 0.00551203 -0.0025544409 0.0026912165
000010 e3 c9 10 3c 2a 10 5f 3b 3d 11 08 3c ea 26 4f 3d
       0.008837196 0.0034036734 0.008304891 0.05057422
000020 f9 67 39 bb ce f3 21 3c 94 d1 b0 3b 81 c0 0f 3c
       -0.0028290732 0.009884788 0.0053960774 0.008773924
000030 54 f3 44 3b 6f 19 b4 3a a9 b2 f6 3b a0 bb f7 bc
       0.0030052261 0.001374049 0.007528622 -0.030240834
000040 fa 87 22 ba 07 f0 39 ba 09 b5 d9 3b 84 23 20 bd
       -0.00062000717 -0.0007092957 0.0066438955 -0.03909637
000050 e7 b8 5a bb 49 6c b7 3c f0 f9 dc bb 65 87 1c bb
       -0.003337437 0.022390502 -0.006743662 -0.0023884412
000060 30 fc dd 3b 12 d1 5d bd 83 ae a9 bc 4e 11 42 bc
       0.006774448 -0.054154463 -0.020713096 -0.011844946
000070 45 19 5a 3b 6f 09 7b 3c 0f 0a 1e 3c 93 26 5c 3c
       0.0033279222 0.015322073 0.009645953 0.013436931
000080 b8 71 b0 bb 63 ca a9 bb a8 f1 ca bc ab db a8 bb
       -0.00538465 -0.005181597 -0.024773434 -0.0051531396
000090 4f b1 fd 3a 96 48 ac 3b de ce 96 3a 68 a1 9b bb
       0.001935521 0.0052576764 0.0011505743 -0.0047494657
0000a0 ea 00 b2 ba f6 cc 0f 3c 21 a0 f4 ba 5c 36 53 3a
       -0.0013580595 0.008776894 -0.0018663445 0.00080571114
0000b0 16 d1 9f 3d 5a 58 94 bc b2 53 5b 3b 8e e5 8f 3b
       0.07803552 -0.018108536 0.0033466634 0.0043913787
0000c0 1d 25 ad 3a d9 e5 94 bb 3e 00 ba 3b 5b 40 a4 bb
       0.0013209913 -0.0045440015 0.0056762984 -0.0050125546
0000d0 e0 a3 51 bd 68 64 41 bb 22 8b 86 3c a2 db 87 3b
       -0.051181674 -0.002950931 0.016423766 0.0041460553
0000e0 75 ed 66 3b e4 ac c2 3c 55 15 55 3c b4 a5 eb ba
       0.003523675 0.023764081 0.013005574 -0.001797846
0000f0 5e 04 58 ba a6 20 e7 3b e8 b2 6b bb e8 35 c0 3b
       -0.0008240397 0.0070534525 -0.003596479 0.005865801
000100 69 c4 ac 39 97 30 2c bb 93 a3 6a 3b 6d ee dc ba
       0.00032952733 -0.002627408 0.0035803064 -0.0016855724
000110 37 f9 11 3d 55 79 d1 3b f4 b6 40 bc 13 7e 3b 3c
       0.03563806 0.0063926377 -0.011762369 0.011443633
000120 92 f5 5c bc b6 13 72 3b b8 cd b7 b9 68 fd ff 3b
       -0.013486283 0.0036938018 -0.00035057752 0.007812191
000130 17 d9 15 3c f7 39 0e bb 5e 6d 1c bc 1f ae 4f bd
       0.0091459965 -0.002170203 -0.00954756 -0.050703164
000140 f4 d3 2e bb 8a f3 ec bb f4 64 99 bc 4d 4d 91 bc
       -0.0026676627 -0.0072311806 -0.018724896 -0.017737055
000150 17 bd 38 3b 83 00 83 3c 43 0c 94 3a 25 62 2f 3b
       0.0028188878 0.015991455 0.0011295158 0.002676138
000160 4f 70 5d bb b9 cf 12 bd dd d9 8b 3b 43 8c 06 bc
       -0.0033788865 -0.03584263 0.0042679147 -0.008212152
000170 2c 40 b9 ba cb 48 9d 3a 08 36 1f ba 07 93 66 bb
       -0.0014133505 0.0011999843 -0.000607342 -0.003518285
000180 98 dc 52 3b a6 32 3c 3d 4e c4 11 bc 95 ba 2d 3c
       0.003217494 0.04594674 -0.0088969 0.010603567
000190 e4 a3 73 bb 67 7a da bb cc d0 bc 3b 3b 82 0e bc
       -0.0037176544 -0.0066674235 0.005762195 -0.008698042
0001a0 07 1c 6e 3b ab 06 db 3d 4e 1f a8 bb 2f a5 a9 ba
       0.0036332624 0.10694631 -0.005130685 -0.0012942905
0001b0 b4 3f a0 bb 40 43 ac bc 7c fa 06 bd f0 31 50 3c
       -0.0048904065 -0.021028161 -0.032953724 0.0127072185
0001c0 be 23 7b 3b 1a 8f 00 3b 15 91 1e 3b f2 9b ca 3b
       0.0038320865 0.0019616545 0.0024195362 0.006183141
0001d0 2d 8a 8e ba 3a 89 ee 3b f9 9d f4 3a 00 cc 5a b9
       -0.001087492 0.0072795423 0.0018662802 -0.00020866096
0001e0 d8 70 44 3c 22 72 04 3c e6 ea 18 bb 75 b6 05 3b
       0.011989795 0.008083852 -0.002333337 0.0020402942
0001f0 c5 4d 00 3c 38 f1 87 bb ee 66 60 bb 7e c4 93 3b
       0.007831042 -0.0041486286 -0.0034241038 0.0045095077
000200 55 16 20 3d 24 23 fa bb 96 53 98 3c 0e 3c 93 bb
       0.039083797 -0.0076335836 0.018594544 -0.004493243
000210 6f cc 5d 39 fe 31 07 bb 13 4a d6 bb 26 bf cb b9
       0.0002115236 -0.0020629163 -0.006539592 -0.00038861594
000220 66 b2 25 ba 35 07 69 3b 5e 75 2e 3d e0 28 f2 ba
       -0.0006320834 0.0035557274 0.0425924 -0.0018475316
000230 3c c1 28 3d d7 c7 f2 3a 75 9b 88 ba 53 a4 a7 bc
       0.041199908 0.0018522692 -0.0010422306 -0.020464098
000240 9d 49 1b 3b 75 fc 3c 3b 57 f8 a8 bc 9f b3 b2 3c
       0.0023695 0.0028837 -0.02062623 0.021814166
000250 92 6b 07 3b ce 6c 91 bb 88 5e 09 3b 55 3f 46 bb
       0.0020663482 -0.0044380194 0.0020960886 -0.0030250151
000260 94 64 37 39 71 44 5a bc 04 e9 1f bb ab f5 61 3a
       0.00017489708 -0.013321982 -0.0024400363 0.0008619676
000270 10 3b c8 bc 51 a4 0d 3c 30 a2 04 bd ea 96 24 3d
       -0.024442226 0.008645133 -0.032381237 0.040182985
000280 d1 bf f5 3a 25 0a 03 bd 7c 9c bf 3b f8 dd c6 bc
       0.0018749182 -0.031992096 0.005847512 -0.024275765
000290 11 87 c6 bc 58 1f a1 3b 7f 65 ce 3c 61 cc 33 bb
       -0.024234327 0.0049170665 0.025194881 -0.0027435052
0002a0 86 36 32 bc c8 bd 07 bc 17 63 87 bd ce b0 64 3d
       -0.010877257 -0.0082849935 -0.06610697 0.055832677
0002b0 3a 62 c3 3c 1b 73 dc 37 f1 4d 04 bd 00 d8 c5 3b
       0.023850549 2.6279644e-05 -0.032300893 0.006037712
0002c0 fb 8e 49 3b da c9 d4 bb e9 31 d7 ba 3a 25 b4 39
       0.003075539 -0.006493789 -0.0016418073 0.0003436001
0002d0 b4 de e4 3b eb 48 97 bc db 5c 73 bb eb c0 8a b9
       0.006984556 -0.018467387 -0.0037134204 -0.00026465146
0002e0 62 fa b7 bc 2a 0d 98 3b 7e a8 e1 3b d7 b6 e5 37
       -0.022458259 0.004640241 0.006886541 2.7384069e-05
0002f0 16 51 cc bc 9e 59 00 bd f3 34 9d ba 17 18 5d 3c
       -0.024941009 -0.031335466 -0.001199393 0.013494513
000300 dc 62 02 bb 78 32 3b 3b a2 02 6e 3b ca ba fc bc
       -0.001989535 0.0028564017 0.0036317487 -0.030850787
000310 45 8f 26 3a 7c 2e bc 3a b7 c4 7b 3c 02 cd 27 bd
       0.0006353746 0.0014357115 0.015366725 -0.040966995
000320 d1 e6 92 bb 68 77 b2 3b 82 6a d7 bb 76 bc 39 3c
       -0.004483082 0.0054463632 -0.006573976 0.0113364365
000330 df 76 1f 39 b7 41 85 bc 3e b0 91 bc 2c 48 0e bd
       0.00015207705 -0.016266687 -0.017784234 -0.034736797
000340 9a cd 4a 3b 0c 90 66 ba 10 08 8a bb ab da a2 3b
       0.0030945302 -0.00087952684 -0.004212387 0.004969915
000350 b5 59 fd bc 03 d7 79 bd b8 e7 0b bc 53 50 c5 bb
       -0.030926565 -0.060996067 -0.008539133 -0.0060215383
000360 3e 5e 1f ba f7 e9 a7 3b 4c 20 39 3c a9 03 92 bb
       -0.0006079412 0.0051243263 0.011299204 -0.0044560027
000370 b7 98 14 3d c1 64 8b 3a 4f 94 c4 bb c8 97 66 3b
       0.036278453 0.0010634885 -0.005999125 0.0035185684
000380 cb 9a b0 3b 50 60 a0 3b b0 76 58 3c 19 8d 59 bb
       0.0053895465 0.004894294 0.013211891 -0.0033195673
000390 4a 38 03 bc 5e 29 7e bc 29 a7 59 3c b8 1e 24 3b
       -0.008009026 -0.015512792 0.013284483 0.0025042724
0003a0 be 7e f8 39 7e 6b 32 3c 5c 51 c1 3c c9 fa d1 bb
       0.00047396676 0.010889886 0.023598365 -0.0064080697
0003b0 5c 0f c0 3b 90 88 75 bc 08 78 e0 ba ad b5 16 bc
       0.005861206 -0.014986172 -0.0017125616 -0.009198588
0003c0 95 89 d4 bb bc d2 27 3d fd 8f 0e 3a 51 70 b4 b9
       -0.0064861276 0.040972456 0.0005438326 -0.00034415958
0003d0 39 80 d2 ba 22 11 67 3b 94 88 01 bb b8 b0 36 3b
       -0.0016059942 0.0035258015 -0.0019765245 0.0027876329
0003e0 c5 f6 e2 3a d2 a9 f3 3b e4 6d a7 b5 72 4a 7b 3c
       0.0017315975 0.0074360156 -1.2474452e-06 0.015337573
0003f0 da 30 c9 bc 8f 11 98 ba f8 ae 1b 3b 4b ff 01 3d
       -0.024559427 -0.0011601913 0.0023755413 0.031737607
