checkpoint_actor.pth (torch_old, 557061 bytes, 6 tensors)

fc1.weight f4 [256, 24]
-0.0796691 0.027021527 0.07301424 0.019969087 0.092377804 0.019266544 -0.028075479 0.06335144
0.014697129 -0.02769952 0.011394301 -0.052723475 0.07070383 0.04516173 0.057532508 -0.08405834
-0.017997077 -0.0041753235 0.0064374874 -0.016476296 -0.0033486853 0.047392372 -0.05524027 -0.054369166
-0.048966095 -0.002990057 -0.00033392094 0.01097873 -0.05216951 -0.054875523 0.039221954 0.0008539436
0.007846048 0.076489285 0.009488045 0.05890285 -0.06668103 -0.022413911 0.06871087 0.0138255
0.03453316 -0.041140165 0.0031824242 -0.037415776 -0.03974711 -0.15169606 -0.027294459 -0.0742873
0.030854756 0.0004250878 0.052379694 0.015556523 0.031629775 0.059194975 0.07320693 -0.019856192
-0.026538273 -0.036955424 0.021022344 -0.07435773 -0.0154417 -0.03700211 0.0044722604 -0.020990547
-0.11939079 -0.013316305 -0.060603578 0.040357616 0.08202372 -0.0008938144 -0.06108744 0.03252322
0.040333536 0.0740058 0.047218494 0.074899785 0.061372258 -0.042359993 0.039147913 0.107985124
-0.036614046 -0.04420597 0.018247344 -0.13588208 0.046430614 -0.053174116 0.02860611 -0.10618229
0.080067776 -0.027179485 0.08948922 -0.0070372038 0.011654485 -0.024133129 0.019657658 -0.13011959
0.029466895 -0.05365937 0.019838126 -0.06163814 0.08605859 -0.10816027 -0.03343454 -0.01329714
-0.07943879 -0.09032548 -0.09788502 0.09468534 -0.07695696 -0.071328916 -0.042620525 0.06890487
-0.009806893 -0.119391 -0.02074296 0.08824231 -0.085091345 -0.0669732 -0.048613038 0.0028587736
-0.09189644 0.012583391 0.058411203 0.09873074 0.034349844 0.10965107 0.07605354 0.048416387
-0.019980345 -0.0018064894 0.033601668 0.018779615 -0.047980234 0.018902479 0.086982556 0.03959064
-0.021840679 0.0061691487 -0.05233287 -0.04695181 -0.0232947 0.010975171 0.024539026 -0.0028881782
0.0044943956 0.02130936 -0.0153124975 0.023962991 0.06744772 0.059588637 -0.06181724 0.021754736
-0.015276743 -0.026066804 -0.019065822 0.06957596 0.07974964 0.007830302 -0.029253362 0.14398761
-0.009656702 0.020965349 0.023216585 -0.048488468 0.096427806 -0.0024125131 -0.047578376 -0.04899633
0.0023924178 -0.0032212813 0.014407201 -0.031152297 0.11938489 -0.003284688 0.011300882 0.043508533
0.010746183 -0.04632801 0.024741597 0.08050724 0.08439002 0.080177955 -0.018896323 0.028321791
-0.059626237 -0.06489315 0.00046266543 -0.04379406 0.0813196 0.057753876 -0.053363293 0.062722676
0.023871781 -0.07647104 -0.03303668 0.079331025 0.023782367 0.061089806 -0.024427768 0.10282618
-0.0058958307 -0.096491896 -0.024593985 0.16744313 -0.0385035 0.0025438033 0.03626853 0.18762688
0.033300664 -0.033926226 0.018893382 0.20111503 0.006866166 -0.020861816 0.027277354 0.17154293
0.010199767 -0.034221865 -0.01652111 0.018189706 -0.10727592 0.060864635 0.052492283 0.099919185
-0.034433264 -0.009327389 -0.07027579 0.06557334 -0.0047184937 0.02943152 -0.018390516 0.042300563
-0.03583848 -0.038068965 0.0722215 0.053854585 -0.07488882 -0.035568945 -0.03749843 -0.039650008
0.05301798 0.107669264 0.008351702 0.07794547 -0.009122728 -0.009174028 -0.032391787 0.06719986
0.018052367 -0.023125146 -0.0045476463 -0.09304277 -0.009497826 0.10005835 0.02804969 -0.0104052
00000000: 8e29 a3bd 405c dd3c 7d88 953d 3696 a33c
00000010: 9330 bd3d dfd4 9d3c 8cfe e5bc 66be 813d
00000020: 3acc 703c 1bea e2bc 2aaf 3a3c 92f4 57bd
00000030: 2bcd 903d 82fb 383d 35a7 6b3d c726 acbd
00000040: 9b6e 93bc 27d1 88bb 8ff1 d23b 4cf9 86bc
00000050: 9e75 5bbb 811e 423d 9f43 62bd 34b2 5ebd
00000060: ac90 48bd d5f4 43bb 1c12 afb9 22e0 333c
00000070: b2af 55bd 28c5 60bd 33a7 203d 2fdb 5f3a
00000080: b68c 003c 6aa6 9c3d bf73 1b3c 1d44 713d
00000090: 1090 88bd 619d b7bc 49b8 8c3d 5a84 623c
000000a0: a572 0d3d 9782 28bd 3890 503b 4941 19bd
000000b0: decd 22bd 3656 1bbe a198 dfbc f123 98bd
000000c0: 1dc3 fc3c 52de de39 178c 563d c9e0 7e3c
000000d0: 398e 013d 6e76 723d 84ed 953d 74a9 a2bc
000000e0: cb66 d9bc 925e 17bd 0d37 ac3c de48 98bd
000000f0: 2fff 7cbc 868f 17bd 0a8c 923b 5ef4 abbc
00000100: 2983 f4bd a22c 5abc 753b 78bd 074e 253d
00000110: 0dfc a73d de4e 6aba d336 7abd 1137 053d
00000120: c734 253d 5a90 973d 2e68 413d 0f65 993d
00000130: 7a61 7b3d ac81 2dbd 9059 203d 4e27 dd3d
00000140: 9cf8 15bd 5211 35bd 747b 953c ac24 0bbe
00000150: 072e 3e3d 1acd 59bd 5c57 ea3c 1a76 d9bd
00000160: 93fa a33d 83a7 debc 2046 b73d 5898 e6bb
00000170: 74f2 3e3c d7b2 c5bc 1909 a13c 123e 05be
00000180: 8f64 f13c edc9 5bbd 9183 a23c 4678 7cbd
00000190: 7c3f b03d 2283 ddbd a8f2 08bd 3fdc 59bc
000001a0: ceb0 a2bd 91fc b8bd f177 c8bd 63ea c13d
000001b0: 9c9b 9dbd e514 92bd dc92 2ebd ff1d 8d3d
000001c0: 17ad 20bc 4583 f4bd 24ed a9bc 62b8 b43d
000001d0: 5f44 aebd 3f29 89bd 771e 47bd 435a 3b3b
000001e0: 3334 bcbd 912a 4e3c 9640 6f3d 5833 ca3d
000001f0: 6cb2 0c3d bd90 e03d f5c1 9b3d 4350 463d
00000200: d2ad a3bc bac7 ecba e7a1 093d b5d7 993c
00000210: ec86 44bd 5fd9 9a3c e923 b23d cc29 223d
00000220: 39eb b2bc 9226 ca3b fe5a 56bd 8b50 40bd
00000230: 87d4 bebc 34d1 333c 1106 c93c 9747 3dbb
00000240: b945 933b f890 ae3c 45e1 7abc 094e c43c
00000250: 0822 8a3d 3713 743d 1334 7dbd fd36 b23c
00000260: 4e4b 7abc 0d8a d5bc ed2f 9cbc d77d 8e3d
00000270: c753 a33d ab4a 003c bfa4 efbc 7d71 133e
00000280: 2537 1ebc 86bf ab3c b530 be3c d89b 46bd
00000290: f17b c53d 411b 1ebb 8be1 42bd 60b0 48bd
000002a0: 1cca 1c3b 221c 53bb 2e0c 6c3c 1a33 ffbc
000002b0: 1180 f43d ec43 57bb 5627 393c 0136 323d
000002c0: c210 303c 70c2 3dbd e4ae ca3c fbe0 a43d
000002d0: add4 ac3d 5734 a43d 76cc 9abc 1a03 e83c
000002e0: a43a 74bd b3e6 84bd e791 f239 6661 33bd
000002f0: e48a a63d 548f 6c3d 7893 5abd bf74 803d
00000300: c18e c33c d99c 9cbd 7851 07bd 4e78 a23d
00000310: 3dd3 c23c 4e39 7a3d be1c c8bc 8896 d23d
00000320: d031 c1bb 8b9d c5bd 5379 c9bc 3676 2b3e
00000330: d9b5 1dbd f0b5 263b 4f8e 143d 4321 403e
00000340: 4766 083d 3af6 0abd 4bc6 9a3c 19f1 4d3e
00000350: 93fd e03b 66e6 aabc c274 df3c f3a8 2f3e
00000360: ec1c 273c 3a2c 0cbd 4757 87bc 9402 953c
00000370: 7ab3 dbbd 324d 793d 2602 573d 6ea2 cc3d
00000380: e509 0dbd e8d1 18bc c1ec 8fbd 514b 863d
00000390: 989d 9abb 5f1a f13c b5a7 96bc 5b43 2d3d
000003a0: 5fcb 12bd 34ee 1bbd dee8 933d a096 5c3d
000003b0: 4f5f 99bd beb0 11bd f497 19bd 0c68 22bd
000003c0: 6229 593d b481 dc3d 94d5 083c e0a1 9f3d
000003d0: 7f77 15bc aa4e 16bc 40ad 04bd 15a0 893d
000003e0: 8fe2 933c f270 bdbc 6c04 95bb 358d bebd
000003f0: c59c 1bbc 64eb cc3d 77c8 e53c 927a 2abc

fc1.bias f4 [256]
-0.08462202 0.12994865 0.14054483 0.122022174 -0.0029298996 -0.15849209 -0.16910139 0.030134073
-0.17768994 -0.09970917 0.16918531 -0.01219458 0.099143654 -0.16555753 0.073095225 0.18438658
0.06366486 0.07206433 -0.12656389 -0.15262158 0.11709967 -0.20041956 -0.007972395 -0.18469913
0.05037702 -0.18735011 0.08131566 0.029654063 -0.11673276 -0.08851696 -0.11181646 -0.08883834
-0.039403837 0.022063026 -0.10709518 0.05299014 -0.1698667 0.20802426 -0.13135271 0.14264104
-0.097995184 -0.10639735 -0.02955607 -0.1234948 -0.034485217 -0.056104213 -0.09432687 -0.17028807
0.16091178 0.10856918 -0.03951024 0.1552576 -0.090150066 -0.136689 0.058862597 -0.070686154
0.15570888 -0.0324137 -0.11664658 0.17312586 0.07913303 0.04514987 -0.042762667 -0.17388427
0.046219744 0.047720708 -0.14637037 0.15514696 -0.15300432 -0.13603754 0.013958819 -0.18718973
-0.09651299 -0.093497135 -0.05512007 0.16597918 0.0816004 0.18115528 0.064283304 0.00027950443
-0.02581784 -0.1052372 -0.17180887 -0.21447267 0.1343375 -0.11076155 -0.07264945 0.08239579
-0.14549965 0.063015714 0.044576738 0.06550673 -0.04166001 0.13325797 -0.19175875 -0.21390836
0.13483119 -0.09180362 0.17133811 0.10346336 0.10177521 0.022465724 0.04135188 0.025997493
-0.12594533 0.16105795 0.13894583 0.068761036 0.05021947 -0.033885017 -0.024256967 -0.09353074
-0.074952506 -0.19217694 -0.052615486 0.1193932 0.22963001 -0.18396538 -0.12023877 0.21817595
-0.11875018 -0.028281875 0.19605288 0.19723834 0.076350875 0.05540118 -0.0065860255 -0.008850495
0.12071547 -0.17703693 -0.17645074 0.12579319 -0.18958944 0.09736151 0.12201977 0.13826963
0.09470225 0.03801585 0.07440031 0.10377045 -0.0021337825 -0.14399467 0.10278819 0.07060372
0.11091672 -0.12854321 -0.053652268 -0.06680362 -0.0036001997 0.17046908 0.06270473 0.2238046
0.20096008 -0.1534383 0.17117451 0.018521031 0.17990702 0.060867462 -0.027015077 0.16769521
-0.14536588 -0.0055451393 0.00018953402 0.003078229 -0.032405365 0.18533722 -0.04876394 0.1567027
0.10152468 0.16225542 0.07104092 -0.19710083 -0.18946776 -0.21281411 -0.21365371 -0.18421513
0.018778987 0.22202197 -0.13868596 0.06885255 -0.084377535 0.1460305 0.16969004 0.09976649
0.15208447 -0.15699343 -0.18690534 -0.090480834 0.07044903 0.19087885 0.121142454 0.020389328
0.0073723877 -0.106148705 0.18832542 -0.18264931 -0.098465316 0.12585633 0.18941285 0.07574437
-0.031414572 -0.040429138 0.042054754 -0.10649447 0.2107993 0.17393239 -0.08448748 0.15325566
-0.01810635 -0.12025773 0.04782914 -0.043487642 0.17508085 0.0025144916 -0.07376667 -0.18544099
0.12796554 0.18673119 0.0586321 -0.014848531 -0.06698955 0.07025764 0.18032692 -0.037112493
0.010579798 -0.21363898 0.08455816 -0.071451455 -0.04806717 -0.053669635 0.12979962 0.14726073
-0.06614854 -0.039974112 0.060897753 0.06635678 -0.08829202 0.07069297 0.02021158 0.10800842
-0.11659281 -0.15877302 0.06575216 -0.020174824 -0.09276654 0.13847354 -0.049571972 -0.095638625
-0.06380694 -0.03296016 -0.087854154 -0.18565178 0.18453676 0.18533069 -0.20552137 0.1693713
00000000: 4f4e adbd 4211 053e fcea 0f3e c3e6 f93d
00000010: 8f03 40bb c04b 22be ea28 2dbe bbdb f63c
00000020: 5af4 35be 5234 ccbd ea3e 2d3e c7cb 47bc
00000030: d40b cb3d ea87 29be f3b2 953d d6cf 3c3e
00000040: b962 823d 7796 933d f799 01be d548 1cbe
00000050: f4d1 ef3d c93a 4dbe a69e 02bc c521 3dbe
00000060: 2258 4e3d b5d8 3fbe d388 a63d 14ed f23c
00000070: 9611 efbd 6148 b5bd 0700 e5bd e0f0 b5bd
00000080: eb65 21bd 85bd b43c b854 dbbd 300c 593d
00000090: 89f1 2dbe 5004 553e 5381 06be 7e10 123e
000000a0: b3b1 c8bd dbe6 d9bd 921f f2bc d7ea fcbd
000000b0: 5f40 0dbd 88cd 65bd 722e c1bd ff5f 2ebe
000000c0: 0fc6 243e 8559 de3d 7dd5 21bd d9fb 1e3e
000000d0: 99a0 b8bd 34f8 0bbe e819 713d e7c3 90bd
000000e0: 2672 1f3e 3ac4 04bd 67e4 eebd e847 313e
000000f0: 7f10 a23d 12ef 383d e827 2fbd b80e 32be
00000100: ea50 3d3d ca76 433d 1de2 15be d8de 1e3e
00000110: 2aad 1cbe 6d4d 0bbe 88b3 643c aaae 3fbe
00000120: 9aa8 c5bd 6d7b bfbd 95c5 61bd 72f6 293e
00000130: 1c1e a73d c580 393e f7a6 833d 738a 9239
00000140: ef7f d3bc 9a86 d7bd aaee 2fbe b99e 5bbe
00000150: c58f 093e f4d6 e2bd 3cc9 94bd 20bf a83d
00000160: dcfd 14be 620e 813d 1996 363d 6428 863d
00000170: b0a3 2abd c774 083e 685c 44be cb0a 5bbe
00000180: 3011 0a3e 8903 bcbd 4273 2f3e 99e4 d33d
00000190: 856f d03d 0a0a b83c 9760 293d b2f8 d43c
000001a0: d0f7 00be 60ec 243e d147 0e3e 96d2 8c3d
000001b0: eeb2 4d3d 04cb 0abd 8cb6 c6bc 0b8d bfbd
000001c0: b380 99bd 08ca 44be 5683 57bd 6c84 f43d
000001d0: 2124 6b3e 6c61 3cbe bf3f f6bd 8469 5f3e
000001e0: 4b33 f3bd 64af e7bc 16c2 483e d9f8 493e
000001f0: d95d 9c3d 59ec 623d 96cf d7bb ab01 11bc
00000200: ac39 f73d 2b49 35be 81af 34be eecf 003e
00000210: bc23 42be 7965 c73d 80e5 f93d 8e96 0d3e
00000220: 41f3 c13d 82b6 1b3d 315f 983d 9a85 d43d
00000230: eed6 0bbb 5773 13be 9d82 d23d af98 903d
00000240: 4e28 e33d d5a0 03be 7bc2 5bbd 56d0 88bd
00000250: 54f1 6bbb 728f 2e3e 566b 803d 082d 653e
00000260: 7bc8 4d3e ee1e 1dbe 5f48 2f3e 6bb9 973c
00000270: 8c39 383e 2950 793d b94e ddbc 4bb8 2b3e
00000280: cbda 14be 00b4 b5bb a7bd 4639 1dbc 493b
00000290: 7dbb 04bd 0ac9 3d3e b2bc 47bd ac76 203e
000002a0: 2cec cf3d 4926 263e e77d 913d cdd4 49be
000002b0: d603 42be f1eb 59be 0ac8 5abe e4a2 3cbe
000002c0: 64d6 993c ba59 633e b103 0ebe 9102 8d3d
000002d0: 21ce acbd 0589 153e 3ac3 2d3e 6052 cc3d
000002e0: 08bc 1b3e e3c2 20be 1d64 3fbe 044e b9bd
000002f0: 9547 903d bf75 433e 8919 f83d 8507 a73c
00000300: 1294 f13b 7e64 d9bd 61d8 403e 6c08 3bbe
00000310: 2fa8 c9bd 7be0 003e 71f5 413e dd1f 9b3d
00000320: 91ac 00bd 0699 25bd 9b41 2c3d c619 dabd
00000330: c6db 573e 551b 323e c607 adbd 0def 1c3e
00000340: c553 94bc af49 f6bd 7de8 433d 1920 32bd
00000350: 6548 333e 2bca 243b fb12 97bd 3ee4 3dbe
00000360: 6609 033e 7636 3f3e 3628 703d 4147 73bc
00000370: d131 89bd 3de3 8f3d 9fa7 383e 4503 18bd
00000380: e456 2d3c 2dc4 5abe d42c ad3d 2455 92bd
00000390: 15e2 44bd b1d4 5bbd 31ea 043e 84cb 163e
000003a0: e378 87bd e5bb 23bd ec6f 793d 10e6 873d
000003b0: 72d2 b4bd 7ac7 903d c192 a53c 8533 dd3d
000003c0: 36c8 eebd 6595 22be 12a9 863d ac45 a5bc
000003d0: 62fc bdbd 02cc 0d3e fb0b 4bbd 2fde c3bd
000003e0: 37ad 82bd 3c01 07bd e1ec b3bd 801b 3ebe
000003f0: 34f7 3c3e 54c7 3d3e 3274 52be ac6f 2d3e

fc2.weight f4 [512, 256]
-0.036356766 -0.00571332 -0.029385386 -0.040551838 0.00999952 0.002691772 -0.030546987 -0.042296167
-0.008955328 0.0016241713 -0.007331099 0.038168848 -0.0075265937 -0.03986809 -0.056354746 -0.01419262
0.020289106 0.020830415 0.026793234 -0.023477843 0.04549862 0.03132235 0.00650203 -0.015267927
-0.04028462 -0.032997712 -0.015599217 -0.017212462 -0.034060996 -0.031241193 -0.0059799426 -0.014745049
-0.013081058 -0.016997444 0.017888257 -0.0013435038 0.032806057 -0.004230237 -0.01996396 -0.021487184
0.012419524 -0.035709884 -0.024895525 0.0046449285 0.042406 -0.007663854 0.0083369315 0.0026440762
0.025062962 -0.024739819 -0.03575064 0.04434636 -0.029948078 -0.003540607 0.016275376 -0.044151846
0.036932696 -0.0054088687 -0.016440641 0.02744188 0.015471738 0.0017025087 0.024999687 0.0009916167
-0.014466268 -0.05250187 0.025855005 0.0115189785 -0.025147986 0.034304705 -0.032782502 -0.068937644
-0.019886145 -0.04047487 0.0018304327 0.019238919 0.03254613 0.01863457 -0.0143414 0.010239441
-0.0019056696 0.012981583 -0.04538364 0.03449367 -0.009747345 0.008063826 -0.0102090305 -0.009814077
-0.0012145595 -0.023786692 -0.04765315 -0.054085616 -0.0044970275 -0.0037700452 0.009501866 0.010228843
-0.014725484 -0.009682147 -0.04142046 0.0030162558 -0.050319154 -0.02998536 0.01994757 0.0021129462
-0.014754386 0.020228192 -0.019761141 -0.05052274 -0.0034564752 -0.03336269 0.032075632 -0.04796223
0.020420844 -0.024169812 -0.05334061 -0.06288557 -0.038233623 0.02552123 -0.046533283 -0.036686238
-0.014560099 -0.014453393 -0.0020151893 0.016376367 0.0003649634 0.03164702 0.0075357063 0.011574446
0.02399103 0.022333283 -0.031765845 0.030619027 0.006359272 0.027777713 -0.029714346 -0.007051255
0.009707772 -0.035935916 -0.017969761 0.040976744 0.018041994 -0.014183901 0.016228434 -0.026068645
-0.017903186 -0.011029625 0.043193866 -0.037031144 -0.036755543 0.01790854 -0.007907647 -0.027503585
-0.031232122 0.046202134 0.008415748 0.009155892 0.02728918 -0.05196447 -0.021700706 -0.036679693
-0.007992422 -0.0051462585 -0.051439635 0.030670423 0.009264081 -0.025376322 -0.028005857 -0.015346947
-0.012137049 -0.016967524 -0.006655093 -0.035602424 -0.023422096 -0.022058224 -0.0005622568 0.036475547
0.02357113 -0.039980218 -0.022452313 0.02924208 -0.038589682 0.02351924 -0.015421282 -0.041421175
0.0034244705 0.03483234 -0.007041202 -0.05513893 0.023457358 -0.045741167 -0.009377792 0.013224977
0.009030629 -0.012333244 -0.029766066 0.028112544 0.017932428 -0.016793577 -0.005251698 0.017178772
0.0436383 0.03532451 0.009961017 -0.033085924 -0.009789152 0.04553032 0.03637308 0.006964791
0.0075745652 -0.006117603 0.035296828 -0.04048071 -0.038797207 0.038078144 -0.004854124 -0.03958148
-0.02495021 0.008729303 -0.0091119595 0.018136587 -0.002971346 0.022779472 -0.008700219 0.003091022
-0.01868643 -0.018388549 0.0013620089 -0.02845686 0.043495297 0.013503282 0.006811387 -0.024596503
0.0140433125 -0.002357527 -0.01494752 0.034203954 0.012093795 -0.0033877115 -0.03784154 0.041774135
-0.037654757 0.042813465 0.0055305567 -0.03376194 -0.019576678 0.020128308 0.01570513 0.007814389
-0.02255681 -0.030960556 -0.023194076 0.041632548 -0.006463845 0.042011634 -0.0020410165 -0.010477199
00000000: d5ea 14bd cd36 bbbb 9fb9 f0bc af19 26bd
00000010: 07d5 233c 7168 303b ad3d fabc bf3e 2dbd
00000020: 5eb9 12bc 25e2 d43a b739 f0bb f056 1c3d
00000030: a5a1 f6bb b94c 23bd 3cd4 66bd 2a88 68bc
00000040: 5735 a63c 8ca4 aa3c 7c7d db3c 9b54 c0bc
00000050: c35c 3a3d dd4b 003d fb0e d53b 5426 7abc
00000060: 7c01 25bd 9c28 07bd dc93 7fbc 2601 8dbc
00000070: 8b83 0bbd 88ed ffbc 65f3 c3bb 3895 71bc
00000080: ef51 56bc 393e 8bbc 658a 923c 8218 b0ba
00000090: a55f 063d cd9d 8abb 758b a3bc e405 b0bc
000000a0: 427b 4b3c 8744 12bd b3f1 cbbc 7c34 983b
000000b0: eab1 2d3d 1121 fbbb a097 083c 3d48 2d3b
000000c0: d750 cd3c 29ab cabc 436f 12bd 87a4 353d
000000d0: ac55 f5bc 8709 68bb f053 853c 91d8 34bd
000000e0: bd46 173d e13c b1bb 86ae 86bc cbcd e03c
000000f0: 2c7d 7d3c b626 df3a 25cc cc3c 23f9 813a
00000100: ed03 6dbc 330c 57bd e0cd d33c 19ba 3c3c
00000110: 2603 cebc 1783 0c3d f246 06bd 2e2f 8dbd
00000120: 45e8 a2bc fac8 25bd 21eb ef3a f09a 9d3c
00000130: 174f 053d 87a7 983c 31f8 6abc 54c3 273c
00000140: a9c7 f9ba b5b0 543c 32e4 39bd 3c49 0d3d
00000150: 54b3 1fbc 231e 043c c743 27bc 39cb 20bc
00000160: db31 9fba 4fdc c2bc f32f 43bd e188 5dbd
00000170: cd5b 93bb dd12 77bb b7ad 1b3c e196 273c
00000180: 2843 71bc dea1 1ebc 80a8 29bd 60ac 453b
00000190: 751b 4ebd dca3 f5bc 1669 a33c 5b79 0a3b
000001a0: 61bc 71bc 98b5 a53c 1ee2 a1bc eff0 4ebd
000001b0: 0886 62bb 51a7 08bd bd61 033d 0b74 44bd
000001c0: 9d49 a73c c5ff c5bc af7b 5abd 26ca 80bd
000001d0: dc9a 1cbd e611 d13c af99 3ebd 4f44 16bd
000001e0: 7b8d 6ebc edcd 6cbc 4411 04bb bb27 863c
000001f0: 8f58 bf39 4ea0 013d 16ee f63b bfa2 3d3c
00000200: d688 c43c 4af4 b63c e71c 02bd c1d4 fa3c
00000210: 7161 d03b 168e e33c 806b f3bc 370e e7bb
00000220: 590d 1f3c 8a31 13bd 5235 93bc 3bd7 273d
00000230: cecc 933c 9863 68bc 7ef1 843c e98d d5bc
00000240: b4a9 92bc 9ab5 34bc 0dec 303d f8ad 17bd
00000250: fb8c 16bd eeb4 923c 138f 01bc 334f e1bc
00000260: 82da ffbc 733e 3d3d 35e2 093c 9802 163c
00000270: 8f8d df3c b2d8 54bd aec5 b1bc 723d 16bd
00000280: a6f2 02bc f2a1 a8bb 5eb2 52bd 8a40 fb3c
00000290: 5fc8 173c 01e2 cfbc 8a6c e5bc c371 7bbc
000002a0: 79da 46bc 7aff 8abc f712 dabb d9d3 11bd
000002b0: b2df bfbc 73b3 b4bc 6a64 13ba 6267 153d
000002c0: 3e18 c13c 4cc2 23bd eaed b7bc 168d ef3c
000002d0: 3710 1ebd 6cab c03c 8ba9 7cbc 40a9 29bd
000002e0: 156d 603b 5bac 0e3d e2b9 e6bb 5cd9 61bd
000002f0: a529 c03c 175b 3bbd 4fa5 19bc 93ad 583c
00000300: 34f5 133c 6011 4abc f7d7 f3bc 474c e63c
00000310: 07e7 923c af92 89bc 7016 acbb 7fba 8c3c
00000320: 13be 323d 6fb0 103d 8933 233c 1b85 07bd
00000330: ae62 20bc 007e 3a3d f0fb 143d e738 e43b
00000340: 0f34 f83b 2c76 c8bb 6893 103d 1acf 25bd
00000350: d2e9 1ebd d4f7 1b3d 580f 9fbb 3120 22bd
00000360: 6264 ccbc 5a05 0f3c 544a 15bc 2e93 943c
00000370: eaba 42bb 049c ba3c 5d8b 0ebc be92 4a3b
00000380: 4914 99bc 95a3 96bc 6f85 b23a 5c1e e9bc
00000390: 2028 323d df3c 5d3c 0e32 df3b 9b7e c9bc
000003a0: ec15 663c bd80 1abb 71e6 74bc 7219 0c3d
000003b0: 0e25 463c 5e04 5ebb bbff 1abd 5b1b 2b3d
000003c0: e03b 1abd 2c5d 2f3d ac39 b53b f649 0abd
000003d0: 455f a0bc 1fe4 a43c 0ba8 803c ec07 003c
000003e0: 0fc9 b8bc fea0 fdbc 8101 bebc e486 2a3d
000003f0: a9ce d3bb 6414 2c3d 93c2 05bb 8fa8 2bbc

fc2.bias f4 [512]
-0.049429793 -0.03232298 -0.004947149 0.028566955 0.012807476 -0.012763641 0.010157479 0.0397273
0.018778639 -0.037697654 -0.036267355 -0.055678926 -0.016958619 -0.09829687 0.0072495444 0.027680177
-0.009028974 -0.0012434365 -0.055184755 0.04839053 -0.0053976746 -0.049200952 0.045337427 -0.05183669
0.06395022 -0.0041842214 -0.049553987 0.031593647 -0.064593986 0.029468134 0.031298913 -0.006408225
-0.004442507 0.00030133364 -0.01391328 0.04621194 -0.04537978 0.039112173 -0.0307022 -0.01867295
-0.047242362 -0.03679804 0.0126762735 -0.044256255 0.06809004 -0.013885315 0.0036574865 -0.022293042
0.012255338 -0.00051140133 0.06415555 -0.015954658 -0.023782725 -0.063218616 0.0548192 -0.011681588
-0.026410518 -0.015139163 -0.0020564538 -0.0659746 0.006034921 0.01762992 0.036140624 -0.020613678
0.02122429 0.03004344 0.01875048 0.011896848 -0.05148121 -0.0031947978 0.073831454 0.048721254
0.020117186 0.008738418 0.051601566 -0.06622398 -0.0022743682 0.06517059 0.021012917 0.06470171
-0.03989032 0.036833916 0.08730604 0.0010782646 0.01352258 0.05730036 0.065673724 0.029912282
-0.016608376 0.0554195 0.044008695 -0.051209293 -0.045904327 0.036639437 -0.024521101 0.029488508
-0.031622157 0.025944283 0.046732422 0.0046885293 -0.009336123 -0.04638925 -0.007659816 0.061931886
0.027219871 0.005593084 -0.045520417 0.027765406 0.030742774 -0.017275902 0.0142044965 0.037658982
0.03186 0.043282446 0.048313804 0.059364732 0.021089058 -0.02429405 -0.009768173 0.0021841892
0.0118039735 -0.012258767 0.043302793 0.0016242411 -0.037546847 -0.013644315 -0.00878224 -9.393349e-06
0.02188987 0.034661427 0.042711113 -0.030542275 -0.054492448 -0.018673658 -0.04549665 -0.019738074
0.006999699 0.041458234 -0.04179513 0.030550579 0.091928296 0.057021268 -0.021080056 0.002560555
0.002779692 0.06872546 0.027115962 -0.019191792 0.019639147 0.07257027 -0.04023173 0.029052602
0.010670358 -0.009864951 -6.708788e-05 0.028372724 0.023685643 0.064714335 0.037447236 -0.010028908
0.005412527 0.042059224 -0.022665294 -0.04130254 -0.0055065905 0.04505028 0.057151563 -0.027237576
-0.037913185 -0.034213502 0.06677694 0.030796321 0.02094618 0.038495403 0.057621535 0.032493513
-0.034585807 -0.06887784 0.0016736309 0.005956738 0.01792226 0.014468425 0.03640319 0.060633074
0.02870074 0.080198206 -0.0639403 -0.04952215 0.0036845026 -0.015656123 -0.024192374 -0.021692758
0.000361903 -0.045279313 -0.032891538 -0.042701416 0.021373983 -0.04099746 -0.010453925 -0.0346379
0.049474966 0.051027574 -0.034392335 0.020147929 -0.038374674 0.01909681 0.020525169 0.0057535376
-0.041907452 -0.039006084 0.027258266 0.04443038 -0.048989024 0.039646845 0.003736748 -0.033102673
-0.034300737 0.06570989 0.051300567 -0.046886396 0.0736623 0.066550925 -0.00094365067 -0.04555335
0.047311082 0.009880022 0.051014844 0.052509647 -0.036614325 0.012410619 -0.012817569 0.019131316
-0.03596498 -0.040567327 0.05453762 -0.034885485 0.031009234 0.013779362 0.10169514 -0.015129883
-0.052284308 0.03201606 0.0013663394 -0.0025389916 0.015263964 0.018784447 -0.045070946 0.05373412
-0.0144421365 0.08278204 0.038163427 -0.010619611 0.028339107 0.012485872 -0.023447264 -0.01707734
00000000: e576 4abd 1a65 04bd b21b a2bb 3f05 ea3c
00000010: 73d6 513c 971e 51bc 8e6b 263c 18b9 223d
00000020: a9d5 993c db68 1abd 148d 14bd 960f 64bd
00000030: cdec 8abc df4f c9bd 968d ed3b 8ac1 e23c
00000040: 43ee 13bc cefa a2ba 6909 62bd 2635 463d
00000050: fade b0bb f086 49bd bdb3 393d b652 54bd
00000060: 55f8 823d cb1b 89bb 1ff9 4abd 5768 013d
00000070: da49 84bd 2867 f13c 4a33 003d 16fc d1bb
00000080: 7392 91bb 51fc 9d39 87f4 63bc bb48 3d3d
00000090: 26e0 39bd 1634 203d 2e83 fbbc 04f8 98bc
000000a0: 3581 41bd 8bb9 16bd 25b0 4f3c 0c46 35bd
000000b0: ca72 8b3d 3b7f 63bc 71b2 6f3b e69f b6bc
000000c0: 9dca 483c 900f 06ba fc63 833d 58b3 82bc
000000d0: fdd3 c2bc c378 81bd 198a 603d 2264 3fbc
000000e0: df5a d8bc 400a 78bc 92c5 06bb b11d 87bd
000000f0: 96c0 c53b 9f6c 903c 3108 143d 04de a8bc
00000100: 90de ad3c a91d f63c 9b9a 993c ffea 423c
00000110: f6dd 52bd d05f 51bb f234 973d f08f 473d
00000120: cccc a43c 952b 0f3c 2a5c 533d 70a0 87bd
00000130: 910d 15bb 2978 853d 4823 ac3c 5582 843d
00000140: 0864 23bd 29df 163d 82cd b23d 8e54 8d3a
00000150: d08d 5d3c c8b3 6a3d f27f 863d 9a0a f53c
00000160: 4a0e 88bc 8fff 623d 7642 343d d6c0 51bd
00000170: 2d06 3cbd 3c13 163d 7ae0 c8bc e291 f13c
00000180: 3c86 01bd 1b89 d43c 7f6a 3f3d 3ca2 993b
00000190: 8af6 18bc a702 3ebd 32ff fabb 4aac 7d3d
000001a0: 35fc de3c 3046 b73b 9e73 3abd 4774 e33c
000001b0: 45d8 fb3c 3186 8dbc fab9 683c 4e40 1a3d
000001c0: a27f 023d ef48 313d b2e4 453d 6f28 733d
000001d0: f6c2 ac3c 5104 c7bc b00a 20bc 9d24 0f3b
000001e0: 7465 413c ffd8 48bc 455e 313d 7de4 d43a
000001f0: b9ca 19bd 688c 5fbc 62e3 0fbc 2098 1db7
00000200: 6252 b33c 24f9 0d3d d9f1 2e3d cb33 fabc
00000210: 7933 5fbd 80f9 98bc b25a 3abd beb1 a1bc
00000220: bb5d e53b 1cd0 293d 5f31 2bbd 3545 fa3c
00000230: e744 bc3d 228f 693d 15b0 acbc fcce 273b
00000240: 7e2b 363b efbf 8c3d 4b22 de3c 1b38 9dbc
00000250: 47e2 a03c b99f 943d 07ca 24bd b9ff ed3c
00000260: bad2 2e3c 9aa0 21bc 88b1 8cb8 ea6d e83c
00000270: 6508 c23c f388 843d 4662 193d 4a50 24bc
00000280: 915b b13b 4b46 2c3d 91ac b9bc da2c 29bd
00000290: a170 b4bb a486 383d c217 6a3d 5621 dfbc
000002a0: db4a 1bbd 7523 0cbd 59c2 883d 9148 fc3c
000002b0: 5397 ab3c 5bad 1d3d 8f04 6c3d eb17 053d
000002c0: d9a9 0dbd d30f 8dbd bc5d db3a bd30 c33b
000002d0: b4d1 923c f90c 6d3c 831b 153d 635a 783d
000002e0: d01d eb3c f53e a43d 22f3 82bd bdd7 4abd
000002f0: b277 713b 4541 80bc 162f c6bc 03b5 b1bc
00000300: ccbd bd39 cd76 39bd 47b9 06bd aee7 2ebd
00000310: 7e18 af3c f4ec 27bd f046 2bbc 78e0 0dbd
00000320: 43a6 4a3d 4a02 513d fade 0cbd 450d a53c
00000330: c32e 1dbd ea70 9c3c 6624 a83c 2c88 bc3b
00000340: 26a7 2bbd d8c4 1fbd ba4c df3c a1fc 353d
00000350: b7a8 48bd bb64 223d 3ae4 743b ab96 07bd
00000360: ee7e 0cbd e892 863d 8b20 523d f30b 40bd
00000370: 43dc 963d da4b 883d 535f 77ba 2696 3abd
00000380: 44c9 413d d1df 213c f1f4 503d 5b14 573d
00000390: e7f8 15bd e955 4b3c c800 52bc 47b9 9c3c
000003a0: 0450 13bd ed29 26bd d762 5f3d 15e4 0ebd
000003b0: 1407 fe3c d5c2 613c 8b45 d03d 54e3 77bc
000003c0: 1228 56bd 4623 033d be16 b33a 3665 26bb
000003d0: b515 7a3c d7e1 993c 509c 38bd 4f18 5c3d
000003e0: b69e 6cbc a189 a93d 4151 1c3d e0fd 2dbc
000003f0: 6a27 e83c 8b91 4c3c 7a14 c0bc c7e5 8bbc

fc3.weight f4 [2, 512]
0.026744353 0.01983829 0.08004058 -0.102047965 0.15197034 -0.04185537 0.12741329 0.032372035
0.013144452 0.06661296 0.041556057 0.01891219 0.025806243 0.029347291 0.021885218 0.020540508
0.0577135 0.13808963 0.008796688 0.012567826 0.03985319 0.13540685 0.07326169 0.10452037
0.004081616 -0.012103071 0.032897867 0.019043084 0.011120546 0.027266588 0.03306559 0.015573877
0.021674309 -0.062331103 0.054624744 0.008948322 0.05967865 -0.028544681 0.038085114 -0.12345502
0.024533663 0.015602376 -0.03570826 0.03592151 -0.04526652 0.12622876 -0.05419521 0.005237027
0.016739702 0.09642412 -0.025090072 0.03654667 0.05372871 -0.008383151 -0.027029678 0.039723378
0.07797236 0.020021973 0.09179808 0.019432068 0.0176597 0.01662019 0.01148664 0.0016055559
-0.10461566 -0.06672847 0.018855995 -0.02133107 0.02057109 0.11768159 -0.012787393 0.11622205
0.04227365 0.06855735 0.02929964 0.08586567 -0.058526658 0.15412816 0.0247801 0.01096141
0.18069649 0.04764627 -0.0479139 0.018373098 0.025790887 0.017413145 -0.0039681797 0.018841185
-0.026018957 0.027964743 -0.0027704362 0.062361177 0.021037662 -0.034962162 0.04340107 0.0012649571
0.041304022 0.023835411 0.0404189 -0.03276036 -0.02027738 0.017313847 0.0012880272 0.028028255
0.012668308 0.023160221 0.0272451 0.006916109 0.10554727 -0.038852964 0.019364998 0.010357249
0.03875078 0.08935941 0.053618327 -0.01896404 0.0031138847 0.017759677 -0.03332217 0.017589439
0.03754246 0.0056535373 0.016790176 0.120120585 0.10283713 0.055074655 -0.039300844 0.060055267
-0.0059679872 0.028246365 -0.096796215 0.02702105 0.18759856 -0.02594889 0.042365473 -0.046870895
0.04880712 0.022050194 0.01070499 0.12597044 0.008183105 0.005515846 -0.027719155 0.09560211
0.020610869 -0.057438724 0.13243853 0.017373677 0.0061793784 0.023282992 0.01884274 0.04329524
0.058449246 -0.05593263 0.014922749 0.030485535 0.01819507 -0.008436331 0.02626003 0.004506692
0.016111845 0.12236952 0.059159573 0.0021064172 0.07426453 -0.027799122 -0.082339875 0.09259265
0.042307544 0.012710946 0.043899585 0.02546035 0.024375116 0.038779106 0.08418042 0.022765778
0.1299286 0.0042988406 0.029544331 0.0018575549 0.051466916 0.07262006 -0.041956183 0.0801281
0.038373772 0.058840968 0.009888637 -0.08269212 -0.04901485 0.0076510995 0.042448826 0.11943898
0.064306274 0.036768485 0.032128483 0.03239653 -0.003690653 0.10921268 0.059509158 -0.013540037
0.007678165 0.06365753 0.0013532263 0.0012365237 -0.025704509 0.008901107 -0.041735984 0.028871167
0.013693025 0.061771106 0.08628496 0.062405474 0.03304185 -0.0103363525 0.013391097 -0.0009635438
0.07789479 0.004726615 0.012736079 0.03174275 0.021632867 0.037292298 0.15917952 0.066105776
0.019797042 0.108385526 -0.00827686 0.03165652 0.0071873334 -0.026084067 0.03396035 0.0031988737
0.025652435 -0.07169008 0.035454046 0.01522165 -0.0619047 0.01160003 -0.052836876 0.044668235
0.027513508 0.022218723 -0.013792897 0.18954664 0.043347716 0.00085785775 0.053870566 0.056053888
0.012415965 -0.021255238 -0.070370995 0.07307002 0.013101119 0.022326702 -0.016335366 0.16764845
00000000: f916 db3c e983 a23c 51ec a33d 86fe d0bd
00000010: 1d9e 1b3e 8970 2bbd a178 023e 8a98 043d
00000020: d45b 573c 606c 883d af36 2a3d bded 9a3c
00000030: 9d67 d33c bb69 f03c a148 b33c 9144 a83c
00000040: fe64 6c3d 5e67 0d3e fc1f 103c 48e9 4d3c
00000050: 193d 233d 18a8 0a3e 3a0a 963d c70e d63d
00000060: 14bf 853b f64b 46bc eabf 063d 3e00 9c3c
00000070: f332 363c 2e5e df3c c96f 073d 9329 7f3c
00000080: 528e b13c e64e 7fbd 32be 5f3d fc9b 123c
00000090: 9a71 743d 89d6 e9bc 23ff 1b3d fcd5 fcbd
000000a0: d2fa c83c 1ca1 7f3c d342 12bd 6f22 133d
000000b0: 6369 39bd 1d42 013e ccfb 5dbd 5e9b ab3b
000000c0: b321 893c 027a c53d b289 cdbc f6b1 153d
000000d0: a312 5c3d 7c59 09bc 586d ddbc fbb4 223d
000000e0: f9af 9f3d 1f05 a43c a200 bc3d 0030 9f3c
000000f0: 13ab 903c 1127 883c 7632 3c3c 8471 d23a
00000100: bc40 d6bd f0a8 88bd e377 9a3c 7fbe aebc
00000110: b484 a83c 0c03 f13d 3782 51bc d305 ee3d
00000120: 2327 2d3d cc67 8c3d cc05 f03c 57da af3d
00000130: a6b9 6fbd c6d3 1d3e a3ff ca3c 7c97 333c
00000140: 8008 393e bc28 433d 5e41 44bd 2e83 963c
00000150: 6947 d33c 03a6 8e3c 8107 82bb d458 9a3c
00000160: b525 d5bc 5116 e53c 3590 35bb 6f6e 7f3d
00000170: 2d57 ac3c 7c34 0fbd 52c5 313d ebcc a53a
00000180: 682e 293d 7b42 c33c 4a8e 253d ba2f 06bd
00000190: bf1c a6bc c5d5 8d3c 05d3 a83a 839b e53c
000001a0: bc8e 4f3c 81ba bd3c 1e31 df3c 87a0 e23b
000001b0: 2b29 d83d 4924 1fbd 58a3 9e3c 73b1 293c
000001c0: 23b9 1e3d 1102 b73d e49e 5b3d 795a 9bbc
000001d0: 5112 4c3b be7c 913c d47c 08bd ba17 903c
000001e0: 1fc6 193d 4f41 b93b 8d8b 893c c801 f63d
000001f0: 469c d23d f695 613d ecf9 20bd 83fc 753d
00000200: 1b8f c3bb ec64 e73c 183d c6bd 405b dd3c
00000210: d619 403e c492 d4bc 6b87 2d3d b2fb 3fbd
00000220: fae9 473d 9ca2 b43c fb63 2f3c 65fe 003e
00000230: 6e12 063c 45be b43b 4813 e3bc 0acb c33d
00000240: 20d8 a83c de44 6bbd f79d 073e 3e53 8e3c
00000250: 627c ca3b f9bb be3c 175c 9a3c 5956 313d
00000260: 7a68 6f3d 9d19 65bd 8c7e 743c cdbc f93c
00000270: d40d 953c 8938 0abc 461f d73c dfac 933b
00000280: fdfc 833c df9c fa3d 4f51 723d d10b 0a3b
00000290: 0018 983d fcba e3bc cfa1 a8bd 37a1 bd3d
000002a0: ad4a 2d3d 9241 503c 0dd0 333d 3992 d03c
000002b0: 53ae c73c d7d6 1e3d c966 ac3d 4c7f ba3c
000002c0: 010c 053e 4add 8c3b f406 f23c 3379 f33a
000002d0: f9ce 523d d3b9 943d 3fda 2bbd 341a a43d
000002e0: d12d 1d3d 3a03 713d f303 223c 7c5a a9bd
000002f0: ccc3 48bd 13b6 fa3b d2de 2d3d 6d9c f43d
00000300: 02b3 833d 8d9a 163d 2899 033d 39b2 043d
00000310: e2de 71bb e6aa df3d e0bf 733d 08d7 5dbc
00000320: 1e99 fb3b e15e 823d bd5e b13a da12 a23a
00000330: 4392 d2bc f3d5 113c 5af3 2abd 3a83 ec3c
00000340: b658 603c b303 7d3d 2bb6 b03d e29c 7f3d
00000350: e456 073d ce59 29bc 5566 5b3c 5496 7cba
00000360: 4e87 9f3d b8e1 9a3b fdaa 503c b004 023d
00000370: 6937 b13c cfbf 183d f5ff 223e 7762 873d
00000380: 682d a23c 3bf9 dd3d ab9b 07bc 44aa 013d
00000390: b983 eb3b 41ae d5bc 021a 0b3d 32a4 513b
000003a0: 0e25 d23c 40d2 92bd 4338 113d 3a64 793c
000003b0: c88f 7dbd 0d0e 3e3c 7b6b 58bd 0af6 363d
000003c0: 0264 e13c 0a04 b63c 9afb 61bc 8418 423e
000003d0: 608d 313d dce1 603a 62a7 5c3d c398 653d
000003e0: 556c 4b3c 771f aebc ab1e 90bd bca5 953d
000003f0: 13a6 563c 7de6 b63c bfd1 85bc 09ac 2b3e

fc3.bias f4 [2]
-0.043664645 -0.002551628
00000000: b3d9 32bd 3739 27bb
