critic.pth (torch_old, 159737 bytes, 5 tensors)

fc1.weight f4 [256, 24]
-0.020242255 -0.05703697 0.036934547 -0.008850526 -0.081925064 -0.12479568 -0.010833327 0.058743827
-0.02104593 -0.0149889365 -0.05249934 0.024371834 0.01611366 -0.041539304 0.047340684 0.032613926
0.01743639 -0.08266928 0.045881286 -0.007738255 -0.013679285 -0.012766591 -0.04945474 0.019708836
0.06136927 -0.046625137 -0.013016831 0.043457564 -0.052673068 -0.05392605 0.031660765 0.022213943
0.014058361 -0.08672445 0.015144691 0.0687271 -0.02831191 0.05130014 -0.020899797 0.0666739
0.045083757 -0.12759414 -0.029919127 -0.1380447 0.12131292 0.012416703 0.01249751 -0.1101341
0.022582954 -0.03948871 -0.0062677325 -0.049926285 -0.05404422 -0.07912708 0.015037634 -0.036514733
-0.00045595734 -0.021985188 -0.010859668 -0.0419985 -0.023234764 -0.09916223 0.003487 0.03454876
0.0075544915 -0.12953663 0.038979333 0.073002346 -0.023165511 -0.05889933 -0.02027541 0.07545652
0.023543408 0.08028596 0.0036504618 -0.011995507 -0.018424498 0.058588564 0.014732551 0.008218288
-0.018545486 0.10186899 -0.021852795 0.04330759 0.030922322 -0.054386035 0.042111527 -0.034374464
-0.07962955 0.07817145 -0.0003853824 -0.02902366 0.044104703 -0.12412226 0.01464511 -0.03719839
0.06424602 -0.09111237 -0.011997186 -0.010990941 -0.004339444 -0.013339077 0.048697613 -0.056259874
-0.032482654 -0.036036067 -0.0048711663 -0.05664583 0.0821262 -0.0643005 -0.026686227 0.04030751
0.056339204 -0.05245198 -0.002704532 0.021844152 0.010381353 -0.086535096 0.03865833 -0.020533953
0.05306698 0.027725693 0.025013987 0.006409314 0.13056362 0.07714733 -0.015825666 -0.03495442
0.06774489 -0.024322378 0.041051187 -0.012640329 0.03571791 0.07891662 0.016316853 -0.03622597
0.010638425 0.021024419 0.004719929 0.03847496 -0.116748676 0.10342851 0.020335224 -0.03454886
0.030900441 0.14574179 -0.038807612 -0.010626563 -0.028823689 -0.031254422 0.0018223512 0.042881325
0.017710047 0.14760141 0.040414486 0.08664599 -0.054638848 -0.111825906 -0.04112037 0.039825417
0.034751967 0.16964501 -0.029244706 -0.036908727 -0.05451996 -0.11615228 -0.031864747 0.0044021336
0.022598939 0.024785606 -0.011617632 0.043808647 -0.032232232 -0.02149505 0.022248454 0.06643884
0.026659962 0.020878531 -0.053924732 -0.04451605 -0.044519734 -0.062840275 0.017641872 0.025279047
-0.018814337 -0.018664286 -0.00627417 0.017866207 -0.083229505 -0.0072069904 0.015342362 -0.017683575
0.03039362 0.08932443 -0.027719349 0.009210642 0.047660522 -0.029268723 -0.006602979 -0.015036472
-0.044567935 0.057129335 0.03766879 0.03309018 0.0072411764 0.017460365 -0.04604989 -0.045650072
-0.000553488 -0.02180559 -0.012306911 0.046670627 0.0015416271 0.13231084 -0.010403528 0.022189414
-0.026881233 -0.046447024 -0.026148597 0.03426128 -0.029140402 -0.051569335 0.041818622 0.026290584
0.09301917 -0.04745037 0.0472307 -0.02814632 -0.061079487 -0.087473944 -0.021000197 -0.038639538
0.022398707 0.0072886012 -0.034189675 0.057679575 -0.11997082 -0.06940436 0.04656217 0.021646949
-0.07704653 -0.029505305 0.02996384 -0.0058736843 -0.015061257 0.027796682 0.01683216 0.04328266
-0.038566813 -0.047349848 0.041605357 0.0027097121 0.028448198 -0.07944989 -0.042840358 0.015721515
00000000: 16d3 a5bc 999f 69bd ae48 173d cc01 11bc
00000010: 54c8 a7bd e194 ffbd 447e 31bc 5e9d 703d
00000020: 8468 acbc 2894 75bc 8c09 57bd 71a7 c73c
00000030: cb00 843c 1e25 2abd 4ee8 413d 2e96 053d
00000040: c3d6 8e3c 834e a9bd 04ee 3b3d 3091 fdbb
00000050: 141f 60bc f72a 51bc 0e91 4abd 6d74 a13c
00000060: 585e 7b3d 00fa 3ebd 8c44 55bc 8f00 323d
00000070: b7bf 57bd 90e1 5cbd b8ae 013d 04fa b53c
00000080: 0a55 663c 979c b1bd 7021 783c cbc0 8c3d
00000090: 61ee e7bc 1820 523d 0d36 abbc 538c 883d
000000a0: bfa9 383d 0aa8 02be f518 f5bc 975b 0dbe
000000b0: e872 f83d 6d6f 4b3c 5bc2 4c3c fd8d e1bd
000000c0: e3ff b83c eabe 21bd 8d61 cdbb 817f 4cbd
000000d0: 795d 5dbd 610d a2bd 6960 763c 7990 15bd
000000e0: 8f0d efb9 481a b4bc c0ec 31bc 9e06 2cbd
000000f0: d556 bebc 9115 cbbd 2786 643b 0083 0d3d
00000100: ab8b f73b 40a5 04be cba8 1f3d 4182 953d
00000110: 99c5 bdbc 6d40 71bd 9e18 a6bc f388 9a3d
00000120: 1bde c03c f76c a43d 963c 6f3b ce88 44bc
00000130: f9ee 96bc 90fa 6f3d cc60 713c 00a6 063c
00000140: b4ec 97bc b0a0 d03d a204 b3bc 4d63 313d
00000150: cf50 fd3c e4c3 5ebd 237d 2c3d 3dcc 0cbd
00000160: d114 a3bd 5a18 a03d 260d cab9 07c3 edbc
00000170: 22a7 343d d033 febd 0bf2 6f3c 575d 18bd
00000180: 6b93 833d 1f99 babd d88f 44bc 5913 34bc
00000190: e531 8ebb 258c 5abc 2677 473d c170 66bd
000001a0: 880c 05bd 8e9a 13bd 4e9e 9fbb 7505 68bd
000001b0: c831 a83d fbaf 83bd 139d dabc 7d19 253d
000001c0: f0c3 663d e3d7 56bd 843e 31bb 82f2 b23c
000001d0: 8d16 2a3c 5039 b1bd 3258 1e3d d236 a8bc
000001e0: c35c 593d fe20 e33c 22ea cc3c 3905 d23b
000001f0: 78b2 053e 6bff 9d3d d4a4 81bc 5e2c 0fbd
00000200: d5bd 8a3d b93f c7bc 4a25 283d 6219 4fbc
00000210: f14c 123d 099f a13d ecaa 853c af61 14bd
00000220: ca4c 2e3c 673b ac3c a2a9 9a3b eb97 1d3d
00000230: ee19 efbd 54d2 d33d 0e96 a63c 1b83 0dbd
00000240: ec22 fd3c 563d 153e bbf4 1ebd 091b 2ebc
00000250: a81f ecbc a304 00bd f6db ee3a 54a4 2f3d
00000260: a914 913c d324 173e a989 253d 7473 b13d
00000270: fccc 5fbd fb04 e5bd d56d 28bd fa1f 233d
00000280: 1458 0e3d 6cb7 2d3e 9892 efbc 9b2d 17bd
00000290: 5250 5fbd 3fe1 edbd 9c84 02bd c63f 903b
000002a0: 6921 b93c 2f0b cb3c e157 3ebc b270 333d
000002b0: f205 04bd 6316 b0bc 6442 b63c 1611 883d
000002c0: fe65 da3c 7409 ab3c 2ee0 5cbd 7656 36bd
000002d0: 535a 36bd 67b2 80bd b085 903c 0116 cf3c
000002e0: 8620 9abc d8e5 98bc 8d97 cdbb 275c 923c
000002f0: 3b74 aabd 9e28 ecbb 885e 7b3c 25dd 90bc
00000300: 0afc f83c baef b63d b013 e3bc 3ce8 163c
00000310: ae37 433d f6c4 efbc cd5d d8bb 895b 76bc
00000320: de8c 36bd 7300 6a3d 974a 1a3d 9289 073d
00000330: 6447 ed3b 0a09 8f3c cf9e 3cbd 92fb 3abd
00000340: f317 11ba a3a1 b2bc eda2 49bc b329 3f3d
00000350: 6c10 ca3a 7e7c 073e 8f73 2abc 93c6 b53c
00000360: 0836 dcbc 3c3f 3ebd 9535 d6bc 8e55 0c3d
00000370: dab7 eebc 5e3a 53bd 014a 2b3d 5a5f d73c
00000380: d680 be3d 525b 42bd fa74 413d 1c93 e6bc
00000390: 7c2e 7abd 8a25 b3bd 9b08 acbc 7e44 1ebd
000003a0: 7e7d b73c 38d5 ee3b 790a 0cbd 6b41 6c3d
000003b0: 43b3 f5bd e023 8ebd f9b7 3e3d f154 b13c
000003c0: 92ca 9dbd 1cb5 f1bc ba76 f53c 0978 c0bb
000003d0: 7ec3 76bc deb5 e33c 99e3 893c 2949 313d
000003e0: 3cf8 1dbd eaf1 41bd 616a 2a3d 6d95 313b
000003f0: 320c e93c a0b6 a2bd 5f79 2fbd 68ca 803c

fc1.bias f4 [256]
-0.09509713 0.14254622 0.07711051 0.12427529 -0.053130727 -0.195396 -0.23235874 -0.03130419
-0.24839048 -0.15088724 0.12136918 -0.059417386 0.09716954 -0.1891808 0.035833552 0.18941511
0.055132963 0.012531719 -0.15315239 -0.13706903 0.097820394 -0.16460994 -0.059976853 -0.18802506
-0.015051216 -0.19691522 0.05761256 -0.021034043 -0.15794115 -0.06569908 -0.08872162 -0.07537349
-0.05933006 0.024315352 -0.109284185 -0.0013131212 -0.19582488 0.21814977 -0.14743435 0.11029768
-0.1757304 -0.1609493 -0.029682614 -0.13747008 -0.08965464 -0.120126 -0.07821759 -0.18619208
0.19812864 0.13416706 -0.035560865 0.16984707 -0.0018568687 -0.18440156 0.057489496 -0.0921426
0.16399711 -0.08716787 -0.16186939 0.15466897 -0.0019817385 0.043035384 -0.029231146 -0.19179581
0.06217391 -0.043311074 -0.12511763 0.12913017 -0.18942457 -0.124251254 -0.057389718 -0.21807092
-0.19024974 -0.0485388 -0.050492626 0.23297903 0.082340576 0.16260472 0.05789462 0.019371841
-0.063643456 -0.09955197 -0.18711475 -0.17916974 0.10260795 -0.102684624 -0.09974435 0.024393484
-0.10443756 0.028901871 -0.047050055 0.064518526 -0.13043371 0.15964538 -0.12118337 -0.1796649
0.15687753 -0.14727376 0.17409198 0.088665396 0.13620467 0.029060325 -0.0096809855 0.077413686
-0.0898569 0.1319089 0.1467234 -0.05154619 0.025586061 -0.086492874 -0.11483145 -0.16179007
-0.123927504 -0.21784122 -0.029699631 0.08693261 0.0928096 -0.18122798 -0.17514995 0.12988342
-0.06398097 0.008794358 0.12318206 0.17562173 0.08950421 -0.0022401225 -0.014357848 -0.022811403
0.07503584 -0.19040719 -0.18354395 0.12715444 -0.23067814 0.14907385 0.1936109 0.12484088
0.06477785 0.030484365 0.04787199 0.115879714 0.010504685 -0.17180768 0.12832677 -0.020946585
0.1760159 -0.20381653 -0.026661469 -0.14927734 -0.027732508 0.18966751 0.01947899 0.18126446
0.09187062 -0.13192314 0.17747162 0.06627379 0.17825557 0.044937328 -0.030607292 0.17079218
-0.1472427 -0.0029963905 -0.060038988 -0.01959082 -0.028087627 0.14557917 0.012488185 0.10766722
0.0665353 0.1535995 0.0777112 -0.20525444 -0.18032837 -0.22018728 -0.17263237 -0.18306936
0.011602008 0.15515576 -0.09325244 0.10795925 -0.12886512 0.13179374 0.10346866 0.087423325
0.19068663 -0.16353022 -0.2184501 -0.084122665 0.031931303 0.17751236 0.124754034 0.12367867
-0.03061311 -0.07399674 0.18023178 -0.17401971 -0.1540213 0.056552093 0.18939213 0.03632589
-0.036672603 -0.0017452384 -0.02290863 -0.08099413 0.12296473 0.25873888 -0.03419086 0.13699959
-0.025315335 -0.1487183 0.044703487 -0.049257506 0.1409326 -0.014331181 -0.06730539 -0.18337633
0.17226262 0.11520471 0.040601354 -0.0018167073 -0.050270144 0.039389342 0.13423377 -0.034997538
0.03338402 -0.22804148 0.049717475 -0.069629356 -0.009523606 -0.15390395 0.18720344 0.14349912
-0.06110904 -0.077312484 0.117636435 0.09122773 -0.108245954 0.10982293 0.038099915 0.1207473
-0.12743376 -0.17390703 0.07581671 0.012610548 -0.09638569 0.15273899 -0.045706116 -0.16201285
-0.037990518 -0.14078465 -0.07907324 -0.21283312 0.12878463 0.24438642 -0.19986784 0.14368464
00000000: 49c2 c2bd a3f7 113e 1dec 9d3d 0b84 fe3d
00000010: 9b9f 59bd e415 48be 73ef 6dbe d338 00bd
00000020: 135a 7ebe 2f82 1abe 6890 f83d a55f 73bd
00000030: d300 c73d 9db8 41be 34c6 123d 09f6 413e
00000040: 1ad3 613d d751 4d3c fbd3 1cbe d35b 0cbe
00000050: 0f56 c83d 828f 28be 4aaa 75bd a489 40be
00000060: 6099 76bc 25a4 49be 26fb 6b3d 964f acbc
00000070: 53bb 21be 3d8d 86bd aeb3 b5bd 6b5d 9abd
00000080: 1404 73bd fd30 c73c 63d0 dfbd 091d acba
00000090: 5186 48be a762 5f3e 08f9 16be c0e3 e13d
000000a0: acf2 33be e5cf 24be f428 f3bc f5c4 0cbe
000000b0: da9c b7bd 9f04 f6bd 8b30 a0bd 23a9 3ebe
000000c0: 3ce2 4a3e 1763 093e 45a8 11bd 64ec 2d3e
000000d0: 2d62 f3ba c3d3 3cbe 1b7a 6b3d 42b5 bcbd
000000e0: dcee 273e 1185 b2bd 17c1 25be 8b61 1e3e
000000f0: 0ee0 01bb df45 303d 2876 efbc 1f66 44be
00000100: 12aa 7e3d f466 31bd d61e 00be b33a 043e
00000110: 84f8 41be 7177 febd 7b11 6bbd fc4d 5fbe
00000120: d4d0 42be 9fd0 46bd 5bd1 4ebd 0e92 6e3e
00000130: 2da2 a83d da81 263e e922 6d3d b2b1 9e3c
00000140: 8057 82bd e7e1 cbbd 029b 3fbe 4678 37be
00000150: 1e24 d23d 514c d2bd c446 ccbd d8d4 c73c
00000160: 5ce3 d5bd 9ec3 ec3c 8fb7 40bd 4a22 843d
00000170: 6a90 05be 147a 233e fd2e f8bd 13fa 37be
00000180: 81a4 203e efce 16be 2b45 323e 3496 b53d
00000190: 3d79 0b3e eb0f ee3c ff9c 1ebc 118b 9e3d
000001a0: e506 b8bd 2013 073e a93e 163e 1922 53bd
000001b0: dc99 d13c 2d23 b1bd c02c ebbd 4cac 25be
000001c0: b4cd fdbd c511 5fbe a44c f3bc b909 b23d
000001d0: f612 be3d d493 39be 825a 33be 2900 053e
000001e0: 7408 83bd 3616 103c e046 fc3d 2fd6 333e
000001f0: fc4d b73d 05cf 12bb 2e3d 6bbc fbde babc
00000200: 64ac 993d 1afa 42be f2f2 3bbe c634 023e
00000210: e436 6cbe d1a6 183e f041 463e 93ac ff3d
00000220: 40aa 843d 59ba f93c 6b15 443d 5852 ed3d
00000230: d81b 2c3c 5aee 2fbe 1868 033e 2c98 abbc
00000240: 833d 343e 48b5 50be 2769 dabc 29dc 18be
00000250: 492f e3bc 3338 423e 6792 9f3c 649d 393e
00000260: aa26 bc3d dc16 07be 1fbb 353e 8eba 873d
00000270: a188 363e 3410 383d 25bc fabc 25e4 2e3e
00000280: cac6 16be 175f 44bb 71eb 75bd ed7c a0bc
00000290: 0618 e6bc b512 153e 3f9b 4c3c a280 dc3d
000002a0: a943 883d 3049 1d3e 0d27 9f3d 382e 52be
000002b0: 00a8 38be c678 61be 8ac6 30be 8976 3bbe
000002c0: 5916 3e3c 27e1 1e3e 23fb bebd bd19 dd3d
000002d0: 38f5 03be f0f4 063e 60e7 d33d 000b b33d
000002e0: 5b43 433e 7774 27be 62b1 5fbe 8148 acbd
000002f0: 66ca 023d cdc5 353e 0b7f ff3d 3e4b fd3d
00000300: 58c8 fabc 9a8b 97bd ae8e 383e 3932 32be
00000310: c2b7 1dbe 2ba3 673d 03f0 413e 75ca 143d
00000320: 0336 16bd 7cc0 e4ba e1aa bbbc 40e0 a5bd
00000330: efd4 fb3d 6c79 843e b70b 0cbd 9f49 0c3e
00000340: 1b62 cfbc 9c49 18be 011b 373d 3dc2 49bd
00000350: a350 103e 54cd 6abc 69d7 89bd 01c7 3bbe
00000360: 9d65 303e 72f0 eb3d 9b4d 263d 951e eeba
00000370: 11e8 4dbd b856 213d 9474 093e 9459 0fbd
00000380: afbd 083d b583 69be 8da4 4b3d d699 8ebd
00000390: e608 1cbc ff98 1dbe 42b2 3f3e 6ff1 123e
000003a0: 794d 7abd 0256 9ebd 5feb f03d 9bd5 ba3d
000003b0: 0eb0 ddbd d8ea e03d a80e 1c3d 5c4a f73d
000003c0: ff7d 02be af14 32be cb45 9b3d 799c 4e3c
000003d0: dc65 c5bd 9c67 1c3e 5636 3bbd b2e6 25be
000003e0: f29b 1bbd da29 10be 27f1 a1bd edf0 59be
000003f0: 1ee0 033e 6f40 7a3e 28aa 4cbe 1122 133e

fc2.weight f4 [128, 258]
-0.036420975 0.02121574 0.11288251 -0.020836774 0.056179844 -0.01859549 0.08892838 0.043761518
-0.08425901 0.022439877 0.032408554 -0.02720271 -0.018221246 -0.066450864 0.032399803 0.07073166
-0.03246028 -0.018963214 0.046674374 -0.022355864 -0.001453964 -0.05181751 0.025710331 0.05595225
-0.07624479 -0.04674283 -0.027046625 0.05742128 0.021426966 -0.0059481105 0.03817806 0.0004481777
0.06198187 0.05906108 -0.07486095 0.081034504 -0.02817304 0.06641154 -0.06720018 -0.06376913
0.011716769 -0.009108678 0.01997535 -0.048540335 -0.04619772 -0.086523436 -0.011406616 -0.052303102
-0.05258932 0.018546183 -0.020822782 0.046607185 0.04552475 0.051584695 -0.07189145 0.075453445
-0.008381636 0.053742856 0.027782742 0.05251657 -0.051365916 0.02890809 0.09848006 -0.07244638
-0.017386913 -0.083093844 -0.049372226 -0.060806993 0.0030100178 -0.0832697 -0.015779065 0.027598212
-0.037156537 0.027975574 -0.045644782 -0.018381903 0.051309567 0.042555723 0.042846397 -0.09163955
0.09767817 -0.021971164 0.035259984 0.0022334198 0.041697998 0.043805983 0.029009866 0.06559318
-0.060324524 -0.019807555 0.047201473 -0.1103803 -0.09119095 0.001681864 0.043521795 0.04044864
0.054285735 -0.05420712 -0.06261635 -0.048351545 0.107291974 -0.052674815 -0.08838632 0.025196133
-0.012230201 -0.061397303 -0.04150278 -0.062993415 0.026541933 0.035401512 0.013135596 0.061883282
-0.03620804 0.008317184 -0.07782524 0.06477304 -0.06177055 -0.011024025 0.08523283 0.1013847
-0.0890354 0.016207702 -0.032668848 0.032258447 -0.09453981 -0.04097912 -0.023021396 0.016467405
-0.09850191 -0.045387954 -0.0631565 0.0034544973 -0.009887727 0.026424708 0.048795443 -0.0076225046
0.06991311 -0.009128414 0.05339492 0.0714758 0.0007330309 0.018421307 0.037048087 0.011596067
-0.009310035 -0.06549809 -0.02711069 -8.614457e-05 0.06951161 0.029734561 -0.07092629 0.014029741
0.047405064 0.028867764 -0.040897653 -0.04266288 0.054520015 0.07098228 0.014332693 0.10589081
0.029431984 0.060583558 0.027926648 -0.05681922 -0.022063788 0.0120043745 -0.043938763 -0.03279963
0.043447956 -0.01446196 -0.057468776 0.0049928497 0.074807316 0.0045430455 -0.059725188 0.021219144
0.062607974 0.01923947 0.026080493 -0.021691317 -0.009508541 0.018971182 -0.007342629 -0.059723288
-0.10989099 0.021769347 0.04369584 0.110007875 -0.114771836 0.010738676 0.026680501 -0.02591163
-0.004661518 -0.05504891 0.004361902 0.010297654 0.04534949 0.061844192 0.08620743 -0.094523154
0.10437092 -0.03930081 0.0465071 -0.03358341 0.018118404 -0.07631787 0.042891126 -0.029484738
-0.0385392 -0.03965968 0.01082419 -0.05312001 0.004912653 0.012878375 0.010087452 0.07438796
-0.0062198755 -0.088543564 0.07752083 0.08358276 0.005336635 -0.040169876 0.066352695 0.0017772206
-0.037442956 -0.07008598 -0.03943946 0.030405454 -0.10969861 -0.058283452 -0.054869827 -0.0057885596
0.04371843 -0.016672883 0.06226838 0.090386294 -0.03372357 0.01654342 0.02150614 0.08682863
-0.021965994 -0.026243974 0.034358602 -0.019866768 0.09368823 -0.09352387 -0.07114987 -0.0024941124
0.004543724 -0.03628431 0.020490434 -0.080521464 -0.06526337 0.10386753 0.07669206 0.07456703
00000000: 292e 15bd a2cc ad3c f22e e73d e2b1 aabc
00000010: d61c 663d 9255 98bc 1520 b63d 473f 333d
00000020: fd8f acbd d5d3 b73c d5be 043d 38d8 debc
00000030: b944 95bc 6417 88bd a8b5 043d c3db 903d
00000040: 12f5 04bd be58 9bbc a12d 3f3d a523 b7bc
00000050: f092 beba 993e 54bd 799e d23c 302e 653d
00000060: 3a26 9cbd 6975 3fbd e290 ddbc 9332 6b3d
00000070: 9b87 af3c 5ee8 c2bb 9960 1c3d 65f9 ea39
00000080: b4e0 7d3d 08ea 713d b350 99bd 6bf5 a53d
00000090: 26cb e6bc c602 883d 3fa0 89bd 6499 82bd
000000a0: b1f7 3f3c 913c 15bc 58a3 a33c 3bd2 46bd
000000b0: d239 3dbd 3333 b1bd d1e2 3abc c73b 56bd
000000c0: e667 57bd 2aee 973c 8a94 aabc 2de7 3e3d
000000d0: 2978 3a3d 794a 533d d33b 93bd 5687 9a3d
000000e0: 2153 09bc 7821 5c3d a298 e33c 9d1b 573d
000000f0: 1165 52bd a9d0 ec3c eaaf c93d c55e 94bd
00000100: 006f 8ebc 1b2d aabd 883a 4abd c110 79bd
00000110: b843 453b 4e89 aabd 1943 81bc a515 e23c
00000120: 7431 18bd 082d e53c 06f6 3abd a595 96bc
00000130: fb29 523d e94e 2e3d b47f 2f3d 84ad bbbd
00000140: 7e0b c83d dffc b3bc c66c 103d 915e 123b
00000150: 85cb 2a3d e76d 333d 19a6 ed3c b855 863d
00000160: d916 77bd 7443 a2bc 5556 413d 110f e2bd
00000170: 52c2 babd fe71 dc3a e943 323d 79ad 253d
00000180: b85a 5e3d 4908 5ebd 003d 80bd 450c 46bd
00000190: e5bb db3d 8cc1 57bd e303 b5bd 1f68 ce3c
000001a0: 2e61 48bc bd7b 7bbd d2fe 29bd b102 81bd
000001b0: 786e d93c 2d01 113d af36 573c 5379 7d3d
000001c0: e24e 14bd cc44 083c d762 9fbd baa7 843d
000001d0: 1e03 7dbd 1d9e 34bc 8d8e ae3d c8a2 cf3d
000001e0: 3158 b6bd 04c6 843c c5cf 05bd 6f21 043d
000001f0: 179e c1bd b9d9 27bd 5e97 bcbc a7e6 863c
00000200: 5fbb c9bd b8e8 39bd 3258 81bd d964 623b
00000210: 2200 22bc a178 d83c bbdd 473d 34c6 f9bb
00000220: 9b2e 8f3d 588f 15bc a2b4 5a3d e761 923d
00000230: df28 403a 48e8 963c bcbf 173d 6efd 3d3c
00000240: 1e89 18bc dd23 86bd 3d17 debc 84a8 b4b8
00000250: 1a5c 8e3d e595 f33c cd41 91bd 00dd 653c
00000260: d02b 423d 177c ec3c 4c84 27bd 46bf 2ebd
00000270: 6150 5f3d 285f 913d acd3 6a3c 48dd d83d
00000280: 581b f13c 7726 783d 6dc6 e43c 45bb 68bd
00000290: 1ebf b4bc ffad 443c 22f9 33bd e858 06bd
000002a0: 7cf6 313d dbf1 6cbc 6164 6bbd 0f9b a33b
000002b0: 9434 993d d4dd 943b 66a2 74bd c5d3 ad3c
000002c0: 9c38 803d 189c 9d3c c2a6 d53c fdb1 b1bc
000002d0: b6c9 1bbc 7469 9b3c 709a f0bb 68a0 74bd
000002e0: 870e e1bd a155 b23c 69fa 323d cf4b e13d
000002f0: 7f0d ebbd 46f1 2f3c 1191 da3c a044 d4bc
00000300: a6bf 98bb f77a 61bd 49ee 8e3b 7eb7 283c
00000310: 63c0 393d 5650 7d3d 858d b03d 5b95 c1bd
00000320: 6cc0 d53d e3f9 20bd 3b7e 3e3d c28e 09bd
00000330: 0c6d 943c 8b4c 9cbd 9bae 2f3d fa89 f1bc
00000340: 48db 1dbd 3072 22bd f257 313c 5e94 59bd
00000350: 52fa a03b d2ff 523c d745 253c b758 983d
00000360: 19d0 cbbb 5456 b5bd 3ec3 9e3d 702d ab3d
00000370: f0de ae3b 2b89 24bd ece3 873d a1f1 e83a
00000380: c95d 19bd 3d89 8fbd 458b 21bd dc14 f93c
00000390: aaa9 e0bd a1ba 6ebd 2fbf 60bd f5ad bdbb
000003a0: 1912 333d 9295 88bc 210d 7f3d 731c b93d
000003b0: ba21 0abd 1186 873c a52d b03c 35d3 b13d
000003c0: 07f2 b3bc 9afd d6bc 9bbb 0c3d a2bf a2bc
000003d0: 9ddf bf3d 7189 bfbd 06b7 91bd 4374 23bb
000003e0: 85e3 943b db9e 14bd 8edb a73c 70e8 a4bd
000003f0: cda8 85bd 80b8 d43d ba10 9d3d 99b6 983d

fc2.bias f4 [128]
0.08660284 0.02209829 -0.048419397 -0.025477873 -0.03344965 -0.0075601162 0.05094415 0.05381761
0.050282795 -0.09304056 0.028953884 -0.10523496 0.08970146 -0.07226941 -0.052854083 -0.054714482
-0.03797885 0.025431318 0.0685572 0.011703391 -0.04530655 0.04812544 0.005255241 -0.03330749
-0.014664339 -0.06101143 0.036181454 0.046669777 -0.0033898677 0.029476412 0.017612116 0.07521708
-0.010479765 0.022972897 -0.044832774 0.052967627 0.0369612 -0.00995819 0.06901406 -0.0278835
-0.021931833 -0.14451343 -0.002981551 0.020925283 0.01687788 -0.03898703 -0.052542392 -0.07231304
0.015238476 0.003364564 -0.063413806 -0.005226534 -0.06504624 0.0026103894 0.028231665 -0.06545905
0.0072000935 -0.060208946 0.05167727 -0.06932661 -0.030211015 -0.023811357 -0.043153282 0.043291837
-0.039280098 -0.03641081 0.025300419 0.020654267 -0.049518067 -0.07063065 0.023755841 0.034214817
-0.005587479 -0.014684124 -0.0530038 -0.0054868003 -0.04633869 -0.011975828 0.05190131 0.04436213
-0.075634815 -0.045438834 -0.024320265 -0.028141884 0.00037649486 0.05142769 -0.08603914 -0.028668102
0.061515246 0.04443219 -0.033008102 -0.0065735206 -0.048849925 0.036160156 0.017764056 -0.01834558
-0.02430016 -0.048071533 -0.016280401 0.019641094 0.044273622 0.031566355 0.030891754 0.03275811
0.044026606 -0.07184305 -0.011224603 0.031047272 0.01767828 0.0072153206 0.038846716 0.03370832
0.03745925 0.064790934 0.0061457823 0.033004884 0.03506607 -0.08230578 0.043730427 -0.0021400177
0.069534026 0.019875163 0.011648344 -0.04579106 0.016516404 0.032331914 -0.019656826 0.04260533
00000000: d45c b13d 7907 b53c 6b53 46bd f9b6 d0bc
00000010: 8002 09bd daba f7bb d0aa 503d db6f 5c3d
00000020: 55f5 4d3d 0d8c bebd b230 ed3c 6d85 d7bd
00000030: 66b5 b73d fc01 94bd 867d 58bd 4b1c 60bd
00000040: b68f 1bbd 5755 d03c b867 8c3d 94bf 3f3c
00000050: 5c93 39bd 2e1f 453d 2834 ac3b 6f6d 08bd
00000060: b242 70bc 1fe7 79bd 0133 143d cf28 3f3d
00000070: 8b28 5ebb 8478 f13c 4947 903c 6a0b 9a3d
00000080: 52b3 2bbc a831 bc3c 92a2 37bd 95f4 583d
00000090: a164 173d ad27 23bc 3e57 8d3d f06b e4bc
000000a0: 63aa b3bc 54fb 13be 2066 43bb 806b ab3c
000000b0: 7b43 8a3c ddb0 1fbd b136 57bd dc18 94bd
000000c0: cdaa 793c 0480 5c3b 19df 81bd 5843 abbb
000000d0: f736 85bd 1113 2b3b 1846 e73c 650f 86bd
000000e0: c3ee eb3b a89d 76bd 8cab 533d 1cfb 8dbd
000000f0: 177d f7bc 0910 c3bc 7fc1 30bd c852 313d
00000100: 2be4 20bd 8023 15bd d342 cf3c 2333 a93c
00000110: 75d3 4abd cda6 90bd 9c9b c23c d624 0c3d
00000120: 2c17 b7bb ae95 70bc 831a 59bd 9eca b3bb
00000130: a3cd 3dbd 4336 44bc 7896 543d 11b5 353d
00000140: 6de6 9abd 121e 3abd 4b3b c7bc cf89 e6bc
00000150: 4964 c539 d7a5 523d 4a35 b0bd 5ed9 eabc
00000160: 69f7 7b3d 87fe 353d 8133 07bd b066 d7bb
00000170: dc16 48bd ac1c 143d ed85 913c 7849 96bc
00000180: 2111 c7bc a8e6 44bd 7a5e 85bc 5ce6 a03c
00000190: 4258 353d b94b 013d b410 fd3c 5e2d 063d
000001a0: 3e55 343d 7322 93bd 66e7 37bc d956 fe3c
000001b0: 0ad2 903c 7f6e ec3b bc1d 1f3d bc11 0a3d
000001c0: df6e 193d 1cb1 843d 8f62 c93b 2130 073d
000001d0: 70a1 0f3d ef8f a8bd ad1e 333d 8a3f 0cbb
000001e0: db67 8e3d 3dd1 a23c b2d8 3e3c 688f 3bbd
000001f0: 694d 873c 786e 043d 5a07 a1bc ed82 2e3d

fc3.weight f4 [1, 128]
0.007233482 0.012156256 -0.002651378 0.07374073 -0.032372292 0.011415011 0.009767476 0.0124911
0.014775676 0.102640845 -0.110132076 -0.016462505 0.012939423 -0.019953566 -0.030378163 -0.015094739
0.066853285 -0.012555008 0.031725142 0.020258568 0.018393595 -0.092677586 -0.01122277 -0.02853889
0.031339303 -0.03252419 0.019651277 -0.027328413 -0.018696977 0.010340939 0.013467855 0.024804197
-0.007035155 0.021448217 -0.04392247 -0.031498358 -0.043537714 -0.005910414 0.018264703 -0.013983644
0.009216375 -0.09160652 -0.017429305 -0.044802397 0.055325463 0.08183678 0.013941518 -0.016461961
0.026249731 -0.041589268 -0.015345807 -0.012764883 -0.05872413 0.010402006 -0.08679103 -0.009947851
-0.038982045 -0.0073270868 -0.01650357 -0.09989387 -0.08404547 -0.029713484 -0.009184141 -0.041429617
-0.021845363 0.010872733 -0.0096228225 -0.022856833 -0.036773786 -0.09009498 0.03586275 -0.03152437
0.006912466 -0.09704472 -0.014115682 0.013861291 -0.01032573 -0.018672379 0.016636927 0.0065865703
-0.09275124 -0.007086942 -0.03546468 0.013060968 0.10031048 0.014185372 -0.108355835 -0.014568719
0.010367038 0.036877867 -0.02797938 -0.10060197 0.035463847 0.042055544 -0.018741531 0.00864782
0.01043753 -0.032316897 -0.011888168 -0.027117735 0.018726997 0.029717833 0.018364323 -0.008344027
0.019376514 -0.0102665825 0.025235828 0.069611855 -0.06475712 0.0672067 -0.0385942 0.0125941625
-0.06336764 0.010766201 0.09370981 0.021100542 -0.0891913 -0.010581847 -0.031140354 -0.022140672
0.0063074585 -0.017523885 0.011076653 -0.07848045 0.012138531 -0.049393874 0.1050904 0.01641084
00000000: d806 ed3b 082b 473c bec2 2dbb 6105 973d
00000010: cf98 04bd 0706 3b3c c307 203c 78a7 4c3c
00000020: ad15 723c 5d35 d23d ed8c e1bd 60dc 86bc
00000030: e0ff 533c a975 a3bc a0db f8bc ed4f 77bc
00000040: 60ea 883d 85b3 4dbc 39f2 013d 4cf5 a53c
00000050: 2aae 963c bfcd bdbd b6df 37bc 64ca e9bc
00000060: a45d 003d 1638 05bd b7fb a03c d6df dfbc
00000070: 672a 99bc 0b6d 293c 47a8 5c3c 2c32 cb3c
00000080: 2887 e6bb 2cb4 af3c 0ce8 33bd 6c04 01bd
00000090: 9a54 32bd 25ac c1bb dc9f 953c a71b 65bc
000000a0: 4700 173c 339c bbbd e7c7 8ebc b882 37bd
000000b0: f49c 623d 0b9a a73d f76a 643c 3cdb 86bc
000000c0: ad09 d73c 8259 2abd fb6c 7bbc cd23 51bc
000000d0: b788 70bd 2d6d 2a3c 7fbf b1bd 50fc 22bc
000000e0: a3ab 1fbd 0f18 f0bb 7f32 87bc 2895 ccbd
000000f0: 0820 acbd b169 f3bc 1479 16bc 1ab2 29bd
00000100: 0cf5 b2bc 8c23 323c 0ba9 1dbc 413e bbbc
00000110: 1ca0 16bd b883 b8bd d2e4 123d b31f 01bd
00000120: f881 e23b 62bf c6bd 7645 67bc 781a 633c
00000130: 402d 29bc d1f6 98bc 2a4a 883c 28d4 d73b
00000140: 5df4 bdbd 9439 e8bb 6a43 11bd acfd 553c
00000150: 956f cd3d c369 683c aae9 ddbd a3b1 6ebc
00000160: 82da 293c 3f0d 173d 0335 e5bc 6808 cebd
00000170: 8a42 113d 6f42 2c3d d787 99bc 96af 0d3c
00000180: 2d02 2b3c b95e 04bd 97c6 42bc 0326 debc
00000190: 5c69 993c d072 f33c c770 963c 63b5 08bc
000001a0: 7fbb 9e3c 2b35 28bc 5ebb ce3c a990 8e3d
000001b0: 629f 84bd aba3 893d f414 1ebd bf57 4e3c
000001c0: e5c6 81bd b864 303c eeea bf3d 0bdb ac3c
000001d0: eea9 b6bd 7c5f 2dbc 0e1a ffbc 5b60 b5bc
000001e0: ccae ce3b 408e 8fbc da7a 353c 5cba a0bd
000001f0: b0e0 463c 3b51 4abd a339 d73d 0770 863c
