results/agents=2,states=24,a_s=2,seed=0,taus=(0.01, 0.001, 0.999),noise=None,learns=(1, 1),learns_r=(0.0001, 0.0001),net=(256, 512),doClip=True,noise=False,t=400,maxScr=1000.pth (torch_old, 559108 bytes, 5 tensors)

fcs1.weight f4 [256, 24]
000000 0c 1e 71 3d 55 fb a2 3c f7 01 12 3d 8e 96 2f bb
       0.058866546 0.019895235 0.035646405 -0.0026792618
000010 8a 0a 12 3d a3 79 7c 3c a9 4c 25 3d 05 74 86 3c
       0.035654582 0.01540986 0.040356312 0.016412744
000020 c0 cd 3d 3d 70 48 b6 3c 2d 12 2e bd d2 41 db 3b
       0.046338797 0.022251338 -0.042497803 0.006691196
000030 c4 1e f0 bc 9a 26 5b 3b 83 c5 47 3d a7 6c ac 3c
       -0.029311545 0.0033439756 0.048772346 0.021047903
000040 32 bc a0 3d ba b7 92 3d 19 1d 06 3d f8 57 99 bc
       0.078483954 0.07163949 0.032742593 -0.018718705
000050 aa 44 82 3b 55 5e 2b bd 66 04 ec 3b 30 10 69 3d
       0.0039754706 -0.04183801 0.007202673 0.056900203
000060 fe 95 3f 3d 9e 58 ec 3b 68 aa 75 3c c1 53 4d bd
       0.046773903 0.0072127124 0.014994241 -0.050128702
000070 e6 c6 88 3d 8c 1d 30 3c 9a d5 05 3d 69 87 53 3d
       0.06678562 0.010749232 0.03267441 0.05164281
000080 a6 a0 a9 bc c3 80 3a 3b c6 97 50 3a e0 7a 3d bd
       -0.020706486 0.0028458096 0.00079571863 -0.04625976
000090 fc fa a3 bc 45 92 2a bd 8d ff 51 bd 6d 1b 80 bd
       -0.02001714 -0.0416434 -0.051269103 -0.06255231
0000a0 8a 2f 09 bc 46 82 85 bd 43 99 66 3d a4 56 17 3b
       -0.008373151 -0.06518988 0.056298506 0.0023092413
0000b0 60 f2 ef bc 1f 50 cf 3c 91 6e 71 3d e7 94 95 3d
       -0.029290378 0.02530676 0.058943335 0.073037915
0000c0 59 29 3d 3d f3 62 06 bd 3b 2f ad 3b 51 c7 87 3c
       0.04618201 -0.03280921 0.0052851713 0.016574534
0000d0 f6 4d ac bd e7 6d 05 bc e3 72 2a bc 2d fd 16 bd
       -0.08413307 -0.008143879 -0.010403368 -0.03686254
0000e0 e8 02 9b bc d8 13 8c bd 2c 9e 37 3d cd fd 64 bd
       -0.018922284 -0.068397224 0.04482858 -0.055906106
0000f0 4a 48 c0 bd 80 84 f7 bc 98 82 54 bd 9b 77 65 bd
       -0.09388788 -0.030214548 -0.051882356 -0.056022268
000100 c1 df 5f 3b 25 ce cc bc c3 b4 73 bd 38 8f 56 3d
       0.0034160467 -0.025000641 -0.05949856 0.052382678
000110 fa 8f a2 3c e9 31 1d bd e8 46 e8 3c c4 40 35 3d
       0.019844044 -0.038377676 0.028354123 0.04425122
000120 69 20 da 3c cc e0 28 3d 2e c4 f5 3b 64 12 27 3d
       0.026626782 0.041230008 0.007500193 0.040789023
000130 de d9 fc 3c c8 47 78 b8 bb 3c cf 3c 8e 82 a1 3c
       0.030865606 -5.919466e-05 0.025297513 0.019715574
000140 f0 02 f1 3c 4d 54 87 3d 56 25 90 3c 44 fc 09 3d
       0.029420346 0.06607876 0.017595928 0.033687845
000150 c5 ec 90 3d 6f dd 24 bd 60 93 6b bd fe 98 7a 3b
       0.0707641 -0.040250238 -0.057513595 0.0038238163
000160 a5 4a a1 3c 1b 59 0f bd 35 b0 47 3d 91 8e 62 3d
       0.019688914 -0.034997087 0.04875203 0.055311743
000170 a6 51 32 3d ad 58 e8 bd 69 a6 3e 3c bf 0a 9c bc
       0.043534897 -0.113450386 0.011636355 -0.019048093
000180 50 c7 1a 3d c6 3e 98 bd 62 e0 f3 bc 1e f6 d3 3b
       0.037787735 -0.07433848 -0.02977008 0.0064685484
000190 dd 8a ad 3d 81 fe 0c 3d 9d 90 16 bd 72 69 55 bc
       0.08473752 0.0344224 -0.036759008 -0.013025628
0001a0 6b 8e 0a 3d 88 0b f9 bc 87 54 15 bd 3e 80 ed bb
       0.033827227 -0.030401006 -0.036457565 -0.0072479537
0001b0 57 62 31 bd d3 95 64 3d 81 7f 37 bd b9 da 0d 3d
       -0.043306675 0.055806946 -0.04479933 0.03463242
0001c0 fb f0 3c bd e3 c7 5c bd 23 f2 e4 bc 25 92 8f bc
       -0.046128254 -0.053901564 -0.027947491 -0.017525742
0001d0 b6 f9 00 bd ae ca 55 3d de 34 50 3c 64 c7 0c bd
       -0.031488143 0.052195244 0.012707917 -0.03436984
0001e0 43 01 55 3d 42 e3 92 bd 3f 38 0a 3d 0c ed 8f 3c
       0.052003156 -0.07172252 0.033745047 0.017569087
0001f0 53 94 79 bd 33 29 3b 3d c4 85 fb bc 86 4c e4 3c
       -0.06093247 0.045693588 -0.030703433 0.02786852
000200 16 75 0a 3d 82 e6 66 bc 6e 14 70 bd 4c 69 21 bc
       0.033803068 -0.014093043 -0.058613233 -0.009851765
000210 99 1f 6e bc 3e 33 f6 bc de 52 4b bd 3f 09 31 bd
       -0.014533901 -0.030053731 -0.049639575 -0.04322171
000220 ee 49 42 3c 3a 2e 62 3c 7a 53 fa 3c 42 8a 37 3d
       0.0118584465 0.013804967 0.030557383 0.044809587
000230 10 47 ce 3c 49 96 ea bb b6 99 9d bd be b3 bf bb
       0.02518037 -0.0071590287 -0.07695334 -0.0058502844
000240 b9 a9 02 3c 17 4c 66 3d 79 58 63 bd 8c e3 c0 3d
       0.007975035 0.05622491 -0.055504296 0.09418401
000250 d9 45 d4 bc 1a 59 25 3d 6a 4f 00 3d 16 27 1d 3d
       -0.025912212 0.040368177 0.031325735 0.038367353
000260 e1 45 33 3b 91 c7 6e 3d 9c 4d a5 3c 3f f7 89 3d
       0.0027354883 0.05829579 0.020178609 0.067366116
000270 e1 ad e3 3c ca 7b 39 bd 88 af db bc 77 3e 12 3d
       0.027792873 -0.04528407 -0.026817098 0.035704102
000280 8e e2 06 3d b8 45 af 3d 96 c6 67 bc f1 61 87 3c
       0.032930903 0.0855822 -0.014146468 0.016526194
000290 18 cc cd 3b 12 5a 0a bc fe 2d 84 3c 0e 78 90 3d
       0.0062804334 -0.008444326 0.016135212 0.070541486
0002a0 ee d3 f6 bc 4a 64 9c bd 0f bb cd 3b ef 91 91 bb
       -0.030130353 -0.07636316 0.0062784026 -0.0044424455
0002b0 d3 a7 4f bc f1 7f 20 bd eb e8 44 bd 36 e1 b1 bd
       -0.01267429 -0.039184514 -0.04807369 -0.08685534
0002c0 34 0b 40 3d 0e a3 9a bd 24 21 b5 3c e1 34 56 3d
       0.046885684 -0.075506315 0.02211053 0.052296523
0002d0 9a e7 f7 bc 65 99 61 3c 28 0e c3 3c a7 ed 8b 3d
       -0.030261803 0.013769482 0.023810461 0.06832438
0002e0 69 dc a4 bc 22 8d 46 bd 9c 2e 98 3c d3 af 74 bc
       -0.020124631 -0.04847444 0.018576913 -0.014934498
0002f0 85 52 8f bd 57 61 81 3d c0 11 2c 3d 07 76 62 3d
       -0.06998161 0.06317394 0.042009115 0.05528834
000300 a5 33 92 bd c3 e5 a2 bc 3a 5d 6c 3d 4a 30 65 ba
       -0.07138757 -0.01988495 0.057706095 -0.00087428524
000310 10 04 3a 3d 02 89 7b 3c a8 9f d9 bc 32 48 de bc
       0.04541403 0.015352489 -0.026565388 -0.027134035
000320 c9 14 23 bd 4b e6 0f 3d ef 95 79 3c e3 3a 89 bd
       -0.039814744 0.035131734 0.015233501 -0.06700685
000330 fc b9 1a bd 7f 7c 2e 3d 79 04 ca bc dc ce 2d bd
       -0.037775025 0.042599197 -0.024660336 -0.042433605
000340 fa 53 82 bd 0f 66 6b 3c f9 c7 a3 ba bd 11 48 3d
       -0.063636735 0.014367594 -0.001249551 0.04884504
000350 2c b9 4f 3c a2 2a 7d bd 61 94 5c 3b 98 3f 8c 3b
       0.012678426 -0.061808236 0.0033657777 0.004280042
000360 52 9c b7 bb fb 0c d9 bc 1c 48 78 bc 23 49 ea bc
       -0.0056033516 -0.026495447 -0.015153911 -0.028599327
000370 41 25 49 3c c6 de 7e 3b 61 62 2b 3d bf 25 96 bc
       0.012276948 0.0038890108 0.04184187 -0.018328546
000380 f5 ad 28 3d af 3b 21 bd 93 72 da 3c f1 58 77 bd
       0.041181523 -0.03936356 0.026665961 -0.060387556
000390 3f ee 23 bd 33 18 8e ba 95 a1 af 3c 43 03 87 3c
       -0.04002213 -0.0010840952 0.021439353 0.016481047
0003a0 5c a2 18 bd fb f0 72 bc bc f4 4a bd 13 df 39 3d
       -0.037264213 -0.014827962 -0.049549803 0.045378756
0003b0 33 86 8d bd d5 0b 80 3c df 79 74 3c 4a 88 4f bc
       -0.06910362 0.015630642 0.014921634 -0.012666771
0003c0 7b 18 a4 bc b8 f5 f5 3c 9a f6 50 bd 9a eb 9c bc
       -0.020031204 0.030024394 -0.051016428 -0.019155312
0003d0 3c ea dc bc bd 84 14 3d 03 43 f9 3c ea 95 fe 3b
       -0.02696716 0.0362594 0.030427461 0.007769336
0003e0 5f c0 e5 bc ea c8 97 bc 79 c0 3d 3d 21 8b c2 3b
       -0.028045831 -0.01852842 0.046326134 0.0059369956
0003f0 65 ef 5f 3d fc ef 90 bd c9 43 eb 3b 8f c4 88 bc
       0.054671664 -0.070770234 0.0071797115 -0.016695289

fcs1.bias f4 [256]
000000 16 27 af bd 93 6c e4 3d 9d 23 eb 3d f8 f9 f5 3d
       -0.08552377 0.111535214 0.11481402 0.120105684
000010 c0 6d 3d bd 57 5e 29 be 97 85 4d be 69 56 1b b9
       -0.046247244 -0.16539894 -0.20070492 -0.00014814142
000020 e2 48 4a be 9c ff 0d be ae 38 05 3e 16 ee 03 bd
       -0.19754365 -0.13867038 0.13009903 -0.03220948
000030 aa d5 8b 3d 39 db 10 be 67 4c 10 3d 90 7f 36 3e
       0.068278626 -0.14146127 0.035229113 0.17822099
000040 e6 42 16 3d 57 b8 1a 3d 9e b3 10 be 9b 63 15 be
       0.036684893 0.037773456 -0.14131019 -0.14588778
000050 4a 74 05 3e 6d 86 3f be 3b 91 88 bc a0 23 28 be
       0.13032642 -0.18703623 -0.016670814 -0.1641984
000060 58 4f 82 3c 27 6d 5d be b8 54 93 3d d3 18 57 3b
       0.015906975 -0.2162367 0.07193893 0.0032821193
000070 ef 5f 0a be 4f 8f a4 bd f0 6f a7 bd 4b cd c6 bd
       -0.13513158 -0.080351464 -0.08175647 -0.09707125
000080 6b 22 40 bd d7 5f 12 3d 92 bd fa bd 57 51 51 3d
       -0.046907824 0.03573593 -0.12243189 0.051102962
000090 d5 76 33 be 5e 1f 46 3e 95 0d 0b be de 64 ad 3d
       -0.175258 0.19347903 -0.135794 0.084665045
0000a0 ca 60 16 be 95 d8 11 be 85 d5 38 bd 78 e8 08 be
       -0.1468536 -0.14242776 -0.045125503 -0.1336993
0000b0 1d 70 7a bd f1 5a ba bd 72 27 8b bd 33 3b 1e be
       -0.061142076 -0.09099377 -0.06794633 -0.1545227
0000c0 91 c7 49 3e 55 a1 e2 3d 6e f3 95 bd 85 be 0d 3e
       0.19705035 0.11065928 -0.07321821 0.13842209
0000d0 3f 53 bc bd fe c0 25 be e1 9a 56 3d 1f 0b ba bd
       -0.091955654 -0.16186902 0.052393798 -0.090841524
0000e0 97 d3 11 3e 57 5a 71 bd f5 7b 2b be 6d 09 2f 3e
       0.14240871 -0.058924045 -0.16746505 0.1709344
0000f0 78 84 3a 3d ef ab 72 3d 23 34 70 bc 09 8a 2a be
       0.04553649 0.059246 -0.014660868 -0.16654219
000100 79 9a 67 3d 73 67 d6 bb c8 2c 1c be a9 18 f1 3d
       0.0565438 -0.006543094 -0.15251458 0.11772282
000110 78 13 42 be 0e f3 08 be 89 cf 6b bd 6f 90 4f be
       -0.18952739 -0.13373968 -0.057570968 -0.20269941
000120 9d 26 47 be a5 89 6d bd ae 91 10 bd 01 22 17 3e
       -0.19448324 -0.057992596 -0.03529518 0.14759065
000130 8a 6d b8 3d 00 21 41 3e 29 50 7f 3d 9c 34 2d 3d
       0.09005268 0.18860245 0.062332306 0.0422865
000140 f0 73 1e bd b8 1f b8 bd af 61 49 be 31 2a 3f be
       -0.038684785 -0.08990425 -0.1966617 -0.18668438
000150 ff d1 b0 3d 82 5c 05 be af 44 ba bd 38 17 c0 3d
       0.086338036 -0.1302357 -0.090951316 0.093794286
000160 95 9a fd bd 0d 4d a0 3d 86 22 10 bc be 58 28 3d
       -0.12383 0.07827196 -0.0087972935 0.041100256
000170 e4 6b c6 bd e9 d2 15 3e 04 33 1e be 20 95 49 be
       -0.09688547 0.14631237 -0.15449148 -0.19685793
000180 20 39 27 3e 22 09 0f be fc 75 46 3e 69 41 b6 3d
       0.16330385 -0.13968328 0.19380945 0.08899195
000190 4e 26 a5 3d ca a2 00 bd 5d d0 04 3d 40 47 27 3d
       0.08063947 -0.031405248 0.032425273 0.040839434
0001a0 f8 cc cd bd 89 19 0b 3e a8 94 f9 3d 97 f9 66 3c
       -0.1004886 0.1358396 0.12186557 0.014097593
0001b0 52 b3 9d 3d 2b af fd bc e2 cb 9d bd ad 2f 23 be
       0.07700218 -0.030967316 -0.07704903 -0.15936156
0001c0 5c ea a9 bd b2 a9 42 be b6 88 85 bd a8 54 dd 3d
       -0.08296654 -0.19010046 -0.06520216 0.108071625
0001d0 74 03 51 3e c3 67 3d be a1 96 29 be a3 fe 2b 3e
       0.20411474 -0.18496613 -0.16561367 0.16796355
0001e0 8f 72 b6 bd 04 5d 4a 3b 73 ef fd 3d c1 a5 32 3e
       -0.08908569 0.0030878196 0.12399187 0.17446043
0001f0 7e 0f a1 3d b1 64 6b 3d fe 9b 8d bc 97 cd f8 3b
       0.07864283 0.057469074 -0.017286297 0.0075928676
000200 a8 eb 9d 3d ce 30 41 be cf ab 4b be de 6c 0a 3e
       0.077109635 -0.18866274 -0.19889759 0.13518092
000210 2e d8 51 be f2 39 da 3d c8 78 1a 3e b1 c1 fe 3d
       -0.20492622 0.106555834 0.15085137 0.124392875
000220 96 4c 75 3d 56 a1 c7 3c 19 41 ac 3d 9d ac e4 3d
       0.05988749 0.024368923 0.08410854 0.11165736
000230 eb 65 c6 3b 78 6e 17 be 4b bf 07 3e dd 32 d7 3c
       0.00605463 -0.14788234 0.13256566 0.02626937
000240 c6 8b ec 3d 16 a9 12 be d1 9d 61 bd 8f a7 f5 bd
       0.11550097 -0.14322314 -0.055082146 -0.1199485
000250 0b ba 0a 3c ff 77 36 3e 33 77 04 3d 9a db 1b 3e
       0.008467208 0.17819212 0.03234024 0.1522049
000260 eb 7d 16 3e cd 6e 21 be 0f fa 63 3e 5b 9f 99 3c
       0.14696471 -0.15764923 0.22263359 0.018752744
000270 1b cd 3c 3e 5e c5 0a 3d f0 12 00 bd 47 be 2c 3e
       0.18437617 0.03387963 -0.03126806 0.1686946
000280 d0 e8 10 be 94 c5 8c bb 77 29 b5 bc 59 2a c5 3b
       -0.14151311 -0.004296014 -0.022114499 0.006017011
000290 63 ea 7e bd 51 67 2e 3e d7 73 d0 bc ae 47 83 3d
       -0.062235247 0.170316 -0.025445862 0.06410156
0002a0 24 45 a9 3d d3 f4 37 3e 8f 61 95 3d 9f be 50 be
       0.08265141 0.17964487 0.072939985 -0.20385216
0002b0 b5 60 2c be 7b 3a 49 be 6b dc 54 be ec 7d 2f be
       -0.16833766 -0.19651215 -0.20787208 -0.17137879
0002c0 72 65 87 bc db bc 40 3e 60 09 02 be 49 2b a3 3d
       -0.016527865 0.18822043 -0.12698889 0.0796724
0002d0 c9 15 cb bd 1c e0 19 3e fd 36 f2 3d 84 3d cb 3d
       -0.099162646 0.15026897 0.118268944 0.099238425
0002e0 8e b5 2e 3e 5d 37 21 be 9f 2a 41 be 19 0f eb bd
       0.17061445 -0.15743776 -0.18863915 -0.11477489
0002f0 5f 32 12 3d a7 d2 45 3e 34 56 06 3e 9d ad 5c 3d
       0.03569257 0.19318639 0.13118821 0.053876508
000300 b8 66 17 bd 37 8b 01 be 46 bf 43 3e 54 58 3b be
       -0.036963195 -0.12650762 0.19115934 -0.18295413
000310 26 57 15 be e1 76 ca 3d 04 b3 21 3e c2 ed 58 3d
       -0.14584026 0.098859556 0.15790945 0.05296112
000320 fc 6c 9d bb 3b fd f1 bc 9f da e6 3c 68 d9 d1 bd
       -0.0048042517 -0.029539695 0.028180419 -0.10246545
000330 2a f9 6a 3e 61 ce 4a 3e b5 95 9e bd b2 a5 0d 3e
       0.22946611 0.1980529 -0.07743398 0.13832739
000340 ae 9a 82 bd fe 42 24 be 98 29 01 3d 68 dd 1b bd
       -0.06377159 -0.1604118 0.031533808 -0.038052946
000350 f9 1c 34 3e 5d 28 35 3c 8d db 50 bd 13 09 16 be
       0.17589177 0.011056987 -0.05099063 -0.14651899
000360 20 76 fc 3d cb 1e 0a 3e ac ea bb 3c ee eb b9 bc
       0.12327218 0.13488309 0.022939049 -0.022695508
000370 96 ac 83 bd 10 af 55 3d b9 d4 4a 3e 09 e3 05 bd
       -0.064294025 0.052168906 0.1980771 -0.03268722
000380 ee 8c 6b 3c cb 28 34 be 1b 31 7d 3d 69 f1 b2 bd
       0.014376862 -0.17593686 0.06181441 -0.087374516
000390 0a c9 75 bd b1 7b fb bd 4b 9d 43 3e 58 28 07 3e
       -0.06000618 -0.12279452 0.19102971 0.13198984
0003a0 fe 6a b5 bd 4d 4f 64 bd af 51 88 3d 0b bc 9d 3d
       -0.08858298 -0.05573969 0.06656205 0.07701882
0003b0 73 c0 b1 bd 30 3f b5 3d 4e e8 e1 3c a5 11 ec 3d
       -0.08679285 0.08849943 0.027576592 0.11526803
0003c0 f6 8d da bd 78 d6 04 be 12 ec d0 3d 5c 49 7d bc
       -0.10671608 -0.12972438 0.10201277 -0.015459385
0003d0 7c 52 ca bd 8b f9 1f 3e 91 60 d5 bc 63 fb 16 be
       -0.09879014 0.15622537 -0.026047023 -0.14744334
0003e0 ba 41 00 bd 68 b0 d1 bd 48 24 97 bd e1 8a 31 be
       -0.03131268 -0.10238725 -0.07379967 -0.17338134
0003f0 83 10 23 3e 32 c3 35 3e 4b 99 2e be 59 12 f3 3d
       0.15924267 0.17750242 -0.17050664 0.11868734

fc2.weight f4 [512, 258]
000000 d5 ed 00 3d 39 b8 41 bd ae fe fa 3c 5f 04 c9 bc
       0.031476814 -0.04729483 0.030639019 -0.024538217
000010 20 40 a6 bb 9d 73 38 bd 02 be bc bb 1a 4c 33 bd
       -0.0050735623 -0.045032132 -0.0057599554 -0.043773748
000020 63 28 00 bd a1 49 24 3c 51 26 cd 3c 9a d5 b6 3c
       -0.031288516 0.01002732 0.025042685 0.02231865
000030 68 87 5c bc 90 df 34 3d 68 ae 32 bd 47 3f 80 bc
       -0.013460018 0.04415852 -0.043623358 -0.015655173
000040 dc aa 93 ba 11 47 24 bd bb 8e 1e bd 11 3e a0 bc
       -0.001126613 -0.040106837 -0.038710337 -0.019560846
000050 08 f8 9f 3c 80 f0 94 bc 6e 87 08 3d 77 cd df 3b
       0.01952745 -0.018181086 0.03333228 0.0068299132
000060 31 14 29 bc 9e 1f d7 bb 19 2f 52 bd 24 44 8c 3c
       -0.010319755 -0.0065650484 -0.051314447 0.017122336
000070 8c 3d 95 3c 4a 56 16 3d 6c 55 6b bc 7a c9 a8 3b
       0.018217824 0.036703385 -0.014363628 0.005150971
000080 5b de c7 bc 58 33 81 3c ee 19 bb 3c 1c f9 62 3b
       -0.02439802 0.015771553 0.022839513 0.0034633344
000090 6b 74 7c bb ee 91 44 bc 52 d1 8f bc 55 fc 83 3b
       -0.003852154 -0.011997683 -0.017555866 0.004027883
0000a0 20 54 49 bc db 4b 23 bc 04 6c d9 3c 15 19 1a 3c
       -0.012288123 -0.009966816 0.026540764 0.009405394
0000b0 91 a2 5b 3d b6 d0 40 3c b6 14 11 bc ef 90 47 bc
       0.053621832 0.011768511 -0.0088550355 -0.012180551
0000c0 06 b2 4d bd c0 92 09 3d 4e 51 31 bd 60 76 fc 3c
       -0.050218605 0.033587217 -0.04329043 0.030818164
0000d0 37 ff 51 bd 90 26 25 3b 57 50 10 bc d7 07 05 bd
       -0.051268782 0.0025199987 -0.008808217 -0.03247818
0000e0 72 a9 38 bb 37 20 31 bd c4 7e a1 bb 48 06 19 bc
       -0.002817717 -0.043243613 -0.0049284417 -0.0093398765
0000f0 e8 9b 97 bb 3a 17 30 3d d7 2a 12 3d bf bb 15 3d
       -0.00462674 0.0429909 0.035685387 0.036556
000100 d1 f3 10 3d be c3 99 bc 65 6f a4 bb dd 2b 52 bc
       0.03538877 -0.018770095 -0.005018162 -0.012827841
000110 10 3d 6b bc 23 77 cf bc d6 88 ff 3b 47 e6 2d 3b
       -0.01435782 -0.025325364 0.0077982945 0.002653496
000120 18 09 cc 3b d1 80 16 bd 86 ae 06 3d 7e 40 b8 bc
       0.00622667 -0.036743943 0.032881282 -0.02249169
000130 c0 03 46 3c 62 60 0e bd 5e f1 f7 bc 7e da 2e bd
       0.012085855 -0.034759887 -0.03026646 -0.04268884
000140 c4 c6 98 bb 8f 95 1a 3d b9 80 32 bb 17 3c 55 bd
       -0.0046623666 0.037740286 -0.002723737 -0.05205926
000150 8e 71 5c bd c7 d3 36 bc c0 76 a2 bd b2 32 04 3c
       -0.05381923 -0.01115889 -0.07932806 0.008068727
000160 8d 6e 83 bc 47 17 81 bb 55 c7 2a bc ec 34 89 3c
       -0.016043926 -0.0039395425 -0.010423501 0.016748868
000170 56 8b d2 3c 25 29 18 3d 14 31 9b bc e5 a2 e9 3c
       0.025701206 0.037148613 -0.0189443 0.028520057
000180 e0 b3 00 bd fe f0 1c 3d 93 2a 2e bc 1e b4 5e 3d
       -0.031421542 0.038315766 -0.010630268 0.054370992
000190 74 8c c8 3c 43 da 7d bc d8 7e 92 3b e3 ed 91 bc
       0.024481036 -0.015493932 0.0044706874 -0.017813629
0001a0 e3 c0 ed 3c 2f 9e 05 bc 6b de 3e bd 38 f2 ca bc
       0.02902264 -0.00815539 -0.046598833 -0.024773702
0001b0 e2 39 6f bc 4e 75 c4 3c 00 d3 c0 3b 07 de b0 3c
       -0.014601203 0.023981716 0.005884528 0.021590246
0001c0 75 1d 25 bd 78 e2 60 3d eb c0 97 3a 6f 04 29 3d
       -0.040311296 0.054903477 0.001157788 0.041263994
0001d0 32 ad 42 bd 42 09 87 3c f7 8a a9 bb ba d2 0b bc
       -0.047528453 0.016483907 -0.0051740366 -0.008534128
0001e0 a0 bd 07 bd e4 3a 97 bc d1 bc 10 3c 5d df a6 3c
       -0.033139825 -0.018460698 0.00883408 0.02037018
0001f0 cf 54 26 bd 1c d6 0c bd 17 84 70 bd 60 83 09 3d
       -0.040608224 -0.034383878 -0.05871972 0.033572555
000200 3b 5b 06 bd 2a 29 8c 3b 03 6f 3e bd 0c 77 2b 3d
       -0.032801848 0.004277368 -0.046492588 0.04186158
000210 c1 d4 74 bd 67 c0 90 bb a7 d6 5a 3d 42 6c e9 bc
       -0.05977321 -0.0044174674 0.053427365 -0.028494004
000220 1c 9f 09 3d ce 3a 92 bc 37 9b b4 b9 4f 0b 89 bc
       0.033599004 -0.017850306 -0.0003444792 -0.016729025
000230 d9 28 fb bc 80 78 0e bd 86 b8 10 bd 7b 60 c9 3b
       -0.030659126 -0.034782887 -0.035332225 0.0061455346
000240 61 ac 03 3c a0 56 17 3d fe 78 8c bc af 92 16 bd
       0.008036704 0.036947846 -0.017147537 -0.036760982
000250 f2 fc 25 bd d2 7b 0d bd 7c ca e2 3c 72 47 9a 3c
       -0.04052443 -0.034541912 0.027684443 0.018832896
000260 0b 56 9b 3c 1b 12 0b bd 37 45 e3 3c 32 82 ea 3b
       0.018961927 -0.033952814 0.027742965 0.007156634
000270 54 18 4c bd 28 4b 26 bd 7a f5 dd bc 8e a8 9c bc
       -0.04982789 -0.04059902 -0.027094591 -0.019123342
000280 51 d0 31 bc 28 78 8f 3c b4 2c a7 3c 63 99 cf 3a
       -0.010852889 0.01751335 0.020407058 0.001583856
000290 9a 6b fd 3b 5b 1d 02 3d 13 12 2f 3d 1b 07 ac bd
       0.0077337744 0.031766277 0.042741846 -0.08399793
0002a0 d4 76 41 3d 13 18 dd bc 59 fb 33 3d 8e 1f 1a 3d
       0.047232464 -0.026989019 0.043940876 0.03762775
0002b0 a4 86 28 3d 9a 45 41 3c 56 71 26 bd 84 f3 2f 3c
       0.04114403 0.011796379 -0.04063543 0.010739211
0002c0 23 c6 0b 3a b1 97 0f 3d a9 6f 36 bd dc 05 91 3c
       0.0005331954 0.035056774 -0.04454008 0.01770299
0002d0 62 36 bf bc 5a 2c 20 bd cc 34 bf 3c 33 ae e9 3c
       -0.023341361 -0.039104797 0.023340605 0.028525447
0002e0 a9 6b 04 3d 00 f4 b7 3b c9 44 cd 3b a5 db 39 bc
       0.032329235 0.005613804 0.0062643033 -0.011343871
0002f0 34 86 34 3d f4 75 1b bd 7f cf 4d bb 61 92 39 bc
       0.0440733 -0.037954286 -0.0031404195 -0.011326403
000300 3b 68 8e 3c f2 d9 13 bd 3f f1 11 bd 0c ab 6e bc
       0.017383685 -0.03609652 -0.03563046 -0.014567148
000310 12 52 09 bd b6 d1 8d 3c aa 89 09 bd 7f 1f 80 bc
       -0.033525534 0.017311912 -0.033578552 -0.015640019
000320 3c 8d 82 bd ea 76 bb bb 81 00 e5 3c 8a 76 31 bd
       -0.063745946 -0.005720963 0.027954342 -0.04332594
000330 79 12 2e bd 73 74 1a bd 91 2d 9e bb a1 3b c1 bc
       -0.042498086 -0.03770871 -0.0048272093 -0.023588004
000340 3f 58 61 bc b0 da d8 3b 0a a9 35 bc 40 70 16 bd
       -0.01375395 0.0066178665 -0.011087665 -0.036728144
000350 df 04 87 bc 6d 64 d0 3d d0 93 82 3c a8 56 19 3d
       -0.016481815 0.10175405 0.015939623 0.037436157
000360 72 84 9e bd 3c 37 56 bd 46 e5 c6 bc 06 7d df 3c
       -0.07740106 -0.05229877 -0.024279248 0.027281296
000370 b5 a0 60 bd a9 6f bc 3c 08 3b 64 bd 1a b8 ce 3c
       -0.054840762 0.023002462 -0.05572036 0.02523427
000380 2f 06 a0 3c 07 86 76 3c a5 ac a1 3c 26 82 07 bd
       0.019534199 0.015046603 0.019735644 -0.033083104
000390 1f d1 a7 bd e9 74 d0 3c ec 5f 58 3c 2f 0a 00 bc
       -0.081941836 0.025446372 0.013206463 -0.007814928
0003a0 a6 ae 00 bb c1 f9 a6 bc bc 3f 7b bc f6 f3 9b 3c
       -0.0019635349 -0.020382764 -0.01533502 0.019037228
0003b0 92 ee 56 3c 45 f7 0f 3c 4d e1 a0 bd 0d 57 93 3c
       0.013118403 0.008786981 -0.07855473 0.017985845
0003c0 a3 d7 fd bc d9 29 0e 3d b2 6e b8 3c 05 37 56 bc
       -0.030986613 0.034707878 0.022513721 -0.013074641
0003d0 e9 3b c5 3c 82 c8 db 3c 87 a7 92 bc c5 d1 54 bd
       0.024076419 0.026829008 -0.017902149 -0.051957864
0003e0 ac fc bd bc 75 5b fe bb a7 e7 16 bd 37 87 03 3c
       -0.023191772 -0.0077623674 -0.036842015 0.008027843
0003f0 b0 0d 98 bd ab bd 0e 3d 61 a2 1d bd 01 68 b7 bc
       -0.07424486 0.03484885 -0.038484935 -0.02238846

fc2.bias f4 [512]
000000 bb c9 68 3d 27 db 42 bd 89 35 2c bd e8 02 18 3d
       0.05683301 -0.04757228 -0.042043243 0.037112147
000010 82 5c 0f bc 9e 86 52 3d b6 b7 7f bc 30 f0 0d 3d
       -0.008750083 0.051397912 -0.015607765 0.03465289
000020 92 e6 e4 bc d5 d8 ab bc b3 9b 18 3d cb 0d 0a 3d
       -0.027941976 -0.020977417 0.03725786 0.03370456
000030 72 0b 0b bd 91 bb 5a 3d 42 47 65 3d d0 08 36 3d
       -0.033946462 0.053401534 0.05597616 0.044441998
000040 4c 96 d0 3c 78 9b 5e 3d 6c 4b bc bb 07 a6 43 bd
       0.025462292 0.054347485 -0.0057462957 -0.047765758
000050 09 9b 37 3d 45 27 87 3c 90 1f 80 bd c5 7b b4 bc
       0.044825587 0.016498217 -0.0625602 -0.022031674
000060 75 ce 6d bd 04 f0 2a bd 10 3d d8 3c b8 e4 3b bd
       -0.05805822 -0.041732803 0.026396304 -0.04587242
000070 c5 13 16 bd a9 77 52 bd 07 d1 4f ba 9c 0a 7c bc
       -0.036639947 -0.051383648 -0.0007927571 -0.015383389
000080 6e 3f bb bc bc 30 47 3d c5 01 77 bc 26 43 6b 3d
       -0.022857394 0.04863046 -0.0150761055 0.057437085
000090 7b 6c a8 bc ed f1 8d ba 89 6f da 3c 0b 9e b9 3b
       -0.02055954 -0.0010829546 0.026664512 0.005664592
0000a0 f0 8b 4f bd de 82 17 bd d8 c9 6e 3d da 43 39 bd
       -0.050670564 -0.03699004 0.058297962 -0.045230724
0000b0 a8 f3 0c 3c 38 d2 fb 3b d0 6d ff bb f6 af 36 3d
       0.008603014 0.007684972 -0.007795073 0.044601403
0000c0 a5 30 23 3c f0 a8 65 3d c2 7f 38 bd b3 7e 17 3d
       0.009960328 0.056069314 -0.045043714 0.036986064
0000d0 c7 23 1d bd 78 52 04 3c 58 9e 52 bc 4f 61 c6 3c
       -0.038364198 0.008076303 -0.012855135 0.024216322
0000e0 dc 2b e7 bb 72 54 83 bd bf 41 65 3c 54 40 87 bc
       -0.007054789 -0.06412591 0.013992726 -0.016510166
0000f0 dc 14 0b 3c 60 0d 11 bd b8 f9 74 bd 9f a6 47 bd
       0.00848886 -0.035413146 -0.059808463 -0.048742887
000100 48 a0 7c 3d a4 5c df 3b 76 ce 65 bb b3 95 6d 3d
       0.061676294 0.0068164635 -0.0035065687 0.058004092
000110 d8 06 33 bd 65 ca 14 bc 10 0a 40 bd 6a 2a ab 3b
       -0.0437077 -0.009081458 -0.046884596 0.005223562
000120 b5 1d 00 3c 59 a5 7f bd 5c a2 fd bc 44 43 1c bd
       0.007819583 -0.062413547 -0.030961208 -0.038150087
000130 2f 5a e7 bc 18 0e 67 3d 40 c5 be bc 21 f2 8e bc
       -0.028241245 0.056409925 -0.023287416 -0.01744944
000140 19 46 4b 3d d7 e7 1c bd d0 1d ef bc 75 00 c2 3c
       0.049627397 -0.038307037 -0.02918902 0.023681859
000150 b3 06 25 bd b1 c9 2e bd d3 eb 57 bd cd 0f 4b 3d
       -0.040289592 -0.042672817 -0.052715134 0.049575616
000160 96 aa 90 bc 7e fe 99 bc 81 7c a5 bc 01 33 56 bd
       -0.017659467 -0.01879811 -0.02020097 -0.052294735
000170 90 7e 60 3d 57 fb 41 bb 94 b2 23 bc a8 c2 17 bd
       0.0548082 -0.0029599273 -0.009991307 -0.037050873
000180 8e 4f 66 bd a3 18 67 3d 44 56 df 3c 6d 60 73 3c
       -0.056228213 0.05641998 0.027262814 0.014854533
000190 11 66 36 bd f6 d1 26 bc c6 ea 6e bc fb 4f 3a 3d
       -0.04453093 -0.0101818945 -0.014582342 0.04548643
0001a0 1f 6d 3c bd f4 e0 00 3c 95 96 64 3d 9c 40 2e 3d
       -0.046002503 0.007866133 0.05580767 0.042542085
0001b0 55 09 9a ba 67 68 c9 39 ad e2 53 3d e7 fc 3b 3c
       -0.0011752049 0.00038415493 0.051729847 0.011473871
0001c0 5f 3f 6e 3d 69 de 48 3d a5 fd 72 3d 99 df 7a 3d
       0.058165904 0.04904023 0.059323926 0.061248396
0001d0 12 ce 13 bb d4 fc 29 3d 61 a2 f9 bb 2d 1a 5c 3d
       -0.0022553247 0.04150088 -0.007618234 0.0537359
0001e0 58 34 3b 3c fd 8f cb 3c 8b 5a 46 3c a9 de 51 3d
       0.011426054 0.024848932 0.012106548 0.051237736
0001f0 8a 9e 9e 3c f1 33 29 bd aa 12 6c bd 01 a6 bc bc
       0.019362707 -0.0413093 -0.057634987 -0.023028376
000200 07 82 14 3d 00 d8 6d bd df 35 02 3d 7a b3 f7 3c
       0.036256816 -0.05806732 0.031789657 0.030236948
000210 d4 03 88 bc 3b 17 22 3c c6 d4 1b bd 0d 61 21 bd
       -0.016603388 0.009893234 -0.038044713 -0.039399195
000220 30 26 e0 bc 08 0f 5a ba 58 52 3d 3c 36 f4 4e bd
       -0.02736196 -0.000831828 0.011555277 -0.050525866
000230 fd 55 57 3d 98 67 44 3d 0a 7f 33 3d d8 d4 1d 3d
       0.05257224 0.047950357 0.043822326 0.03853306
000240 f5 55 85 bc 77 66 0d bd de 38 ab 3c 16 f5 55 bd
       -0.01627634 -0.034521546 0.02090114 -0.052235685
000250 30 7c f8 3b a6 6c 81 3b 20 7c 55 bd 3c 2e 39 3d
       0.0075831637 0.0039497195 -0.052120328 0.04521011
000260 ce ad 7d bd b8 8e 9e bc 87 f3 a2 bc 4f 82 db 3c
       -0.06193333 -0.019355163 -0.019891514 0.026795534
000270 c9 c1 ef 3c 02 f7 72 bd 70 20 98 3b 92 42 a1 bb
       0.029267209 -0.059317596 0.0046425387 -0.004921266
000280 4f 85 42 bd 42 12 a3 3b 57 8f b7 bb 5e 33 d5 bc
       -0.047490414 0.0049765417 -0.0056018042 -0.02602547
000290 f9 4a 25 bd 6e 5b 65 3d c1 c6 01 bd 30 ba 4e 3d
       -0.040354703 0.055995397 -0.031683687 0.05047053
0002a0 2e f6 73 bc 10 2f 49 bc 35 44 d1 bc 25 5f dc bc
       -0.014890237 -0.012279287 -0.025545219 -0.026900837
0002b0 8f db 30 bc cc 32 4e 3c 15 78 50 3c b5 9e f5 bb
       -0.010794534 0.012585353 0.012723942 -0.007495726
0002c0 b7 f1 43 bd 14 6b c2 3c a8 1d bf bb a0 4a 1c bd
       -0.04783794 0.0237327 -0.0058323927 -0.038157105
0002d0 6b 4e 46 bd 5a 86 b4 3d 4b d5 40 3d 1c 42 27 bc
       -0.04841463 0.08814688 0.047078412 -0.010208633
0002e0 6f aa 8a 3c 9b 46 e5 bc d3 5c 4f 3c dc 69 b0 bb
       0.016926972 -0.027987769 0.012656408 -0.005383713
0002f0 72 57 5f bd 88 8a 27 3d ca 8e b7 3c 24 75 51 3c
       -0.054526754 0.040903598 0.022406954 0.012784276
000300 57 a2 85 bc c5 ce 43 ba d3 76 3e bc 77 99 23 3c
       -0.016312761 -0.0007469471 -0.01162501 0.009985319
000310 78 f9 b7 3c d7 f3 d9 3c 86 9f 9d bb 81 ca 25 3d
       0.022457823 0.02660553 -0.0048102764 0.040476326
000320 ce ae 5e 3d 29 95 47 3d b6 a1 02 bd 98 1f 00 bd
       0.054365925 0.048726235 -0.0318925 -0.03128013
000330 0b 24 0d 3d ae be 95 bc 1f bb e7 bc 27 45 05 3d
       0.0344582 -0.0182794 -0.028287468 0.032536652
000340 2c 96 6b 3d 89 4f 0e bd 07 0b 74 bd 13 63 3f 3d
       0.057516262 -0.03474382 -0.05958083 0.046725344
000350 77 df b8 3c 9a 52 11 bd f2 10 01 3c 55 b3 64 3c
       0.022567494 -0.035479166 0.007877575 0.013958772
000360 ad 21 24 3d a5 d2 00 bd 2f ec 55 3c fd b2 ea 3c
       0.04007118 -0.031450886 0.013056799 0.028649801
000370 f3 69 8a 3c a9 61 e6 bc 92 f4 d6 bc ee 3b 6b 3d
       0.016896224 -0.02812274 -0.026239667 0.0574302
000380 28 30 d9 bc 55 8d 0e 3d 5a 10 88 bc b5 1d 0d 3d
       -0.02651222 0.034802753 -0.01660936 0.03445216
000390 67 f2 39 3c dc 2d 30 3a 86 54 21 3c 5d fc 44 bd
       0.011349297 0.0006720701 0.009846812 -0.048092235
0003a0 71 80 5c 3b 41 e1 1e bd 8f da 28 3d 45 18 8c 3c
       0.0033645893 -0.038789038 0.04122406 0.017101416
0003b0 c1 a5 5c bd 98 9c 31 bd 5f 9b 36 3a c7 0b cf bc
       -0.053869013 -0.04336223 0.0006965901 -0.02527417
0003c0 e8 52 50 3d c4 2c 59 3d 36 9e 8e 3c ad 04 90 3b
       0.050860316 0.053021207 0.017409425 0.0043950886
0003d0 f7 ba 0e 3c 8f f8 18 3c de 93 99 bc 89 5d ff 3a
       0.008711568 0.009336605 -0.018747266 0.0019482832
0003e0 bd a1 dd 3c 45 51 0c 3d ba d4 19 3d 23 74 3a 3d
       0.027054662 0.034257192 0.037556387 0.045520913
0003f0 88 8a 5d bd 53 67 37 3d dd 60 6e 3d 3e 7c 11 3c
       -0.05408719 0.044776272 0.058197845 0.008879719

fc3.weight f4 [1, 512]
000000 12 3e e8 3c 21 0a 75 3b c8 ca 73 3c 58 a0 a8 3a
       0.02834991 0.003739007 0.01487989 0.0012865169
000010 94 5f 12 3d cf c8 53 3b 70 bf 7b bc 60 f7 09 3d
       0.03573568 0.0032315736 -0.0153654665 0.03368318
000020 4e f6 30 bc 25 f9 c5 3d 67 16 af 3c 9d b0 dc 3b
       -0.010800911 0.09666661 0.021372987 0.006734921
000030 05 78 37 ba 49 e5 ba 39 13 f5 07 3c b5 90 d2 bc
       -0.00069987803 0.00035647515 0.008298176 -0.025703767
000040 a2 65 4b ba 54 f0 33 39 85 f4 e4 bb 0d fa c8 3d
       -0.000775898 0.000171603 -0.006987157 0.098133184
000050 59 c0 3b ba 72 61 1b 3b b0 fc dc bb 6f 58 97 bb
       -0.0007162146 0.0023709205 -0.00674399 -0.0046186964
000060 6f a4 e9 3b 16 01 3c 3b 53 5b 86 bc fd 3d 8c bb
       0.0071301977 0.002868717 -0.016400969 -0.0042798505
000070 24 49 c8 3b 90 ae 4c 3c ed 6e 05 3a cc 66 cc 3b
       0.0061122347 0.012492791 0.00050900766 0.0062378403
000080 a7 b5 38 3a 02 74 c6 bc 75 81 58 bd 6f 5a 33 ba
       0.0007046111 -0.024225239 -0.052857835 -0.0006841784
000090 ae 85 0a ba 80 ce cd 3b 8a 06 08 3b 93 87 97 bc
       -0.0005284202 0.0062807202 0.002075585 -0.018497264
0000a0 c5 ca f8 ba 62 72 22 b9 42 7f ce ba ac a9 f9 ba
       -0.0018981328 -0.00015492135 -0.0015754479 -0.0019047759
0000b0 44 93 63 3d 34 af 74 3c ab 4e 86 3b 0f e2 a2 3a
       0.055560365 0.01493435 0.0040987334 0.001242699
0000c0 ff b7 23 3b 8b 12 2f bb d0 c1 6d 3c 01 e7 af b8
       0.0024981496 -0.0026713933 0.0145115405 -8.387678e-05
0000d0 14 4e 0d bd 73 1b 89 ba 5c 30 5f 3d 6e 8a 0d 3b
       -0.03449829 -0.0010460451 0.05448948 0.0021597403
0000e0 dc bc c7 3a 89 e8 bc 3c 05 e0 bc 3c 2b 41 f4 b9
       0.001523878 0.0230601 0.02305604 -0.0004658786
0000f0 27 52 a4 3a 68 a6 ec bc fe 26 b6 ba 3c eb 1f bc
       0.001253669 -0.028887942 -0.0013897119 -0.009760674
000100 9a 63 aa 3b d9 8a 06 bb 59 2c 6a bc a8 5f 0b bb
       0.0051998617 -0.0020529537 -0.0142928 -0.0021266732
000110 cd 63 ab bc 8c 75 a1 3c 07 1a 45 bc f8 d7 d6 3c
       -0.020921612 0.019709371 -0.012030131 0.026226029
000120 e6 8f 9f bc c6 b0 82 3c bb 61 0e bb 92 ce f7 3c
       -0.019477796 0.015953433 -0.0021725732 0.030249868
000130 84 e1 1e bc 39 f6 87 3b d6 79 a5 bb ca f8 75 bd
       -0.009697322 0.004149225 -0.0050499244 -0.060051717
000140 b1 09 de ba b9 f0 14 bb 19 36 9b 3d 4d 45 fb bb
       -0.0016940144 -0.002272649 0.07578678 -0.0076681734
000150 77 33 29 3b 39 a9 1d bd 79 c8 5c 3b 71 68 6a 3a
       0.002581803 -0.03849146 0.0033688827 0.00089419546
000160 7a d9 c0 ba 9a 79 c8 bc c2 f0 ab bb 8a 5b 12 3a
       -0.001471325 -0.024472047 -0.0052472064 0.00055830984
000170 c6 dc cc b6 60 ee fd 3b e5 0b 7f 3a f9 bf 02 bb
       -6.105375e-06 0.007749364 0.00097292505 -0.001995085
000180 b9 f7 ec 3a 5e b6 1b 3c 86 1c b3 bc 5b 30 a0 3b
       0.0018079198 0.009503929 -0.021864187 0.004888577
000190 6c 13 98 b9 f2 0c 2e bc af eb 87 3c 08 bd 7b bc
       -0.0002900617 -0.010623204 0.016591875 -0.015364893
0001a0 a6 22 df 3c 6f d7 11 ba ca b7 af 3a 06 1c 51 ba
       0.027238201 -0.0005563413 0.0013406214 -0.0007976893
0001b0 a2 14 fd ba 92 dd 1c bc a1 c4 16 bd 1a 2a ff bb
       -0.0019308517 -0.009574311 -0.036808614 -0.0077870013
0001c0 33 39 61 3b b8 8c 42 3c 6f 26 5b 3b 59 7c 66 3c
       0.0034366369 0.01187437 0.0033439656 0.014067733
0001d0 03 05 8a 3b 06 8f 67 3c 89 9e ba 3a bb 08 1e ba
       0.004212023 0.014133221 0.0014237921 -0.00060285226
0001e0 4c 4d 0a bc 7c 2a 09 bd 1c 07 0a bb 49 23 85 bb
       -0.008441281 -0.033487782 -0.0021061366 -0.004063044
0001f0 74 76 40 bd 7e c1 16 bb 91 f7 5d bb 11 24 30 3b
       -0.046987966 -0.0023003514 -0.0033869485 0.0026876966
000200 37 2f 20 bd 3f 82 fd ba 7f 35 68 3b b6 13 e6 ba
       -0.039107528 -0.0019341185 0.0035432277 -0.0017553482
000210 4c 3b 73 3d c6 04 55 bb 7e fe 54 3b 99 c4 a6 bb
       0.05938272 -0.0032504066 0.0032500322 -0.0050893542
000220 1f 82 d7 ba af 9c eb ba 4b d9 18 3c 31 47 99 bb
       -0.0016441977 -0.0017975772 0.00932915 -0.004677676
000230 38 f0 34 3c 23 8c 1b 39 cd 5a e1 bb 57 94 7b bb
       0.011043601 0.00014834157 -0.0068772794 -0.0038387978
000240 88 c9 12 3b 07 66 0c ba 83 d5 bd bd dc 01 28 3c
       0.0022397954 -0.00053557794 -0.0926924 0.01025435
000250 92 6b 07 3b a4 45 4d bb 78 2d 08 b9 48 3b 3e bc
       0.0020663482 -0.0031322027 -0.00012986909 -0.011610813
000260 5e a6 9e 38 80 8b 1c 3c e0 82 50 3a 0e 3a 58 3a
       7.5650154e-05 0.009554744 0.0007954072 0.0008248397
000270 cf 6d a3 bb 9a 2e 6d 3d 1c 66 6f 3c 74 f4 06 3d
       -0.0049874554 0.05790577 0.014611747 0.032947972
000280 b0 cd 00 3b 40 30 f8 3c 50 e8 11 3c b5 30 10 bd
       0.001965385 0.030296445 0.008905485 -0.0352027
000290 ef ff 02 bd 3a f7 15 3b cc a4 55 3d 23 ee 59 bb
       -0.03198236 0.0022882954 0.052159116 -0.0033253513
0002a0 67 0d b6 bb e0 17 cb bc 23 d4 b4 3c 5f d2 38 3c
       -0.005555797 -0.024791658 0.02207381 0.011280625
0002b0 17 f9 6a 3b cf fe b9 bb a1 30 38 bd 81 22 c4 3c
       0.0035854036 -0.0056761275 -0.04496825 0.023942234
0002c0 2a 4e 2e 3b ec 16 29 bb 3f 52 c7 bb ed 2f cc ba
       0.0026596882 -0.0025801016 -0.0060828025 -0.0015578248
0002d0 5f 3d 8d 3b 3d dd d9 bd f1 10 f4 3a f2 b1 c2 bb
       0.0043102945 -0.10637901 0.0018620772 -0.005941623
0002e0 3c b1 81 bd eb b8 84 bb e0 66 80 3c be 29 90 3c
       -0.06332633 -0.0040503643 0.015674055 0.01759803
0002f0 58 75 62 bb da c2 cf bc f8 c1 1d bc d6 8e 6f bc
       -0.0034554806 -0.025361467 -0.009628765 -0.014621457
000300 51 57 86 3b 12 be 04 ba 5f d3 46 3b e6 e5 66 bc
       0.0040997644 -0.0005063723 0.003033839 -0.014092898
000310 6c fb e4 3b 95 fe b6 39 8e 99 de 3c 03 4d bb ba
       0.0069879796 0.00034903424 0.02717283 -0.0014289919
000320 67 91 c5 3b f7 4b 88 3b 53 bb 0a bc a8 cc f5 3b
       0.006029296 0.0041594463 -0.008467513 0.0075012036
000330 02 60 e4 3a 8f be af bc 41 85 6a 3c 2f bd cf 3a
       0.0017423632 -0.02145317 0.014313997 0.0015849228
000340 67 8e 2e 3b f4 0d e3 3b 44 af b5 bb 5a 26 89 3b
       0.0026635171 0.0069291536 -0.005544575 0.00418548
000350 69 50 01 3d 01 58 84 bc 98 da 58 bd 7b 08 fe bb
       0.031570826 -0.016155245 -0.052942842 -0.007752476
000360 38 4a 61 bc fd f7 57 3a cd d6 fc bb 9e da 73 3c
       -0.013750605 0.0008238552 -0.007716036 0.014883665
000370 52 fb 17 3d 17 96 ca 39 8e 9f d0 bb 8a 25 e6 39
       0.037104912 0.00038640268 -0.0063666767 0.00043896987
000380 29 59 80 bb fb 8e c9 3c d0 25 8d 3c 8f 61 cc bb
       -0.0039168787 0.024604311 0.017229944 -0.006237216
000390 18 8b f5 bb bc 39 fb bc 7b 47 70 3d 2b 96 c2 3a
       -0.007493388 -0.030667178 0.05866192 0.0014845779
0003a0 01 49 4b 3a c1 86 af 3b e4 e4 ad 39 01 71 3e bd
       0.0007754714 0.00535664 0.00033167668 -0.046494488
0003b0 98 a6 c9 bc 25 8f 08 bb da 5e b2 bb b2 c0 5b bc
       -0.02461557 -0.0020837274 -0.005443436 -0.013412641
0003c0 e9 30 93 bc 4d 76 50 3d 47 82 aa bb c3 16 65 39
       -0.017967658 0.05089407 -0.0052035186 0.00021847621
0003d0 86 59 63 bb ef 9c e2 39 41 7d f6 39 19 77 8b 3a
       -0.0034690811 0.00043223004 0.00047014098 0.0010640352
0003e0 70 84 08 3b 0f 8a ab 3b 66 31 09 bc 20 9f bb 3d
       0.0020830892 0.0052349637 -0.008373594 0.0916121
0003f0 9e af 01 3c ce 31 b2 bb c5 7b bf 3b db 1a 8a bc
       0.007915406 -0.005438066 0.005843612 -0.016858509
