results/agents=2,states=24,a_s=2,seed=0,taus=(0.01, 0.001, 0.999),noise=None,learns=(5, 5),learns_r=(0.0001, 0.0001),net=(256, 512),doClip=True,noise=False,t=400,maxScr=1000.pth (torch_old, 559108 bytes, 5 tensors)

fcs1.weight f4 [256, 24]
000000 8b 66 49 3d 1c 7f 1a bc 5f 00 14 3d f0 d7 81 bc
       0.04917006 -0.009429719 0.036133166 -0.015850037
000010 69 5b 0f 3d b3 41 53 3c 11 4b 27 3d 88 77 54 3b
       0.034999285 0.012894082 0.040843073 0.003241988
000020 a4 41 0c 3d 21 d1 86 3a 2a 8c 32 bd d8 c8 88 bb
       0.034242287 0.0010285714 -0.043590702 -0.004174333
000030 9c 5b 1b bd cf 47 24 ba 86 4b 43 3d e1 d3 26 3c
       -0.037929162 -0.0006266804 0.047679447 0.010182352
000040 c0 26 83 3d 9b 58 37 3d 98 70 0a 3d a8 ce 12 bd
       0.06403875 0.044762235 0.033798784 -0.035841614
000050 7e be fc bb db 3e 4d bd 52 51 07 3c 86 ed 22 3d
       -0.007713138 -0.05010877 0.008259134 0.0397773
000060 21 eb 17 3d 7c 9d 0a 3c e0 0d 77 3c 71 cd 52 bd
       0.03708947 0.008460399 0.015078992 -0.051465455
000070 a8 39 94 3d 9d b7 07 3a 87 2e 06 3d b9 0d 4e 3d
       0.072375596 0.0005177202 0.032759216 0.050306056
000080 77 d2 8d bc 1b a4 c9 3c a7 e1 90 3b 9f 9e 7a bd
       -0.017312272 0.024614384 0.004421431 -0.06118643
000090 a2 b6 42 bc e8 82 61 bd da 25 43 bd 70 ad 9e bd
       -0.011884363 -0.055056483 -0.04764352 -0.07747924
0000a0 6e c8 57 bc d6 56 89 bd ad 4f 65 3d 44 5f f5 bc
       -0.013170345 -0.06706016 0.055984188 -0.029952653
0000b0 cf 36 ec bc d2 21 fa 3c f7 24 70 3d 6e 04 27 3d
       -0.028834729 0.030533705 0.058629002 0.04077571
0000c0 ae 3f 8a 3d 97 91 8b bc 9a 80 99 3c 7a 25 4d 3d
       0.06750427 -0.017037196 0.01873808 0.05008457
0000d0 39 5f a1 bd 21 0b fe bc f4 d9 47 3b 97 b4 5b bb
       -0.078794904 -0.031011166 0.00304949 -0.0033524388
0000e0 cd d3 11 bb 11 f7 5b bd f9 68 ba 3c 88 7d fa bc
       -0.0022251487 -0.053702418 0.022755133 -0.030577436
0000f0 b6 09 d8 bd 0c 18 c8 bd 2d 76 97 bd 28 71 fb bc
       -0.10548727 -0.097702116 -0.07395587 -0.030693606
000100 ee 23 91 3c 0a 5a d4 bb 47 6b 65 bd 6d 73 94 3d
       0.017717328 -0.00648046 -0.05601051 0.07248578
000110 5f 61 4f bc 5f 71 df bd a5 6c 02 3d 43 cc 83 3d
       -0.012657492 -0.10910296 0.031841893 0.06435444
000120 2b ef d3 3c 8a 88 ca 3c bf 7c 0e 3c 6c 4f 19 3d
       0.02587088 0.02472331 0.008696734 0.03742926
000130 b7 b6 45 3d e3 71 44 3c 33 0a d9 3c 33 fc 85 3c
       0.048269954 0.011990043 0.026494121 0.01635561
000140 4e 9b 06 3d f7 eb 54 3d f0 bc 87 3c cd c8 59 3c
       0.032862954 0.051982846 0.016569585 0.013292504
000150 44 04 ab 3d b1 b4 ef bc 9d c7 6f bd fc c0 87 bc
       0.08350423 -0.029260965 -0.058539975 -0.016571514
000160 54 d8 ea 3c 97 fa 6f bd a0 26 47 3d 39 04 3a 3d
       0.028667606 -0.05858859 0.04862082 0.045414183
000170 8b 4a 51 3d 6d 96 a8 bd c7 7f 3c 3c b7 1f ed bc
       0.05109648 -0.082318164 0.011505074 -0.028945787
000180 bb cf 30 3d 57 28 15 bd 19 cc 04 bd 07 87 09 3c
       0.043166857 -0.036415424 -0.032421205 0.008394009
000190 ed b7 2c 3d 8e 5c 21 3c 83 6c 21 bd 85 dd 35 bc
       0.042167593 0.009848727 -0.039410125 -0.011100178
0001a0 00 7c 17 3d 5b 04 6e 3c 66 ea d3 bc b1 59 dd 3a
       0.03698349 0.014527406 -0.025868606 0.0016887692
0001b0 f7 5a 5b bd 7c b0 9f 3c 1e 20 0c bd 83 75 32 3d
       -0.053553548 0.019493334 -0.034210317 0.0435691
0001c0 e6 7c 2e bd ae 4e 7c bc 6a 0b f1 bc e3 73 8d bd
       -0.04259958 -0.015399618 -0.029424388 -0.06906869
0001d0 d5 a3 5f bc 65 15 c6 3c 39 02 38 3c 14 f3 af bd
       -0.0136499 0.024180124 0.011230999 -0.08591285
0001e0 17 12 4d 3d 64 86 b4 bc f3 99 f5 3c 42 bd 36 3d
       0.05006608 -0.022036739 0.029980635 0.044614084
0001f0 cb 3c 66 3d 9a 6d 22 3d 04 2e 0d bd fe ec 60 3d
       0.05621032 0.039655305 -0.034467712 0.054913513
000200 f8 01 2b 3d 98 21 18 3d ba 37 3a bd c1 72 79 3c
       0.041749924 0.037141412 -0.0454633 0.015225113
000210 50 ce 92 3d 19 8b 64 bd 2a 76 15 bd 77 a4 94 bc
       0.07168257 -0.055796716 -0.036489643 -0.01814483
000220 62 15 8d 3c 90 fc 96 3d 0b f6 2b 3d 86 ce 7f 3d
       0.01722211 0.07372391 0.04198269 0.062452815
000230 66 81 9f 3d 14 92 8d bd bc 33 86 bd 50 37 41 3c
       0.07788353 -0.06912628 -0.06552836 0.011792973
000240 df 2c 78 bc d5 76 22 3d f3 56 4e bd db 46 49 3d
       -0.015147417 0.03966411 -0.05037589 0.04913984
000250 70 8c b2 3c 76 0b 97 3d 03 51 15 3d c2 c6 da bb
       0.021795481 0.07375233 0.036454212 -0.006676526
000260 92 a3 a2 bc 8d 2e 9b 3c e8 10 dc 3c 19 93 62 3d
       -0.019853387 0.018943096 0.02686353 0.055316065
000270 00 41 50 3d e2 dd 97 bc 3c ec a4 bc 1f c6 c1 3c
       0.05084324 -0.01853842 -0.020132177 0.023654042
000280 d6 4e 95 3c f4 42 f5 3c dd 3b 97 bb f1 42 a5 bb
       0.018226068 0.029939152 -0.0046152906 -0.0050433804
000290 b5 a1 81 3b 1f 4d fc 3b 34 42 d2 3c e7 96 48 3d
       0.0039560446 0.0076996232 0.025666334 0.048972037
0002a0 48 81 9b bc 78 0a 97 bd 66 0c ea 3a d9 b4 cf 3b
       -0.018982545 -0.07375044 0.0017856478 0.0063386974
0002b0 f4 ba 17 bc e3 f2 1d bc b6 4f 57 bd cc cc 9b bd
       -0.009260882 -0.009640428 -0.052566253 -0.07607421
0002c0 a5 db 81 3d 26 48 59 bd bb d4 96 3c b0 0e 65 3b
       0.06340722 -0.05304732 0.018411985 0.0034951381
0002d0 3d ce ff bc 62 7e ae 3c bf c1 a4 3c 3c ee 9f 3c
       -0.031226272 0.021300498 0.020111917 0.019522779
0002e0 23 75 36 bc 1b 88 3d bd c8 65 88 3c 8f 24 df 3a
       -0.011136326 -0.04627238 0.016650096 0.0017024445
0002f0 9c e4 96 bd ce 1b aa 3d 1f 2d 24 3d 73 4d 93 3d
       -0.073678225 0.083060846 0.040082093 0.07192507
000300 84 cd 79 bd 4f db 16 bd 9e ef 73 3d 4d b6 92 3c
       -0.06098701 -0.036830243 0.05955469 0.017909193
000310 ee 6d 44 3d 91 f9 a5 3c 20 7a ca bc f5 d0 08 bc
       0.0479564 0.020260604 -0.024716437 -0.0083506005
000320 9d 78 1d bd 9e 1c 41 3c 5d 88 62 3c 28 86 64 bd
       -0.038445104 0.011786608 0.013826457 -0.055792004
000330 06 a7 6d bd 3a 94 67 3d 26 8b d5 bc 5c be ff bc
       -0.058020614 0.056537844 -0.026067328 -0.0312187
000340 12 2f 82 bd cd 33 f7 bb e1 c0 5a bb ef 62 82 3d
       -0.06356634 -0.007544017 -0.0033379125 0.06366526
000350 49 b3 03 bd cb f3 30 bd 4f 6f a7 3a 56 78 9c 3c
       -0.0321534 -0.04320125 0.0012774261 0.01910035
000360 c8 89 2e bc 25 83 33 bc 84 62 8e bc 1b 7a 4d bd
       -0.010652967 -0.01095656 -0.01738096 -0.050165277
000370 d9 09 85 3c 59 c5 69 3b 46 43 22 3d 6b 68 23 bd
       0.016240047 0.0035670607 0.03961494 -0.039894503
000380 c0 37 13 3d 53 45 bc bc 0b ae 0d 3d 5b ca 94 bd
       0.03594184 -0.022982275 0.03458981 -0.07265159
000390 88 de 24 bd 90 1d c6 bb b6 8a f0 3c 81 2c 8a 3b
       -0.040251285 -0.0060460046 0.029363018 0.004216731
0003a0 05 92 44 bd 94 99 03 bc b3 02 53 bd 20 bc 47 3d
       -0.047990818 -0.008032221 -0.051516246 0.048763394
0003b0 ef 38 94 bd eb 5a ac bb 01 42 54 3c 27 14 18 bc
       -0.07237422 -0.0052598617 0.01295519 -0.009282148
0003c0 63 77 a6 bc 7b 96 eb 3c 66 0c 33 bd 1d 6c 9b bc
       -0.0203206 0.028758278 -0.043712996 -0.01897245
0003d0 cb 49 90 bc 2c cb fa 3c ca 8b 1a 3d 20 4a 02 3c
       -0.017613312 0.030614458 0.03773097 0.007952243
0003e0 52 c1 dd bc 7e c4 94 bc 9f 7f 5c 3d ee 1f 44 bb
       -0.027069721 -0.018160101 0.053832646 -0.0029926258
0003f0 31 1f 81 3d 5c 1e 92 bd a0 9f 70 3c 86 eb d1 bc
       0.063047774 -0.07134697 0.014686495 -0.025625002

fcs1.bias f4 [256]
000000 19 62 a2 bd 96 5c e8 3d c7 dd d7 3d af 96 ee 3d
       -0.07928867 0.11345784 0.105403475 0.11649834
000010 95 df 21 bd 54 c4 34 be 18 56 4b be 98 6e 9e 3b
       -0.039519865 -0.17653018 -0.19857061 0.004834961
000020 d5 25 4b be 24 e5 09 be b2 76 0c 3e 8b 36 17 bd
       -0.1983865 -0.13466316 0.13717154 -0.03691725
000030 28 34 99 3d 33 9f 23 be 9f 58 05 3d d9 7b 4a 3e
       0.07480651 -0.15978698 0.03255522 0.19773807
000040 03 c4 1b 3d 85 81 3a 3d f2 81 06 be aa 1d 1b be
       0.03802873 0.045533676 -0.13135508 -0.15148035
000050 70 06 08 3e 21 83 39 be 7b 12 ad bb 6c f9 26 be
       0.13283706 -0.18116428 -0.005281744 -0.16306084
000060 05 05 3d 3c a5 df 3b be 25 d0 91 3d e4 44 56 b9
       0.011536841 -0.18347032 0.071197785 -0.00020434294
000070 6b 50 09 be e3 62 98 bd ca 61 a1 bd d7 02 c4 bd
       -0.13409583 -0.07440736 -0.0787998 -0.09570854
000080 be 20 52 bd 7e 4f 2d 3d 83 cf ee bd fe c8 4b 3d
       -0.051300757 0.042312138 -0.116606735 0.049752228
000090 f3 ce 26 be ea 2d 40 3e f8 70 f4 bd 22 ff bb 3d
       -0.16289882 0.18767515 -0.119356096 0.09179522
0000a0 84 f8 13 be eb 75 0e be 3c 59 8c bc 22 27 04 be
       -0.1445027 -0.1391217 -0.017132394 -0.12905553
0000b0 d0 ae 6e bd 91 24 ba bd 7c 88 5e bd 8b 93 1c be
       -0.058272183 -0.09089006 -0.05432938 -0.15290658
0000c0 60 ca 47 3e 7a 6d ef 3d df e3 9a bd 02 f1 1b 3e
       0.19510794 0.11690803 -0.07562994 0.15228656
0000d0 53 aa c4 bd e9 b3 2f be c4 df 8e 3d 60 f1 81 bd
       -0.09602799 -0.17158474 0.06976274 -0.06344867
0000e0 32 e8 1a 3e 79 62 81 bd 50 8a 2d be 64 ec 2e 3e
       0.15127638 -0.0631761 -0.16947293 0.17082363
0000f0 10 a6 20 3d 49 a6 87 3d 5b 19 3f bc 56 a1 2a be
       0.03922087 0.06623513 -0.01166376 -0.16663107
000100 bd 01 97 3d b9 49 86 bb 35 64 0e be b2 1c e9 3d
       0.073733784 -0.004098144 -0.13905413 0.11382426
000110 22 ee 3e be 59 12 fb bd 7a 16 46 bd 52 b0 46 be
       -0.18645528 -0.12259359 -0.04836128 -0.19403198
000120 5e b2 45 be 88 52 62 bd b4 d2 1d bd 60 ec 16 3e
       -0.19306323 -0.05525449 -0.03853102 0.14738607
000130 86 2d c6 3d f8 59 43 3e fd 6e 8b 3d 28 0f a1 3c
       0.09676652 0.19077289 0.06808279 0.019660547
000140 44 87 47 bd 33 ab b7 bd 59 c6 23 be 08 e8 47 be
       -0.048712984 -0.089682005 -0.15993632 -0.19522107
000150 f7 4a a6 3d 6d 41 c6 bd 73 46 9b bd 8b 9f c7 3d
       0.08119767 -0.09680448 -0.075817965 0.09747227
000160 f9 53 f6 bd d8 08 ad 3d 4d 76 79 bc d5 bf 01 3d
       -0.12027735 0.084489524 -0.015225959 0.031677086
000170 f7 ae be bd 65 23 0f 3e 38 c7 29 be c3 a3 3d be
       -0.09310716 0.13978346 -0.16579902 -0.18519501
000180 9f 17 29 3e 46 2c f0 bd f4 5e 50 3e d4 d8 c7 3d
       0.16512917 -0.117271945 0.20348722 0.097581536
000190 6b f7 9c 3d dd 34 cb bc 81 db 3e 3d 74 eb 60 3d
       0.07664379 -0.02480548 0.046596054 0.054912046
0001a0 86 53 ca bd d0 0e 15 3e 26 06 00 3e 9a 15 65 3c
       -0.09879212 0.14556432 0.12502345 0.013982201
0001b0 5c 32 65 3d 98 3d e5 bc 9e a8 8e bd b0 49 1b be
       0.05595623 -0.027983472 -0.06965755 -0.15164828
0001c0 8a a1 a6 bd 8c 86 48 be 01 e4 88 bd 30 3c d7 3d
       -0.0813628 -0.19582576 -0.06684113 0.10509527
0001d0 05 57 4d 3e fb 74 33 be b8 4e 29 be 81 e4 2c 3e
       0.20052727 -0.17525093 -0.16533935 0.16884042
0001e0 9a 09 aa bd b5 26 a2 3a 0b 6e f7 3d 9c 9f 28 3e
       -0.083026126 0.0012371155 0.12081536 0.16467136
0001f0 26 d1 9e 3d e9 8d 29 3d b5 ee 12 bc 8f e1 08 3c
       0.07754736 0.0413951 -0.008968045 0.008354559
000200 3c cc ac 3d ae 73 48 be f1 be 47 be 0f 00 07 3e
       0.08437392 -0.19575378 -0.19506432 0.13183616
000210 53 cd 4c be b2 4a c7 3d 4a c3 1d 3e 72 6c f7 3d
       -0.200002 0.09731044 0.15406528 0.12081231
000220 87 19 a5 3d 74 43 01 3d a7 5b c0 3d e2 95 f9 3d
       0.080615096 0.03155847 0.09392481 0.12186791
000230 52 a6 ff 3b 48 29 1c be 47 a8 fc 3d ea cc b9 3c
       0.0078018093 -0.15250123 0.12336784 0.022680718
000240 68 82 02 3e 6f 59 07 be 6a 1f 31 bd b9 5f 13 be
       0.12745059 -0.1321771 -0.04324285 -0.14391984
000250 bc a8 9e 3c 6b bd 31 3e 55 40 1d 3d 45 ba 30 3e
       0.019367568 0.17357413 0.03839143 0.17258556
000260 47 cd 1f 3e ed 1c 25 be 8b 48 5d 3e a5 88 8c 3c
       0.15605651 -0.16124316 0.21609704 0.017155001
000270 91 0f 2e 3e fa fa 27 3d 49 cc f1 bc 99 80 3b 3e
       0.16998126 0.041010834 -0.029516356 0.18310775
000280 3d 32 17 be b5 79 0d 3c a8 d0 f5 bc fe 92 a4 bb
       -0.14765258 0.008634974 -0.030006722 -0.0050224056
000290 64 ec 47 bd be 52 3a 3e f6 39 16 bc a0 2b 9e 3d
       -0.048809424 0.18195626 -0.009169092 0.077231646
0002a0 cc 6a a6 3d 06 45 3b 3e 7e 66 9b 3d 16 95 50 be
       0.08125839 0.18288049 0.07587908 -0.20369372
0002b0 40 a3 2d be 9f 17 43 be 3b 93 50 be 33 a1 29 be
       -0.16956806 -0.1905198 -0.20368664 -0.16565399
0002c0 a1 8b 8b 3b 8e ae 41 3e 6c bf 09 be 93 cd aa 3d
       0.0042585884 0.18914244 -0.13451928 0.083399914
0002d0 79 00 c4 bd 7b 0b 2e 3e 60 16 07 3e 52 b9 bc 3d
       -0.09570403 0.16996567 0.13192129 0.092150345
0002e0 ee 8d 34 3e 32 f5 20 be 18 f8 3e be a5 9e c9 bd
       0.17632267 -0.15718535 -0.18649328 -0.09844712
0002f0 59 2e 12 3d ed e9 39 3e a4 f3 0b 3e e9 72 4f 3d
       0.03568873 0.18155642 0.1366716 0.050646696
000300 58 0f 04 bd 2b 21 07 be 4f ec 4d 3e f6 39 36 be
       -0.032241195 -0.13196246 0.20109676 -0.17795548
000310 6f a7 09 be 27 da e5 3d 4d 3e 17 3e f7 25 95 3d
       -0.13442777 0.1122325 0.1476986 0.07282632
000320 c4 dd fd 3b 43 ad c6 bc 74 8b a1 3c 73 71 d8 bd
       0.007747384 -0.02425254 0.019719817 -0.10568514
000330 b3 81 5e 3e ba f9 3e 3e 4c d0 d7 bd 0a 47 0c 3e
       0.21729164 0.1864995 -0.10537776 0.13698974
000340 77 ce 13 bd d8 cf 1a be 9e 33 3d 3d 52 bc 1f bd
       -0.036085572 -0.15118349 0.046191804 -0.038997956
000350 31 8f 2a 3e 7d 81 81 3c 11 c6 5e bd 75 d4 0e be
       0.16656186 0.015808815 -0.05438811 -0.13948233
000360 1b 76 f3 3d 4f 01 fc 3d 92 e1 e3 3c 0a 12 aa bc
       0.11887761 0.12304937 0.027817521 -0.020760555
000370 76 26 7a bd 5d e6 4d 3d 23 89 46 3e ac fd 0d bd
       -0.061071835 0.05026852 0.19388251 -0.03466575
000380 2e 94 8b 3c 33 24 41 be 63 fa 9f 3d f1 13 95 bd
       0.017038431 -0.18861465 0.07811429 -0.07279194
000390 ab 0a 52 bd ef 6f db bd 1d 03 44 3e 94 71 0b 3e
       -0.051279705 -0.10714709 0.19141813 0.13617545
0003a0 73 0e bd bd b9 ee 4a bd 8e 79 5a 3d 57 59 94 3d
       -0.092312716 -0.04954407 0.05333858 0.07243603
0003b0 3d 66 ce bd 35 15 a0 3d d8 02 1a 3d ea 34 d7 3d
       -0.10078094 0.07816545 0.03760037 0.105081394
0003c0 17 f9 de bd 94 9c 0c be 9e 10 b2 3d 89 b1 1d bc
       -0.10887354 -0.13731605 0.08694576 -0.009624847
0003d0 70 15 cf bd cf 5d 28 3e 30 09 c3 bc 1f 7f 13 be
       -0.10111511 0.16442035 -0.023808092 -0.14403962
0003e0 05 cb ec bc 81 a9 c5 bd 9e d9 9f bd df 78 28 be
       -0.028905401 -0.09651471 -0.07805179 -0.16452359
0003f0 bf b1 2a 3e 38 10 36 3e a7 bd 3c be d5 6b f4 3d
       0.16669367 0.17779624 -0.18431722 0.1193463

fc2.weight f4 [512, 258]
000000 7d da 03 3d f9 c6 27 bd 32 98 f6 3b 68 1e 2e bd
       0.03219079 -0.04096124 0.0075254673 -0.042509466
000010 ce 47 0c bc 52 61 56 bc 3e 22 b7 bc 3b d0 6e bc
       -0.008562041 -0.013084726 -0.022355195 -0.014576013
000020 f4 b2 d8 bc d7 9d ad bb 19 4e e4 3c 93 ce 8d 3c
       -0.026452519 -0.005298357 0.027869271 0.017310416
000030 53 b1 01 bc 28 22 2c 3d 4f 3b 21 bd 46 aa 93 bc
       -0.007915813 0.04202476 -0.0393632 -0.018025529
000040 78 6c 5b bc 43 9c 04 bd 3d 8e 1d bd 22 ae e2 3a
       -0.01339256 -0.032375585 -0.038465727 0.0017294327
000050 17 cb a0 bc 1a e5 89 bd 41 74 0e 3d 92 22 2d 3a
       -0.01962809 -0.06733151 0.034778837 0.00066045776
000060 68 b5 0d bd ed 22 0d 3d d1 28 87 bd 67 3b 02 3b
       -0.03459683 0.034457136 -0.06599582 0.0019871832
000070 b2 6f 54 bd 37 8d 5a 3d 94 fc a8 bc 70 d5 62 3b
       -0.051864333 0.05335733 -0.020628251 0.0034612082
000080 73 65 60 bd b0 49 91 3b 5e 0e 1d 3c 0e 35 84 3b
       -0.05478425 0.004433833 0.009585945 0.004034645
000090 44 2f e7 bc da fe d3 bc e4 88 66 bb 8b 35 be bb
       -0.02822078 -0.025878359 -0.0035176808 -0.0058047227
0000a0 e4 bb bc bc 9a a0 b3 3a 5d 54 4a 3c 66 33 1b 3d
       -0.023038812 0.0013704479 0.012349215 0.037890814
0000b0 f0 4f 33 3d 16 ac 1c 3c 5d 55 16 3b 66 c1 0e bd
       0.043777406 0.009562513 0.0022939064 -0.034852408
0000c0 ea ee fd bc 2b 33 92 3c ec 2a 85 bd f0 90 fe 3c
       -0.030997712 0.017846664 -0.06502327 0.031074971
0000d0 c4 71 0c bd b0 3f f5 3a fe 73 c2 ba 25 40 2d bd
       -0.034288183 0.0018710997 -0.0014835594 -0.0422975
0000e0 d9 12 95 bc 53 a7 1c bd dd be e7 3b bb 21 77 3b
       -0.018197464 -0.03824551 0.007072313 0.0037709314
0000f0 5d 81 35 bc 38 7e 68 bb a9 f3 62 3d 2f 8f 87 3c
       -0.011078206 -0.0035475623 0.055408154 0.016547767
000100 91 52 0b 3d cb a6 d9 bc 0a 87 c7 3b a0 af e5 3b
       0.03401429 -0.02656879 0.006089096 0.0070094615
000110 74 53 d5 bc 70 c5 ec 3a d1 5f 18 ba 18 b8 af bc
       -0.02604077 0.0018064212 -0.00058126176 -0.021450087
000120 84 2f af bc e6 d8 a3 bc aa fa 8c 3c 24 53 cb bc
       -0.021384962 -0.020000886 0.01720937 -0.024819918
000130 b2 0b 89 3b 2e e8 30 bd 8f 2e d6 bc 2c bf 2b bd
       0.0041823024 -0.043190174 -0.026145248 -0.041930363
000140 d8 dc a5 bc e2 94 07 3d 7d dc d3 3c d3 fe 13 bd
       -0.020246908 0.03310097 0.025861973 -0.03613169
000150 20 d8 a1 bc 37 34 8a 3c f1 07 6f bd 56 bb e1 3b
       -0.019756377 0.016870601 -0.058357183 0.0068887873
000160 c1 75 81 bc 7f 7e 8c ba 35 a2 f1 ba 50 99 ec 3c
       -0.01580322 -0.0010718851 -0.0018435182 0.028881699
000170 c9 77 e6 3c 32 85 22 3d 92 27 4e bd 2d c5 db bc
       0.02813329 0.039677806 -0.050330706 -0.02682742
000180 38 0d a9 bc 15 65 da 3c 2f fe 58 bc d1 85 e2 3c
       -0.020636186 0.026659528 -0.013244196 0.0276517
000190 91 3a e2 3c 76 34 17 bd ed 28 bf 3b 80 8e 24 bd
       0.027615817 -0.036915265 0.005833736 -0.04017496
0001a0 10 7b 14 3d b3 46 25 3b 94 91 9e bc 79 03 3e bc
       0.036250174 0.0025219142 -0.019356526 -0.011597508
0001b0 03 bc 71 bc d1 b0 a0 3b b4 02 e0 3c b9 2c 89 3c
       -0.014754298 0.0049038907 0.027345039 0.016744958
0001c0 18 47 83 bd 66 d7 36 3d 16 dc 9d bb f2 ee 20 3d
       -0.064100444 0.044639014 -0.004817496 0.039290376
0001d0 14 82 d2 bc c8 de 58 3c 80 f6 a9 bc a0 a5 16 bc
       -0.025696792 0.013236709 -0.020747423 -0.0091947615
0001e0 b0 01 48 bd 77 4c 60 3b 7a 07 03 bc eb ac 87 3c
       -0.048829734 0.0034225264 -0.007997388 0.016561946
0001f0 85 f0 29 bd 6a 4f e3 bc 01 ed 5c bd e1 fa ef 3c
       -0.041489143 -0.027747829 -0.053936962 0.029294433
000200 a6 45 c5 bc 3c 1a cb bc e3 86 b9 bc 93 b7 25 3d
       -0.024081063 -0.024792783 -0.022647327 0.040458273
000210 44 d0 77 bd 63 0f 27 3c b2 e0 78 3d b5 f1 3e bd
       -0.060501352 0.01019654 0.06076116 -0.04661723
000220 84 70 d1 3c 79 d8 18 bd 25 b2 74 3c 53 73 0c bd
       0.025566347 -0.03731582 0.014935051 -0.03428967
000230 4b d3 12 bd 94 bc 20 bd 3a fc 00 bd 4e 32 5d 3c
       -0.035846036 -0.039242342 -0.031490542 0.013500763
000240 57 1a 85 3c 07 cf 52 3d 3d 4e e2 bb 34 c9 66 bc
       0.016247911 0.051466968 -0.0069062994 -0.0140860565
000250 a0 a4 a7 bc f5 95 1c bd b7 ba 37 3b 49 b9 f9 3a
       -0.020464242 -0.038228948 0.0028034875 0.0019052412
000260 d1 96 2a 3d 2b fa 26 3b 1d 6d 51 3d 14 3a fb 3b
       0.041647736 0.0025478702 0.05112945 0.0076668356
000270 77 4f 85 bc 04 1a 27 bd 0f f9 c3 bc 23 0e 55 3c
       -0.016273243 -0.040796295 -0.023922471 0.013003859
000280 01 57 92 bb de 52 86 3c 14 41 17 bc 5e 64 81 3c
       -0.004465938 0.016396936 -0.009231824 0.01579493
000290 1c d0 a0 b9 55 98 f1 3c 93 c7 1a 3d af 47 2d bd
       -0.00030672632 0.029491583 0.037787985 -0.04230469
0002a0 f7 20 ff 3c c9 9d a7 bc 8d d0 41 3d 30 ca 38 3d
       0.031143649 -0.02046098 0.04731803 0.045114696
0002b0 62 42 d6 3c 07 96 bf bb 28 95 07 bd e1 22 a6 3c
       0.0261547 -0.005846742 -0.03310123 0.020280303
0002c0 66 55 04 3c 91 b3 1a 3d cc de 2a bc 37 61 e2 3c
       0.008077001 0.037768904 -0.0104290955 0.027634246
0002d0 25 39 17 bb 34 0a df bc ab 4d 73 3c 7a 7e 07 3d
       -0.0023074832 -0.027226545 0.01485006 0.0330796
0002e0 2a 0b fc 3c 5f 25 86 3c 20 8b 6a 3b 9a b9 9d bc
       0.030767042 0.016375242 0.0035788491 -0.01925354
0002f0 a7 e8 15 3d 19 c7 0b bd a3 a7 3e ba 91 44 37 bc
       0.036598828 -0.03412542 -0.00072729046 -0.011185781
000300 6a 6f 4e 3c c2 ff 2e bd 14 8a 80 3c 4c 8f 9e 3a
       0.012599805 -0.04272438 0.01569084 0.0012097149
000310 64 f5 4d bd 60 8e aa bb d2 59 3d bc e8 eb 8a b9
       -0.05028285 -0.0052049607 -0.011557059 -0.00026497175
000320 5b fe 26 bd f0 9f b9 bc 70 ed dc 3c 06 f7 43 bd
       -0.040769916 -0.022659272 0.026968688 -0.047843
000330 38 49 5c bd 54 82 22 bd 55 9a f1 ba 62 b9 d3 39
       -0.053780764 -0.03967507 -0.0018432835 0.00040383177
000340 9a 7a 84 bc fb df 5f ba 9a 78 bf 3a f7 0d 18 bd
       -0.016171742 -0.00085401506 0.0014608086 -0.037122693
000350 cf 39 0c bd 06 e9 a3 3c a4 74 9f 3c ad ec 89 3d
       -0.034234818 0.020008575 0.019464798 0.067345954
000360 7a cc e7 bc 0a 1c 5d bd 9a 43 d2 bc 26 d4 e1 3c
       -0.028295744 -0.05398182 -0.025667 0.02756698
000370 b6 4c 60 bb d3 50 bf bb ed f5 2f bd b2 d3 01 3d
       -0.003422541 -0.0058384924 -0.042959142 0.03169603
000380 07 88 c7 3c cc 90 07 3c 84 fe c4 3c a0 88 24 bd
       0.024356855 0.008274268 0.024047144 -0.04016936
000390 69 8f 4f bd 06 52 16 3d 98 36 88 3c d6 8f ad bc
       -0.050673876 0.036699317 0.016627595 -0.02118675
0003a0 90 46 48 3c c8 08 f2 bc 7a 1e f6 bc fe f5 d3 3c
       0.012223855 -0.029545203 -0.03004383 0.025874134
0003b0 68 cf 6b 3c ac 40 f7 3b e5 f5 50 bd 58 89 b7 3b
       0.014392711 0.0075455513 -0.051015753 0.0056010894
0003c0 16 df fa bc ad db 0e 3d f5 25 af 3c d0 39 15 bd
       -0.030623954 0.034877468 0.021380404 -0.036432087
0003d0 b4 ec fe 3b eb 2c 01 3d f4 8f 54 bc ee e8 cc bc
       0.007779682 0.031536978 -0.012973774 -0.025013413
0003e0 34 c6 70 bc 81 28 62 bd 75 84 03 bd 07 89 2e 3c
       -0.014695693 -0.05521441 -0.032108743 0.010652787
0003f0 ba 8b 2f bd 3f 2f 19 3d e3 07 54 bd 56 cb 92 bc
       -0.042857863 0.037398573 -0.051765334 -0.017919224

fc2.bias f4 [512]
000000 11 de 79 3d 37 f1 37 bd 0c ac 41 bd db d5 19 3d
       0.061002795 -0.044907775 -0.047283217 0.037557464
000010 50 c8 49 bb be b1 5e 3d d1 3e 33 bc a8 97 26 3d
       -0.0030789562 0.054368727 -0.01094027 0.040671974
000020 dd f9 e7 bc 3b 35 76 bc 4d 84 1f 3d ae 4b 12 3d
       -0.028317386 -0.01502734 0.03894453 0.035716705
000030 89 62 e2 bc 32 c4 5c 3d ff 68 6c 3d 6e 2e 29 3d
       -0.027634876 0.053898044 0.05771732 0.041304044
000040 a5 5a d2 3c e0 3e 61 3d 87 31 2c bb 08 52 61 bd
       0.025677988 0.054991603 -0.0026274638 -0.05500987
000050 c9 7f 25 3d 05 b7 c9 3c ca fa 7c bd 46 39 80 bc
       0.04040507 0.024623403 -0.06176261 -0.01565231
000060 b6 c5 69 bd c8 3b 21 bd 17 83 f0 3c e9 65 2d bd
       -0.057073317 -0.039363652 0.029359384 -0.042333517
000070 38 f1 1b bd 0e de 65 bd 47 12 d0 3a 19 58 41 bc
       -0.03807184 -0.05611997 0.0015874588 -0.011800789
000080 d0 d8 b9 bc ac a3 41 3d a4 ea cf bb 34 c6 72 3d
       -0.022686392 0.04727523 -0.00634511 0.059271052
000090 c4 8a b2 bc 68 9b cc b7 e4 c3 e1 3c 39 56 f8 3b
       -0.021794684 -2.4391062e-05 0.027559228 0.007578638
0000a0 a2 09 4c bd 3b 1b 19 bd a6 22 78 3d 79 93 34 bd
       -0.049813874 -0.037379485 0.06057992 -0.044085953
0000b0 bb 5e 88 3b 11 2e d1 ba 95 b8 e7 bb 6b f1 43 3d
       0.0041616834 -0.0015959163 -0.0070715644 0.047837656
0000c0 87 a5 c5 3b 2d 4d 60 3d 28 92 39 bd 99 ef 16 3d
       0.0060316953 0.0547611 -0.0453054 0.036849592
0000d0 5a 04 2a bd 24 3e 2e 3c fe 25 5b bc d9 1b c2 3c
       -0.041508056 0.010634933 -0.013375757 0.02369492
0000e0 95 bc a2 bb e1 f1 86 bd c2 1e 61 3c b9 7b 7d bc
       -0.0049663284 -0.065891035 0.013740243 -0.015471392
0000f0 78 90 24 3c 80 a7 0f bd 32 19 61 bd 1c a8 44 bd
       0.01004421 -0.03507185 -0.05495567 -0.048011884
000100 4a a8 7b 3d 98 b2 b5 3b 59 08 6a 3a 64 be 6f 3d
       0.06143979 0.0055449717 0.00089276355 0.05853118
000110 35 59 0e bd be 5c 05 bc 08 0a 35 bd a2 cd 20 3b
       -0.034753043 -0.008139787 -0.04419902 0.002453663
000120 65 55 b1 3b b8 2c 6d bd 21 f8 ff bc d8 89 12 bd
       0.005411791 -0.057903975 -0.031246247 -0.03577599
000130 b2 7b f1 bc 68 b2 6d 3d af 6e 8d bc 3e 31 e8 bc
       -0.029477928 0.05803147 -0.017264692 -0.028343793
000140 55 12 5b 3d 4a 9e 11 bd d5 e8 15 bd 48 f9 b1 3c
       0.05348428 -0.035551347 -0.036599 0.021725312
000150 b8 8d 1e bd cc 08 31 bd 2a a8 5d bd c0 7d 50 3d
       -0.038709372 -0.04322128 -0.054115452 0.050901175
000160 22 e8 a4 bc e1 ac 6a bc db 81 58 bc 46 dd 49 bd
       -0.02013022 -0.014323444 -0.013214554 -0.04928329
000170 05 99 63 3d e5 ec 94 bb dd f6 45 bc ff 70 14 bd
       0.055565853 -0.0045448416 -0.012082783 -0.036240574
000180 95 98 64 bd a1 1c 64 3d 48 bb 03 3d 64 79 4b 3c
       -0.055809576 0.055691365 0.032161027 0.0124190785
000190 3f 3f 39 bd ef 15 35 bc 49 59 14 bc a1 c0 3d 3d
       -0.04522633 -0.011052593 -0.00905449 0.046326283
0001a0 e7 44 38 bd 3c c7 fb 3b 73 c9 5d 3d a5 58 28 3d
       -0.044987585 0.0076836627 0.054147195 0.041100163
0001b0 4d 6f 75 ba 43 21 17 ba a2 62 40 3d 42 7b 4b 3c
       -0.00093625934 -0.0005765149 0.046969064 0.012419524
0001c0 99 e7 70 3d a6 8b 45 3d 2c 3e 79 3d 32 a9 81 3d
       0.05881462 0.048228882 0.060850307 0.063310996
0001d0 3b c0 91 3a a5 45 53 3d 78 b2 d3 bb f4 d4 5f 3d
       0.0011119911 0.05158009 -0.006460484 0.054646447
0001e0 34 72 b1 3c 53 ef 9f 3c d6 7c 25 3c 1e 28 6a 3d
       0.021660902 0.019523298 0.010100564 0.057167165
0001f0 e5 00 93 3c 96 ae 25 bd e1 74 68 bd 00 b1 ae bc
       0.017944762 -0.0404497 -0.05675209 -0.021324635
000200 dd 67 3e 3d 35 51 6d bd 0e 51 08 3d 5c 8b ed 3c
       0.04648577 -0.057938773 0.033280425 0.028997116
000210 ea fc 89 bc b9 49 1a 3c ea 54 09 bd 82 aa 28 bd
       -0.016844232 0.009416991 -0.033528246 -0.041178234
000220 d4 86 e1 bc 93 ed 83 3b b0 7b 6e 3b 6d 60 49 bd
       -0.027530111 0.004026124 0.0036389641 -0.049164224
000230 2a 1b 5e 3d 3c eb 49 3d af 4d 45 3d 7c 37 0c 3d
       0.054225124 0.049296603 0.048169788 0.0342326
000240 67 27 91 bc 00 0f 07 bd 7f 92 8b 3c e4 36 63 bd
       -0.017718984 -0.03297329 0.017037628 -0.05547227
000250 30 7c f8 3b ee c3 2f 3b bc 77 5a bd 97 92 56 3d
       0.0075831637 0.0026819664 -0.053336844 0.052385893
000260 20 78 71 bd 7a d7 7a bc 4e 82 9e bc ee 1b ea 3c
       -0.05895245 -0.015310163 -0.019349243 0.028577771
000270 bb 9c d1 3c f3 84 70 bd 24 5a b3 3b e0 51 8d 3b
       0.02558743 -0.05872054 0.005473392 0.004312739
000280 29 d4 34 bd fc 27 c7 3b f9 30 de bb 2f a3 c1 bc
       -0.044147644 0.0060777646 -0.0067807403 -0.023637382
000290 7c 42 12 bd 9d 11 69 3d a8 1c 06 bd 43 d7 48 3d
       -0.035707936 0.056901563 -0.032742172 0.049033415
0002a0 41 14 71 bc 5a 5c 54 bc 04 82 f7 bc 8c 8d 1d bd
       -0.014714302 -0.012961471 -0.030213363 -0.038465068
0002b0 03 f5 55 bc 05 ac 4c 3c 62 fa 3c 3c 97 18 18 bc
       -0.013058904 0.0124921845 0.011534305 -0.009283206
0002c0 fc 3b 42 bd c0 81 c8 3c 71 5b aa bb 70 df 1c bd
       -0.047420487 0.024475932 -0.005198889 -0.038299024
0002d0 0e 0e 58 bd 28 64 80 3d d1 06 40 3d cd bf 4b bc
       -0.05274778 0.06269103 0.0468815 -0.012435866
0002e0 2c 3c 84 3c 71 68 d0 bc 92 58 86 3c 94 5b 04 bc
       0.016141973 -0.025440427 0.016399655 -0.008078475
0002f0 d1 a2 65 bd f7 67 4d 3d 3d 76 a2 3c 97 fe 93 3c
       -0.056063477 0.050147977 0.019831771 0.018065734
000300 88 bf b1 bc 59 a2 76 3b 9c e5 3c bc cc 68 11 3c
       -0.021697775 0.0037633388 -0.0115293525 0.008875083
000310 d4 50 96 3c 29 07 ed 3c 4b 24 e0 ba f5 3c 47 3d
       0.018349089 0.028934078 -0.001710066 0.048642118
000320 06 3d 65 3d af 0a 43 3d 40 e3 0d bd ba e0 00 bd
       0.0559664 0.04761761 -0.03464055 -0.031464316
000330 5a b8 13 3d e6 32 90 bc 27 fe de bc 3d ee f8 3c
       0.036064483 -0.017602395 -0.027220799 0.030387038
000340 f3 c8 72 3d 8b 45 08 bd a9 c8 66 bd 12 eb 38 3d
       0.05927367 -0.033269446 -0.05634371 0.045146056
000350 94 a9 c6 3c fa ca ba bc 55 43 5b bb 46 3f 91 3c
       0.024250783 -0.022801865 -0.003345688 0.017730366
000360 0c ff 0f 3d 8c 27 f4 bc e2 d6 8b 3c 1e 79 02 3d
       0.03515534 -0.029804014 0.017070238 0.031853788
000370 c9 92 81 3c 0d 65 d8 bc fe ec be bc 36 7d 73 3d
       0.015817063 -0.026415372 -0.023306366 0.059445582
000380 76 24 d0 bc 35 11 18 3d b0 b2 68 bc 92 f1 11 3d
       -0.02540801 0.037125785 -0.014202759 0.03563077
000390 b0 a0 31 3c 93 b9 a1 3a 3c 8c 59 3c 73 0c 45 bd
       0.010841534 0.0012338631 0.013278063 -0.048107576
0003a0 a7 a2 a1 3b 64 68 fe bc cb d6 29 3d 06 6b 87 3c
       0.0049327197 -0.031055637 0.04146461 0.016530525
0003b0 a5 e7 58 bd c8 01 2e bd 97 c8 85 3b c9 59 ab bc
       -0.05295529 -0.042482167 0.00408275 -0.020916836
0003c0 b9 e8 28 3d d3 c5 70 3d a5 27 88 3c 7f 88 03 3b
       0.041237567 0.05878241 0.016620466 0.0020070372
0003d0 06 0d 5b 3c a6 93 af 3b 3c 89 94 bc 34 0e 1e ba
       0.013369804 0.0053581772 -0.018131845 -0.0006029338
0003e0 d4 41 e7 3c 45 20 0d 3d 64 5d 18 3d ba f1 25 3d
       0.028229631 0.034454603 0.03719844 0.04051373
0003f0 5b d5 54 bd 85 a8 35 3d 66 23 80 3d 4d 01 86 3c
       -0.051961284 0.044350166 0.06256752 0.016358042

fc3.weight f4 [1, 512]
000000 c2 bc 7a 3c 6a e5 10 3b 6f 9d ed ba 22 46 8b 3a
       0.015303792 0.0022109398 -0.0018128584 0.001062576
000010 18 82 1d 3c fc 36 a6 3b 43 f7 1a 3a 11 e8 65 3c
       0.009613536 0.0050724726 0.00059114787 0.01403238
000020 fe 5d 40 bb 71 0c b4 3b 68 97 0b bc 06 bd af 3b
       -0.0029352899 0.005494647 -0.008519985 0.0053631095
000030 3a b4 31 3b c4 99 18 3b cc 47 bb 39 95 11 d7 bc
       0.002711548 0.002328501 0.00035720912 -0.026253501
000040 74 ec 7b ba cc 13 04 bb fa 84 72 bb 55 32 36 ba
       -0.00096101244 -0.0020153401 -0.003700553 -0.0006950249
000050 94 d2 ca 3b 17 90 9f 3c dd 07 07 bc 00 ea b3 bc
       0.0061896536 0.019477887 -0.008241621 -0.021962166
000060 af 92 bb 3b 89 e9 f3 bb b5 d8 30 bc c6 dc af bb
       0.005724273 -0.007443611 -0.0107938545 -0.0053668944
000070 00 f9 0a 3c 58 dd 75 3b 9b 23 c7 3a 72 af c3 3b
       0.008482218 0.0037515964 0.0015193106 0.0059718424
000080 f2 c3 97 bc 69 16 92 bb a4 0b 42 bd 22 49 b6 3c
       -0.018526051 -0.004458238 -0.047374383 0.02225167
000090 be 51 24 ba 87 ff b8 3b 3e 50 f1 39 da b7 c6 ba
       -0.0006268284 0.0056456956 0.00046026887 -0.0015160993
0000a0 bd db 8c bb b9 12 ed bb fd d0 a5 b8 13 1b 46 3a
       -0.004298656 -0.007234898 -7.90674e-05 0.0007557135
0000b0 d8 5c ee 39 12 25 5b bd eb ed 47 3b e5 13 32 3b
       0.0004546407 -0.05350215 0.00305068 0.0027172503
0000c0 54 da ae ba ed 4c 01 bb 9a 78 29 bb 48 fc 2f bb
       -0.0013340213 -0.001972969 -0.0025859238 -0.0026853252
0000d0 2b cc d4 bb 41 8a 88 bb 03 ce 06 bc 16 d2 ad 39
       -0.0064940653 -0.004166872 -0.008227828 0.00033153658
0000e0 d4 ef 0c 3b 25 75 16 bc ab 74 bc 3c 13 20 02 bb
       0.0021505253 -0.009183203 0.02300485 -0.0019855544
0000f0 f3 5b 74 ba eb 2c 64 bd b6 56 b5 ba 8d 8e ea bb
       -0.0009321563 -0.0557069 -0.0013835046 -0.0071581067
000100 20 50 90 3b 63 7d 03 bb 07 01 3d 3c 9c f4 89 b9
       0.004404083 -0.002006375 0.0115358895 -0.00026312924
000110 69 ae 1d bd 4c a7 ef 3b 5d ba 44 bc 89 c5 e7 3c
       -0.03849641 0.0073136445 -0.012007323 0.028292434
000120 f2 3b ce bc c8 b4 c3 3b 8e eb 52 3b 30 cb 3a 3c
       -0.025175069 0.0059724785 0.0032183859 0.011400983
000130 b1 d1 65 3b fd 89 e5 3a cf 8e cf bb 9c 90 33 3c
       0.0035067613 0.0017512437 -0.006334163 0.0109597705
000140 90 0b b8 bb 05 7a 08 bc f7 0f 8b bb 6f 67 99 3c
       -0.0056166127 -0.008329873 -0.0042438465 0.018726079
000150 32 fa 36 3b 1c cc 25 3c db 2e 50 3b 91 f9 12 3b
       0.0027920124 0.010119464 0.003176621 0.0022426585
000160 06 ba 65 ba 17 f3 3a bc 41 c6 55 3b 04 72 65 bb
       -0.00087633764 -0.011410496 0.003261939 -0.0035010586
000170 01 27 bd ba 91 30 18 bb 29 0c df 39 5b 48 22 3a
       -0.001443118 -0.0023222307 0.00042542935 0.00061905914
000180 99 1a 23 3b 18 7b ac bc 30 4f 80 bc ac 4e e1 3a
       0.002488768 -0.02105479 -0.01566276 0.0017189584
000190 44 67 2d bb c3 aa 4a 3c 41 68 18 3c c0 fa da bb
       -0.0026459256 0.012369814 0.0093022 -0.0066827238
0001a0 d7 38 a0 3c 8b 98 4a bc 59 d1 e9 bb cb d3 ab ba
       0.019558353 -0.012365471 -0.007135552 -0.0013109384
0001b0 df bb 6f bb d1 b3 a3 3d a6 12 19 bd a0 9d 0c bb
       -0.0036580486 0.07993282 -0.0373713 -0.0021456257
0001c0 ac e5 5e 3b 3c 48 28 3c 83 e9 e5 3a 32 8d 26 3c
       0.0034011407 0.010271128 0.0017540905 0.0101654995
0001d0 99 99 07 3b d7 c7 97 3b 1c bb 12 3b 04 cc ea b9
       0.0020690917 0.004631977 0.0022389358 -0.00044783961
0001e0 49 11 bb bc b3 ef 95 3c fc 76 b8 ba ba 40 8e 3b
       -0.02283539 0.018302774 -0.0014073546 0.004341212
0001f0 2e 20 72 bd 8b 3c 97 bb 6c 97 37 bb 21 97 80 3b
       -0.05911272 -0.0046153716 -0.0028013838 0.003924266
000200 94 2f 1a bd db 1e 89 bb 05 3a ae 3b c6 fb 6b bb
       -0.03764303 -0.0041845865 0.005316975 -0.0036008223
000210 03 6b a4 3b 92 5c 22 bb 39 e6 4a ba ac e2 68 3c
       0.0050176396 -0.0024774414 -0.00077399943 0.014214199
000220 68 3f 9e bb fd f7 39 3c 4a b4 69 bc 3a 0a 1d 3a
       -0.004829336 0.011350629 -0.014264176 0.00059905986
000230 b8 03 b5 bc 11 98 1b 3b c9 0d 5a 3a 25 70 1c bc
       -0.0220965 0.0023741762 0.0008318094 -0.009548222
000240 12 b5 13 3b 67 27 f9 ba 31 e3 38 3d 27 aa 43 bc
       0.0022538346 -0.0019008935 0.04513854 -0.011942423
000250 92 6b 07 3b 16 aa 45 bb c4 43 59 3b 66 77 ab 3a
       0.0020663482 -0.0030161194 0.0033151964 0.0013081848
000260 be 5f f2 ba b2 d9 14 3b 22 09 67 ba 07 28 4e 3a
       -0.0018491668 0.0022712764 -0.00088133116 0.0007864241
000270 9f 7d 0c 3d 04 6b aa 3c 7c 3c 49 3c b4 f9 68 3c
       0.03429949 0.020802982 0.012282487 0.01421969
000280 2e 19 3f 3b e8 12 36 3c b0 60 36 3c 70 c1 9b bc
       0.0029159295 0.011112906 0.0111314505 -0.019013137
000290 3b 15 8e bc 4b 2b 39 3b e9 b0 a0 bb e5 35 9a bb
       -0.017344108 0.0028254564 -0.004903902 -0.0047061318
0002a0 0a dd 05 bb 88 e7 0e bc 1d ee 00 3c 20 43 9f 3d
       -0.002042594 -0.008722194 0.007869271 0.07776475
0002b0 e0 c2 13 bc e3 b2 22 39 9c fb 9a bb 33 12 65 3b
       -0.00901863 0.00015516164 -0.004729701 0.0034953475
0002c0 95 6e dd 3a f1 52 7c bc e8 17 21 ba f5 83 5d ba
       0.0016893918 -0.015400634 -0.0006145225 -0.0008450144
0002d0 da ec 62 bb c2 22 a9 bc a6 71 ce ba 7c c0 1e bb
       -0.0034626038 -0.020646457 -0.0015750423 -0.0024223616
0002e0 b5 93 4e bc 68 1c c1 bc 23 3d d2 38 9a 7f d1 ba
       -0.012608458 -0.023573115 0.00010024968 -0.0015983463
0002f0 05 ec df 3c f0 b5 c1 bc f7 fc 09 3c 0f b9 ee 3b
       0.027334223 -0.023646325 0.008422128 0.0072852443
000300 34 6a 55 ba a3 aa 5a bb 8d 18 b7 3b 7a 0d 74 bc
       -0.00081411307 -0.0033365868 0.0055876435 -0.014895791
000310 08 77 03 3c 3b 69 2a 39 25 83 12 3c 42 4b be bb
       0.008023985 0.00016251665 0.0089424 -0.0058073113
000320 78 20 b5 3b a1 1d 7e 3b ce 17 92 ba 01 7f ae bc
       0.005527552 0.0038774984 -0.001114601 -0.021300795
000330 28 bb 17 39 62 f4 f1 bb 22 79 69 3c 6e a4 f5 3c
       0.00014470203 -0.007383869 0.014250072 0.029985633
000340 4f db 62 3b 4f 36 aa ba 08 b1 47 bb 7d 06 90 3c
       0.0034615581 -0.0012986156 -0.003047051 0.017581219
000350 dc 11 c8 3b 58 fe 0f 3c 8f f8 8a 3b 9b 8d ff bb
       0.0061056446 0.008788668 0.0042410563 -0.007798863
000360 a1 38 50 bb cd eb 46 bb d4 ee 03 bd 8e c5 36 3b
       -0.0031772035 -0.003035295 -0.032210186 0.0027888748
000370 57 f9 6e 3c e5 68 e0 3a 92 8b 63 bb 89 f5 d4 3a
       0.014585814 0.0017121105 -0.0034720642 0.0016247492
000380 ab c5 e7 bb d4 b4 85 bc cf 85 0b 3c 11 df d6 bb
       -0.0070731244 -0.016321577 0.008515789 -0.0065573533
000390 bd 27 22 bc ed 01 83 bc 39 00 f4 3b a6 d3 18 3b
       -0.00989717 -0.01599213 0.0074463156 0.0023319512
0003a0 6c 4f 4d 3a 14 ad 84 3c a3 04 9f ba d6 bc dd bc
       0.0007831964 0.016195811 -0.0012132119 -0.027067583
0003b0 af 54 f7 3b 68 27 54 bb 75 e6 6f ba 54 4f 4d bc
       0.007547937 -0.003237212 -0.0009151467 -0.01253112
0003c0 a7 7e 00 bc f5 7e 72 3c 48 19 72 bb 72 cb c9 ba
       -0.007842696 0.014800777 -0.0036941338 -0.0015395714
0003d0 21 96 4a 3b e9 e8 8f 3b 04 4f 0f bb 59 d3 e4 3b
       0.0030912238 0.0043917787 -0.0021867165 0.0069832024
0003e0 7f 3f 5a 3b 61 6f 88 3b ac 32 51 ba 7b 76 fd 3b
       0.0033302007 0.004163668 -0.0007980268 0.0077350712
0003f0 b5 bd 0f 3d 33 8d 42 bb 68 55 4d 3c b9 d1 e4 bc
       0.035093028 -0.0029686212 0.0125325695 -0.027932035
